{"modelTopology": {"versions": {}, "node": [{"op": "Placeholder", "name": "images", "attr": {"shape": {"shape": {"dim": [{"size": "-1"}, {"size": "224"}, {"size": "224"}, {"size": "3"}]}}, "dtype": {"type": "DT_FLOAT"}}}, {"op": "Const", "name": "module_apply_default/hub_input/Mul/y", "attr": {"dtype": {"type": "DT_FLOAT"}, "value": {"tensor": {"dtype": "DT_FLOAT", "tensorShape": {}}}}}, {"op": "Const", "name": "module_apply_default/hub_input/Sub/y", "attr": {"dtype": {"type": "DT_FLOAT"}, "value": {"tensor": {"dtype": "DT_FLOAT", "tensorShape": {}}}}}, {"op": "Const", "name": "module_apply_default/MobilenetV1/MobilenetV1/Conv2d_0/Conv2D/merged_input", "attr": {"dtype": {"type": "DT_FLOAT"}, "value": {"tensor": {"dtype": "DT_FLOAT", "tensorShape": {"dim": [{"size": "3"}, {"size": "3"}, {"size": "3"}, {"size": "32"}]}}}}}, {"op": "Const", "name": "module_apply_default/MobilenetV1/MobilenetV1/Conv2d_0/BatchNorm/FusedBatchNorm/Offset", "attr": {"dtype": {"type": "DT_FLOAT"}, "value": {"tensor": {"dtype": "DT_FLOAT", "tensorShape": {"dim": [{"size": "32"}]}}}}}, {"op": "Const", "name": "module/MobilenetV1/Conv2d_1_depthwise/depthwise_weights", "attr": {"dtype": {"type": "DT_FLOAT"}, "value": {"tensor": {"dtype": "DT_FLOAT", "tensorShape": {"dim": [{"size": "3"}, {"size": "3"}, {"size": "32"}, {"size": "1"}]}}}}}, {"op": "Const", "name": "module_apply_default/MobilenetV1/MobilenetV1/Conv2d_1_depthwise/BatchNorm/FusedBatchNorm/Scaled", "attr": {"dtype": {"type": "DT_FLOAT"}, "value": {"tensor": {"dtype": "DT_FLOAT", "tensorShape": {"dim": [{"size": "32"}]}}}}}, {"op": "Const", "name": "module_apply_default/MobilenetV1/MobilenetV1/Conv2d_1_depthwise/BatchNorm/FusedBatchNorm/Offset", "attr": {"dtype": {"type": "DT_FLOAT"}, "value": {"tensor": {"dtype": "DT_FLOAT", "tensorShape": {"dim": [{"size": "32"}]}}}}}, {"op": "Const", "name": "module_apply_default/MobilenetV1/MobilenetV1/Conv2d_1_pointwise/Conv2D/merged_input", "attr": {"dtype": {"type": "DT_FLOAT"}, "value": {"tensor": {"dtype": "DT_FLOAT", "tensorShape": {"dim": [{"size": "1"}, {"size": "1"}, {"size": "32"}, {"size": "64"}]}}}}}, {"op": "Const", "name": "module_apply_default/MobilenetV1/MobilenetV1/Conv2d_1_pointwise/BatchNorm/FusedBatchNorm/Offset", "attr": {"dtype": {"type": "DT_FLOAT"}, "value": {"tensor": {"dtype": "DT_FLOAT", "tensorShape": {"dim": [{"size": "64"}]}}}}}, {"op": "Const", "name": "module/MobilenetV1/Conv2d_2_depthwise/depthwise_weights", "attr": {"dtype": {"type": "DT_FLOAT"}, "value": {"tensor": {"dtype": "DT_FLOAT", "tensorShape": {"dim": [{"size": "3"}, {"size": "3"}, {"size": "64"}, {"size": "1"}]}}}}}, {"op": "Const", "name": "module_apply_default/MobilenetV1/MobilenetV1/Conv2d_2_depthwise/BatchNorm/FusedBatchNorm/Scaled", "attr": {"dtype": {"type": "DT_FLOAT"}, "value": {"tensor": {"dtype": "DT_FLOAT", "tensorShape": {"dim": [{"size": "64"}]}}}}}, {"op": "Const", "name": "module_apply_default/MobilenetV1/MobilenetV1/Conv2d_2_depthwise/BatchNorm/FusedBatchNorm/Offset", "attr": {"dtype": {"type": "DT_FLOAT"}, "value": {"tensor": {"dtype": "DT_FLOAT", "tensorShape": {"dim": [{"size": "64"}]}}}}}, {"op": "Const", "name": "module_apply_default/MobilenetV1/MobilenetV1/Conv2d_2_pointwise/Conv2D/merged_input", "attr": {"value": {"tensor": {"dtype": "DT_FLOAT", "tensorShape": {"dim": [{"size": "1"}, {"size": "1"}, {"size": "64"}, {"size": "128"}]}}}, "dtype": {"type": "DT_FLOAT"}}}, {"op": "Const", "name": "module_apply_default/MobilenetV1/MobilenetV1/Conv2d_2_pointwise/BatchNorm/FusedBatchNorm/Offset", "attr": {"dtype": {"type": "DT_FLOAT"}, "value": {"tensor": {"dtype": "DT_FLOAT", "tensorShape": {"dim": [{"size": "128"}]}}}}}, {"op": "Const", "name": "module/MobilenetV1/Conv2d_3_depthwise/depthwise_weights", "attr": {"dtype": {"type": "DT_FLOAT"}, "value": {"tensor": {"dtype": "DT_FLOAT", "tensorShape": {"dim": [{"size": "3"}, {"size": "3"}, {"size": "128"}, {"size": "1"}]}}}}}, {"op": "Const", "name": "module_apply_default/MobilenetV1/MobilenetV1/Conv2d_3_depthwise/BatchNorm/FusedBatchNorm/Scaled", "attr": {"dtype": {"type": "DT_FLOAT"}, "value": {"tensor": {"dtype": "DT_FLOAT", "tensorShape": {"dim": [{"size": "128"}]}}}}}, {"op": "Const", "name": "module_apply_default/MobilenetV1/MobilenetV1/Conv2d_3_depthwise/BatchNorm/FusedBatchNorm/Offset", "attr": {"dtype": {"type": "DT_FLOAT"}, "value": {"tensor": {"dtype": "DT_FLOAT", "tensorShape": {"dim": [{"size": "128"}]}}}}}, {"op": "Const", "name": "module_apply_default/MobilenetV1/MobilenetV1/Conv2d_3_pointwise/Conv2D/merged_input", "attr": {"dtype": {"type": "DT_FLOAT"}, "value": {"tensor": {"dtype": "DT_FLOAT", "tensorShape": {"dim": [{"size": "1"}, {"size": "1"}, {"size": "128"}, {"size": "128"}]}}}}}, {"op": "Const", "name": "module_apply_default/MobilenetV1/MobilenetV1/Conv2d_3_pointwise/BatchNorm/FusedBatchNorm/Offset", "attr": {"dtype": {"type": "DT_FLOAT"}, "value": {"tensor": {"dtype": "DT_FLOAT", "tensorShape": {"dim": [{"size": "128"}]}}}}}, {"op": "Const", "name": "module/MobilenetV1/Conv2d_4_depthwise/depthwise_weights", "attr": {"dtype": {"type": "DT_FLOAT"}, "value": {"tensor": {"dtype": "DT_FLOAT", "tensorShape": {"dim": [{"size": "3"}, {"size": "3"}, {"size": "128"}, {"size": "1"}]}}}}}, {"op": "Const", "name": "module_apply_default/MobilenetV1/MobilenetV1/Conv2d_4_depthwise/BatchNorm/FusedBatchNorm/Scaled", "attr": {"dtype": {"type": "DT_FLOAT"}, "value": {"tensor": {"dtype": "DT_FLOAT", "tensorShape": {"dim": [{"size": "128"}]}}}}}, {"op": "Const", "name": "module_apply_default/MobilenetV1/MobilenetV1/Conv2d_4_depthwise/BatchNorm/FusedBatchNorm/Offset", "attr": {"dtype": {"type": "DT_FLOAT"}, "value": {"tensor": {"dtype": "DT_FLOAT", "tensorShape": {"dim": [{"size": "128"}]}}}}}, {"op": "Const", "name": "module_apply_default/MobilenetV1/MobilenetV1/Conv2d_4_pointwise/Conv2D/merged_input", "attr": {"dtype": {"type": "DT_FLOAT"}, "value": {"tensor": {"dtype": "DT_FLOAT", "tensorShape": {"dim": [{"size": "1"}, {"size": "1"}, {"size": "128"}, {"size": "256"}]}}}}}, {"op": "Const", "name": "module_apply_default/MobilenetV1/MobilenetV1/Conv2d_4_pointwise/BatchNorm/FusedBatchNorm/Offset", "attr": {"dtype": {"type": "DT_FLOAT"}, "value": {"tensor": {"dtype": "DT_FLOAT", "tensorShape": {"dim": [{"size": "256"}]}}}}}, {"op": "Const", "name": "module/MobilenetV1/Conv2d_5_depthwise/depthwise_weights", "attr": {"dtype": {"type": "DT_FLOAT"}, "value": {"tensor": {"dtype": "DT_FLOAT", "tensorShape": {"dim": [{"size": "3"}, {"size": "3"}, {"size": "256"}, {"size": "1"}]}}}}}, {"op": "Const", "name": "module_apply_default/MobilenetV1/MobilenetV1/Conv2d_5_depthwise/BatchNorm/FusedBatchNorm/Scaled", "attr": {"dtype": {"type": "DT_FLOAT"}, "value": {"tensor": {"dtype": "DT_FLOAT", "tensorShape": {"dim": [{"size": "256"}]}}}}}, {"op": "Const", "name": "module_apply_default/MobilenetV1/MobilenetV1/Conv2d_5_depthwise/BatchNorm/FusedBatchNorm/Offset", "attr": {"dtype": {"type": "DT_FLOAT"}, "value": {"tensor": {"dtype": "DT_FLOAT", "tensorShape": {"dim": [{"size": "256"}]}}}}}, {"op": "Const", "name": "module_apply_default/MobilenetV1/MobilenetV1/Conv2d_5_pointwise/Conv2D/merged_input", "attr": {"dtype": {"type": "DT_FLOAT"}, "value": {"tensor": {"dtype": "DT_FLOAT", "tensorShape": {"dim": [{"size": "1"}, {"size": "1"}, {"size": "256"}, {"size": "256"}]}}}}}, {"op": "Const", "name": "module_apply_default/MobilenetV1/MobilenetV1/Conv2d_5_pointwise/BatchNorm/FusedBatchNorm/Offset", "attr": {"dtype": {"type": "DT_FLOAT"}, "value": {"tensor": {"dtype": "DT_FLOAT", "tensorShape": {"dim": [{"size": "256"}]}}}}}, {"op": "Const", "name": "module/MobilenetV1/Conv2d_6_depthwise/depthwise_weights", "attr": {"dtype": {"type": "DT_FLOAT"}, "value": {"tensor": {"dtype": "DT_FLOAT", "tensorShape": {"dim": [{"size": "3"}, {"size": "3"}, {"size": "256"}, {"size": "1"}]}}}}}, {"op": "Const", "name": "module_apply_default/MobilenetV1/MobilenetV1/Conv2d_6_depthwise/BatchNorm/FusedBatchNorm/Scaled", "attr": {"dtype": {"type": "DT_FLOAT"}, "value": {"tensor": {"dtype": "DT_FLOAT", "tensorShape": {"dim": [{"size": "256"}]}}}}}, {"op": "Const", "name": "module_apply_default/MobilenetV1/MobilenetV1/Conv2d_6_depthwise/BatchNorm/FusedBatchNorm/Offset", "attr": {"dtype": {"type": "DT_FLOAT"}, "value": {"tensor": {"dtype": "DT_FLOAT", "tensorShape": {"dim": [{"size": "256"}]}}}}}, {"op": "Const", "name": "module_apply_default/MobilenetV1/MobilenetV1/Conv2d_6_pointwise/Conv2D/merged_input", "attr": {"dtype": {"type": "DT_FLOAT"}, "value": {"tensor": {"dtype": "DT_FLOAT", "tensorShape": {"dim": [{"size": "1"}, {"size": "1"}, {"size": "256"}, {"size": "512"}]}}}}}, {"op": "Const", "name": "module_apply_default/MobilenetV1/MobilenetV1/Conv2d_6_pointwise/BatchNorm/FusedBatchNorm/Offset", "attr": {"dtype": {"type": "DT_FLOAT"}, "value": {"tensor": {"dtype": "DT_FLOAT", "tensorShape": {"dim": [{"size": "512"}]}}}}}, {"op": "Const", "name": "module/MobilenetV1/Conv2d_7_depthwise/depthwise_weights", "attr": {"dtype": {"type": "DT_FLOAT"}, "value": {"tensor": {"dtype": "DT_FLOAT", "tensorShape": {"dim": [{"size": "3"}, {"size": "3"}, {"size": "512"}, {"size": "1"}]}}}}}, {"op": "Const", "name": "module_apply_default/MobilenetV1/MobilenetV1/Conv2d_7_depthwise/BatchNorm/FusedBatchNorm/Scaled", "attr": {"dtype": {"type": "DT_FLOAT"}, "value": {"tensor": {"dtype": "DT_FLOAT", "tensorShape": {"dim": [{"size": "512"}]}}}}}, {"op": "Const", "name": "module_apply_default/MobilenetV1/MobilenetV1/Conv2d_7_depthwise/BatchNorm/FusedBatchNorm/Offset", "attr": {"dtype": {"type": "DT_FLOAT"}, "value": {"tensor": {"dtype": "DT_FLOAT", "tensorShape": {"dim": [{"size": "512"}]}}}}}, {"op": "Const", "name": "module_apply_default/MobilenetV1/MobilenetV1/Conv2d_7_pointwise/Conv2D/merged_input", "attr": {"value": {"tensor": {"dtype": "DT_FLOAT", "tensorShape": {"dim": [{"size": "1"}, {"size": "1"}, {"size": "512"}, {"size": "512"}]}}}, "dtype": {"type": "DT_FLOAT"}}}, {"op": "Const", "name": "module_apply_default/MobilenetV1/MobilenetV1/Conv2d_7_pointwise/BatchNorm/FusedBatchNorm/Offset", "attr": {"dtype": {"type": "DT_FLOAT"}, "value": {"tensor": {"dtype": "DT_FLOAT", "tensorShape": {"dim": [{"size": "512"}]}}}}}, {"op": "Const", "name": "module/MobilenetV1/Conv2d_8_depthwise/depthwise_weights", "attr": {"dtype": {"type": "DT_FLOAT"}, "value": {"tensor": {"dtype": "DT_FLOAT", "tensorShape": {"dim": [{"size": "3"}, {"size": "3"}, {"size": "512"}, {"size": "1"}]}}}}}, {"op": "Const", "name": "module_apply_default/MobilenetV1/MobilenetV1/Conv2d_8_depthwise/BatchNorm/FusedBatchNorm/Scaled", "attr": {"dtype": {"type": "DT_FLOAT"}, "value": {"tensor": {"dtype": "DT_FLOAT", "tensorShape": {"dim": [{"size": "512"}]}}}}}, {"op": "Const", "name": "module_apply_default/MobilenetV1/MobilenetV1/Conv2d_8_depthwise/BatchNorm/FusedBatchNorm/Offset", "attr": {"dtype": {"type": "DT_FLOAT"}, "value": {"tensor": {"dtype": "DT_FLOAT", "tensorShape": {"dim": [{"size": "512"}]}}}}}, {"op": "Const", "name": "module_apply_default/MobilenetV1/MobilenetV1/Conv2d_8_pointwise/Conv2D/merged_input", "attr": {"dtype": {"type": "DT_FLOAT"}, "value": {"tensor": {"dtype": "DT_FLOAT", "tensorShape": {"dim": [{"size": "1"}, {"size": "1"}, {"size": "512"}, {"size": "512"}]}}}}}, {"op": "Const", "name": "module_apply_default/MobilenetV1/MobilenetV1/Conv2d_8_pointwise/BatchNorm/FusedBatchNorm/Offset", "attr": {"dtype": {"type": "DT_FLOAT"}, "value": {"tensor": {"dtype": "DT_FLOAT", "tensorShape": {"dim": [{"size": "512"}]}}}}}, {"op": "Const", "name": "module/MobilenetV1/Conv2d_9_depthwise/depthwise_weights", "attr": {"dtype": {"type": "DT_FLOAT"}, "value": {"tensor": {"dtype": "DT_FLOAT", "tensorShape": {"dim": [{"size": "3"}, {"size": "3"}, {"size": "512"}, {"size": "1"}]}}}}}, {"op": "Const", "name": "module_apply_default/MobilenetV1/MobilenetV1/Conv2d_9_depthwise/BatchNorm/FusedBatchNorm/Scaled", "attr": {"dtype": {"type": "DT_FLOAT"}, "value": {"tensor": {"dtype": "DT_FLOAT", "tensorShape": {"dim": [{"size": "512"}]}}}}}, {"op": "Const", "name": "module_apply_default/MobilenetV1/MobilenetV1/Conv2d_9_depthwise/BatchNorm/FusedBatchNorm/Offset", "attr": {"dtype": {"type": "DT_FLOAT"}, "value": {"tensor": {"dtype": "DT_FLOAT", "tensorShape": {"dim": [{"size": "512"}]}}}}}, {"op": "Const", "name": "module_apply_default/MobilenetV1/MobilenetV1/Conv2d_9_pointwise/Conv2D/merged_input", "attr": {"value": {"tensor": {"dtype": "DT_FLOAT", "tensorShape": {"dim": [{"size": "1"}, {"size": "1"}, {"size": "512"}, {"size": "512"}]}}}, "dtype": {"type": "DT_FLOAT"}}}, {"op": "Const", "name": "module_apply_default/MobilenetV1/MobilenetV1/Conv2d_9_pointwise/BatchNorm/FusedBatchNorm/Offset", "attr": {"dtype": {"type": "DT_FLOAT"}, "value": {"tensor": {"dtype": "DT_FLOAT", "tensorShape": {"dim": [{"size": "512"}]}}}}}, {"op": "Const", "name": "module/MobilenetV1/Conv2d_10_depthwise/depthwise_weights", "attr": {"dtype": {"type": "DT_FLOAT"}, "value": {"tensor": {"dtype": "DT_FLOAT", "tensorShape": {"dim": [{"size": "3"}, {"size": "3"}, {"size": "512"}, {"size": "1"}]}}}}}, {"op": "Const", "name": "module_apply_default/MobilenetV1/MobilenetV1/Conv2d_10_depthwise/BatchNorm/FusedBatchNorm/Scaled", "attr": {"dtype": {"type": "DT_FLOAT"}, "value": {"tensor": {"dtype": "DT_FLOAT", "tensorShape": {"dim": [{"size": "512"}]}}}}}, {"op": "Const", "name": "module_apply_default/MobilenetV1/MobilenetV1/Conv2d_10_depthwise/BatchNorm/FusedBatchNorm/Offset", "attr": {"dtype": {"type": "DT_FLOAT"}, "value": {"tensor": {"dtype": "DT_FLOAT", "tensorShape": {"dim": [{"size": "512"}]}}}}}, {"op": "Const", "name": "module_apply_default/MobilenetV1/MobilenetV1/Conv2d_10_pointwise/Conv2D/merged_input", "attr": {"dtype": {"type": "DT_FLOAT"}, "value": {"tensor": {"dtype": "DT_FLOAT", "tensorShape": {"dim": [{"size": "1"}, {"size": "1"}, {"size": "512"}, {"size": "512"}]}}}}}, {"op": "Const", "name": "module_apply_default/MobilenetV1/MobilenetV1/Conv2d_10_pointwise/BatchNorm/FusedBatchNorm/Offset", "attr": {"dtype": {"type": "DT_FLOAT"}, "value": {"tensor": {"dtype": "DT_FLOAT", "tensorShape": {"dim": [{"size": "512"}]}}}}}, {"op": "Const", "name": "module/MobilenetV1/Conv2d_11_depthwise/depthwise_weights", "attr": {"dtype": {"type": "DT_FLOAT"}, "value": {"tensor": {"dtype": "DT_FLOAT", "tensorShape": {"dim": [{"size": "3"}, {"size": "3"}, {"size": "512"}, {"size": "1"}]}}}}}, {"op": "Const", "name": "module_apply_default/MobilenetV1/MobilenetV1/Conv2d_11_depthwise/BatchNorm/FusedBatchNorm/Scaled", "attr": {"dtype": {"type": "DT_FLOAT"}, "value": {"tensor": {"dtype": "DT_FLOAT", "tensorShape": {"dim": [{"size": "512"}]}}}}}, {"op": "Const", "name": "module_apply_default/MobilenetV1/MobilenetV1/Conv2d_11_depthwise/BatchNorm/FusedBatchNorm/Offset", "attr": {"dtype": {"type": "DT_FLOAT"}, "value": {"tensor": {"dtype": "DT_FLOAT", "tensorShape": {"dim": [{"size": "512"}]}}}}}, {"op": "Const", "name": "module_apply_default/MobilenetV1/MobilenetV1/Conv2d_11_pointwise/Conv2D/merged_input", "attr": {"dtype": {"type": "DT_FLOAT"}, "value": {"tensor": {"dtype": "DT_FLOAT", "tensorShape": {"dim": [{"size": "1"}, {"size": "1"}, {"size": "512"}, {"size": "512"}]}}}}}, {"op": "Const", "name": "module_apply_default/MobilenetV1/MobilenetV1/Conv2d_11_pointwise/BatchNorm/FusedBatchNorm/Offset", "attr": {"dtype": {"type": "DT_FLOAT"}, "value": {"tensor": {"dtype": "DT_FLOAT", "tensorShape": {"dim": [{"size": "512"}]}}}}}, {"op": "Const", "name": "module/MobilenetV1/Conv2d_12_depthwise/depthwise_weights", "attr": {"dtype": {"type": "DT_FLOAT"}, "value": {"tensor": {"dtype": "DT_FLOAT", "tensorShape": {"dim": [{"size": "3"}, {"size": "3"}, {"size": "512"}, {"size": "1"}]}}}}}, {"op": "Const", "name": "module_apply_default/MobilenetV1/MobilenetV1/Conv2d_12_depthwise/BatchNorm/FusedBatchNorm/Scaled", "attr": {"dtype": {"type": "DT_FLOAT"}, "value": {"tensor": {"dtype": "DT_FLOAT", "tensorShape": {"dim": [{"size": "512"}]}}}}}, {"op": "Const", "name": "module_apply_default/MobilenetV1/MobilenetV1/Conv2d_12_depthwise/BatchNorm/FusedBatchNorm/Offset", "attr": {"dtype": {"type": "DT_FLOAT"}, "value": {"tensor": {"dtype": "DT_FLOAT", "tensorShape": {"dim": [{"size": "512"}]}}}}}, {"op": "Const", "name": "module_apply_default/MobilenetV1/MobilenetV1/Conv2d_12_pointwise/Conv2D/merged_input", "attr": {"value": {"tensor": {"dtype": "DT_FLOAT", "tensorShape": {"dim": [{"size": "1"}, {"size": "1"}, {"size": "512"}, {"size": "1024"}]}}}, "dtype": {"type": "DT_FLOAT"}}}, {"op": "Const", "name": "module_apply_default/MobilenetV1/MobilenetV1/Conv2d_12_pointwise/BatchNorm/FusedBatchNorm/Offset", "attr": {"dtype": {"type": "DT_FLOAT"}, "value": {"tensor": {"dtype": "DT_FLOAT", "tensorShape": {"dim": [{"size": "1024"}]}}}}}, {"op": "Const", "name": "module/MobilenetV1/Conv2d_13_depthwise/depthwise_weights", "attr": {"dtype": {"type": "DT_FLOAT"}, "value": {"tensor": {"dtype": "DT_FLOAT", "tensorShape": {"dim": [{"size": "3"}, {"size": "3"}, {"size": "1024"}, {"size": "1"}]}}}}}, {"op": "Const", "name": "module_apply_default/MobilenetV1/MobilenetV1/Conv2d_13_depthwise/BatchNorm/FusedBatchNorm/Scaled", "attr": {"dtype": {"type": "DT_FLOAT"}, "value": {"tensor": {"dtype": "DT_FLOAT", "tensorShape": {"dim": [{"size": "1024"}]}}}}}, {"op": "Const", "name": "module_apply_default/MobilenetV1/MobilenetV1/Conv2d_13_depthwise/BatchNorm/FusedBatchNorm/Offset", "attr": {"dtype": {"type": "DT_FLOAT"}, "value": {"tensor": {"dtype": "DT_FLOAT", "tensorShape": {"dim": [{"size": "1024"}]}}}}}, {"op": "Const", "name": "module_apply_default/MobilenetV1/MobilenetV1/Conv2d_13_pointwise/Conv2D/merged_input", "attr": {"dtype": {"type": "DT_FLOAT"}, "value": {"tensor": {"dtype": "DT_FLOAT", "tensorShape": {"dim": [{"size": "1"}, {"size": "1"}, {"size": "1024"}, {"size": "1024"}]}}}}}, {"op": "Const", "name": "module_apply_default/MobilenetV1/MobilenetV1/Conv2d_13_pointwise/BatchNorm/FusedBatchNorm/Offset", "attr": {"dtype": {"type": "DT_FLOAT"}, "value": {"tensor": {"dtype": "DT_FLOAT", "tensorShape": {"dim": [{"size": "1024"}]}}}}}, {"op": "Const", "name": "module_apply_default/MobilenetV1/Logits/global_pool/reduction_indices", "attr": {"dtype": {"type": "DT_INT32"}, "value": {"tensor": {"dtype": "DT_INT32", "tensorShape": {"dim": [{"size": "2"}]}}}}}, {"op": "Const", "name": "module/MobilenetV1/Logits/Conv2d_1c_1x1/weights", "attr": {"dtype": {"type": "DT_FLOAT"}, "value": {"tensor": {"dtype": "DT_FLOAT", "tensorShape": {"dim": [{"size": "1"}, {"size": "1"}, {"size": "1024"}, {"size": "1001"}]}}}}}, {"op": "Const", "name": "module/MobilenetV1/Logits/Conv2d_1c_1x1/biases", "attr": {"dtype": {"type": "DT_FLOAT"}, "value": {"tensor": {"dtype": "DT_FLOAT", "tensorShape": {"dim": [{"size": "1001"}]}}}}}, {"op": "Mul", "input": ["images", "module_apply_default/hub_input/Mul/y"], "name": "module_apply_default/hub_input/Mul", "attr": {"T": {"type": "DT_FLOAT"}}}, {"op": "Sub", "input": ["module_apply_default/hub_input/Mul", "module_apply_default/hub_input/Sub/y"], "name": "module_apply_default/hub_input/Sub", "attr": {"T": {"type": "DT_FLOAT"}}}, {"op": "Conv2D", "input": ["module_apply_default/hub_input/Sub", "module_apply_default/MobilenetV1/MobilenetV1/Conv2d_0/Conv2D/merged_input"], "name": "module_apply_default/MobilenetV1/MobilenetV1/Conv2d_0/BatchNorm/FusedBatchNorm/Mul", "attr": {"use_cudnn_on_gpu": {"b": true}, "T": {"type": "DT_FLOAT"}, "dilations": {"list": {"i": ["1", "1", "1", "1"]}}, "padding": {"s": "U0FNRQ=="}, "data_format": {"s": "TkhXQw=="}, "strides": {"list": {"i": ["1", "2", "2", "1"]}}}}, {"op": "Add", "input": ["module_apply_default/MobilenetV1/MobilenetV1/Conv2d_0/BatchNorm/FusedBatchNorm/Mul", "module_apply_default/MobilenetV1/MobilenetV1/Conv2d_0/BatchNorm/FusedBatchNorm/Offset"], "name": "module_apply_default/MobilenetV1/MobilenetV1/Conv2d_0/BatchNorm/FusedBatchNorm", "attr": {"T": {"type": "DT_FLOAT"}}}, {"op": "Relu6", "input": ["module_apply_default/MobilenetV1/MobilenetV1/Conv2d_0/BatchNorm/FusedBatchNorm"], "name": "module_apply_default/MobilenetV1/MobilenetV1/Conv2d_0/Relu6", "attr": {"T": {"type": "DT_FLOAT"}}}, {"op": "DepthwiseConv2dNative", "input": ["module_apply_default/MobilenetV1/MobilenetV1/Conv2d_0/Relu6", "module/MobilenetV1/Conv2d_1_depthwise/depthwise_weights"], "name": "module_apply_default/MobilenetV1/MobilenetV1/Conv2d_1_depthwise/depthwise", "attr": {"dilations": {"list": {"i": ["1", "1", "1", "1"]}}, "data_format": {"s": "TkhXQw=="}, "T": {"type": "DT_FLOAT"}, "strides": {"list": {"i": ["1", "1", "1", "1"]}}, "padding": {"s": "U0FNRQ=="}}}, {"op": "Mul", "input": ["module_apply_default/MobilenetV1/MobilenetV1/Conv2d_1_depthwise/depthwise", "module_apply_default/MobilenetV1/MobilenetV1/Conv2d_1_depthwise/BatchNorm/FusedBatchNorm/Scaled"], "name": "module_apply_default/MobilenetV1/MobilenetV1/Conv2d_1_depthwise/BatchNorm/FusedBatchNorm/Mul", "attr": {"T": {"type": "DT_FLOAT"}}}, {"op": "Add", "input": ["module_apply_default/MobilenetV1/MobilenetV1/Conv2d_1_depthwise/BatchNorm/FusedBatchNorm/Mul", "module_apply_default/MobilenetV1/MobilenetV1/Conv2d_1_depthwise/BatchNorm/FusedBatchNorm/Offset"], "name": "module_apply_default/MobilenetV1/MobilenetV1/Conv2d_1_depthwise/BatchNorm/FusedBatchNorm", "attr": {"T": {"type": "DT_FLOAT"}}}, {"op": "Relu6", "input": ["module_apply_default/MobilenetV1/MobilenetV1/Conv2d_1_depthwise/BatchNorm/FusedBatchNorm"], "name": "module_apply_default/MobilenetV1/MobilenetV1/Conv2d_1_depthwise/Relu6", "attr": {"T": {"type": "DT_FLOAT"}}}, {"op": "Conv2D", "input": ["module_apply_default/MobilenetV1/MobilenetV1/Conv2d_1_depthwise/Relu6", "module_apply_default/MobilenetV1/MobilenetV1/Conv2d_1_pointwise/Conv2D/merged_input"], "name": "module_apply_default/MobilenetV1/MobilenetV1/Conv2d_1_pointwise/BatchNorm/FusedBatchNorm/Mul", "attr": {"use_cudnn_on_gpu": {"b": true}, "T": {"type": "DT_FLOAT"}, "dilations": {"list": {"i": ["1", "1", "1", "1"]}}, "padding": {"s": "U0FNRQ=="}, "data_format": {"s": "TkhXQw=="}, "strides": {"list": {"i": ["1", "1", "1", "1"]}}}}, {"op": "Add", "input": ["module_apply_default/MobilenetV1/MobilenetV1/Conv2d_1_pointwise/BatchNorm/FusedBatchNorm/Mul", "module_apply_default/MobilenetV1/MobilenetV1/Conv2d_1_pointwise/BatchNorm/FusedBatchNorm/Offset"], "name": "module_apply_default/MobilenetV1/MobilenetV1/Conv2d_1_pointwise/BatchNorm/FusedBatchNorm", "attr": {"T": {"type": "DT_FLOAT"}}}, {"op": "Relu6", "input": ["module_apply_default/MobilenetV1/MobilenetV1/Conv2d_1_pointwise/BatchNorm/FusedBatchNorm"], "name": "module_apply_default/MobilenetV1/MobilenetV1/Conv2d_1_pointwise/Relu6", "attr": {"T": {"type": "DT_FLOAT"}}}, {"op": "DepthwiseConv2dNative", "input": ["module_apply_default/MobilenetV1/MobilenetV1/Conv2d_1_pointwise/Relu6", "module/MobilenetV1/Conv2d_2_depthwise/depthwise_weights"], "name": "module_apply_default/MobilenetV1/MobilenetV1/Conv2d_2_depthwise/depthwise", "attr": {"strides": {"list": {"i": ["1", "2", "2", "1"]}}, "data_format": {"s": "TkhXQw=="}, "T": {"type": "DT_FLOAT"}, "dilations": {"list": {"i": ["1", "1", "1", "1"]}}, "padding": {"s": "U0FNRQ=="}}}, {"op": "Mul", "input": ["module_apply_default/MobilenetV1/MobilenetV1/Conv2d_2_depthwise/depthwise", "module_apply_default/MobilenetV1/MobilenetV1/Conv2d_2_depthwise/BatchNorm/FusedBatchNorm/Scaled"], "name": "module_apply_default/MobilenetV1/MobilenetV1/Conv2d_2_depthwise/BatchNorm/FusedBatchNorm/Mul", "attr": {"T": {"type": "DT_FLOAT"}}}, {"op": "Add", "input": ["module_apply_default/MobilenetV1/MobilenetV1/Conv2d_2_depthwise/BatchNorm/FusedBatchNorm/Mul", "module_apply_default/MobilenetV1/MobilenetV1/Conv2d_2_depthwise/BatchNorm/FusedBatchNorm/Offset"], "name": "module_apply_default/MobilenetV1/MobilenetV1/Conv2d_2_depthwise/BatchNorm/FusedBatchNorm", "attr": {"T": {"type": "DT_FLOAT"}}}, {"op": "Relu6", "input": ["module_apply_default/MobilenetV1/MobilenetV1/Conv2d_2_depthwise/BatchNorm/FusedBatchNorm"], "name": "module_apply_default/MobilenetV1/MobilenetV1/Conv2d_2_depthwise/Relu6", "attr": {"T": {"type": "DT_FLOAT"}}}, {"op": "Conv2D", "input": ["module_apply_default/MobilenetV1/MobilenetV1/Conv2d_2_depthwise/Relu6", "module_apply_default/MobilenetV1/MobilenetV1/Conv2d_2_pointwise/Conv2D/merged_input"], "name": "module_apply_default/MobilenetV1/MobilenetV1/Conv2d_2_pointwise/BatchNorm/FusedBatchNorm/Mul", "attr": {"use_cudnn_on_gpu": {"b": true}, "T": {"type": "DT_FLOAT"}, "dilations": {"list": {"i": ["1", "1", "1", "1"]}}, "padding": {"s": "U0FNRQ=="}, "data_format": {"s": "TkhXQw=="}, "strides": {"list": {"i": ["1", "1", "1", "1"]}}}}, {"op": "Add", "input": ["module_apply_default/MobilenetV1/MobilenetV1/Conv2d_2_pointwise/BatchNorm/FusedBatchNorm/Mul", "module_apply_default/MobilenetV1/MobilenetV1/Conv2d_2_pointwise/BatchNorm/FusedBatchNorm/Offset"], "name": "module_apply_default/MobilenetV1/MobilenetV1/Conv2d_2_pointwise/BatchNorm/FusedBatchNorm", "attr": {"T": {"type": "DT_FLOAT"}}}, {"op": "Relu6", "input": ["module_apply_default/MobilenetV1/MobilenetV1/Conv2d_2_pointwise/BatchNorm/FusedBatchNorm"], "name": "module_apply_default/MobilenetV1/MobilenetV1/Conv2d_2_pointwise/Relu6", "attr": {"T": {"type": "DT_FLOAT"}}}, {"op": "DepthwiseConv2dNative", "input": ["module_apply_default/MobilenetV1/MobilenetV1/Conv2d_2_pointwise/Relu6", "module/MobilenetV1/Conv2d_3_depthwise/depthwise_weights"], "name": "module_apply_default/MobilenetV1/MobilenetV1/Conv2d_3_depthwise/depthwise", "attr": {"strides": {"list": {"i": ["1", "1", "1", "1"]}}, "data_format": {"s": "TkhXQw=="}, "T": {"type": "DT_FLOAT"}, "dilations": {"list": {"i": ["1", "1", "1", "1"]}}, "padding": {"s": "U0FNRQ=="}}}, {"op": "Mul", "input": ["module_apply_default/MobilenetV1/MobilenetV1/Conv2d_3_depthwise/depthwise", "module_apply_default/MobilenetV1/MobilenetV1/Conv2d_3_depthwise/BatchNorm/FusedBatchNorm/Scaled"], "name": "module_apply_default/MobilenetV1/MobilenetV1/Conv2d_3_depthwise/BatchNorm/FusedBatchNorm/Mul", "attr": {"T": {"type": "DT_FLOAT"}}}, {"op": "Add", "input": ["module_apply_default/MobilenetV1/MobilenetV1/Conv2d_3_depthwise/BatchNorm/FusedBatchNorm/Mul", "module_apply_default/MobilenetV1/MobilenetV1/Conv2d_3_depthwise/BatchNorm/FusedBatchNorm/Offset"], "name": "module_apply_default/MobilenetV1/MobilenetV1/Conv2d_3_depthwise/BatchNorm/FusedBatchNorm", "attr": {"T": {"type": "DT_FLOAT"}}}, {"op": "Relu6", "input": ["module_apply_default/MobilenetV1/MobilenetV1/Conv2d_3_depthwise/BatchNorm/FusedBatchNorm"], "name": "module_apply_default/MobilenetV1/MobilenetV1/Conv2d_3_depthwise/Relu6", "attr": {"T": {"type": "DT_FLOAT"}}}, {"op": "Conv2D", "input": ["module_apply_default/MobilenetV1/MobilenetV1/Conv2d_3_depthwise/Relu6", "module_apply_default/MobilenetV1/MobilenetV1/Conv2d_3_pointwise/Conv2D/merged_input"], "name": "module_apply_default/MobilenetV1/MobilenetV1/Conv2d_3_pointwise/BatchNorm/FusedBatchNorm/Mul", "attr": {"use_cudnn_on_gpu": {"b": true}, "T": {"type": "DT_FLOAT"}, "dilations": {"list": {"i": ["1", "1", "1", "1"]}}, "padding": {"s": "U0FNRQ=="}, "data_format": {"s": "TkhXQw=="}, "strides": {"list": {"i": ["1", "1", "1", "1"]}}}}, {"op": "Add", "input": ["module_apply_default/MobilenetV1/MobilenetV1/Conv2d_3_pointwise/BatchNorm/FusedBatchNorm/Mul", "module_apply_default/MobilenetV1/MobilenetV1/Conv2d_3_pointwise/BatchNorm/FusedBatchNorm/Offset"], "name": "module_apply_default/MobilenetV1/MobilenetV1/Conv2d_3_pointwise/BatchNorm/FusedBatchNorm", "attr": {"T": {"type": "DT_FLOAT"}}}, {"op": "Relu6", "input": ["module_apply_default/MobilenetV1/MobilenetV1/Conv2d_3_pointwise/BatchNorm/FusedBatchNorm"], "name": "module_apply_default/MobilenetV1/MobilenetV1/Conv2d_3_pointwise/Relu6", "attr": {"T": {"type": "DT_FLOAT"}}}, {"op": "DepthwiseConv2dNative", "input": ["module_apply_default/MobilenetV1/MobilenetV1/Conv2d_3_pointwise/Relu6", "module/MobilenetV1/Conv2d_4_depthwise/depthwise_weights"], "name": "module_apply_default/MobilenetV1/MobilenetV1/Conv2d_4_depthwise/depthwise", "attr": {"strides": {"list": {"i": ["1", "2", "2", "1"]}}, "data_format": {"s": "TkhXQw=="}, "T": {"type": "DT_FLOAT"}, "dilations": {"list": {"i": ["1", "1", "1", "1"]}}, "padding": {"s": "U0FNRQ=="}}}, {"op": "Mul", "input": ["module_apply_default/MobilenetV1/MobilenetV1/Conv2d_4_depthwise/depthwise", "module_apply_default/MobilenetV1/MobilenetV1/Conv2d_4_depthwise/BatchNorm/FusedBatchNorm/Scaled"], "name": "module_apply_default/MobilenetV1/MobilenetV1/Conv2d_4_depthwise/BatchNorm/FusedBatchNorm/Mul", "attr": {"T": {"type": "DT_FLOAT"}}}, {"op": "Add", "input": ["module_apply_default/MobilenetV1/MobilenetV1/Conv2d_4_depthwise/BatchNorm/FusedBatchNorm/Mul", "module_apply_default/MobilenetV1/MobilenetV1/Conv2d_4_depthwise/BatchNorm/FusedBatchNorm/Offset"], "name": "module_apply_default/MobilenetV1/MobilenetV1/Conv2d_4_depthwise/BatchNorm/FusedBatchNorm", "attr": {"T": {"type": "DT_FLOAT"}}}, {"op": "Relu6", "input": ["module_apply_default/MobilenetV1/MobilenetV1/Conv2d_4_depthwise/BatchNorm/FusedBatchNorm"], "name": "module_apply_default/MobilenetV1/MobilenetV1/Conv2d_4_depthwise/Relu6", "attr": {"T": {"type": "DT_FLOAT"}}}, {"op": "Conv2D", "input": ["module_apply_default/MobilenetV1/MobilenetV1/Conv2d_4_depthwise/Relu6", "module_apply_default/MobilenetV1/MobilenetV1/Conv2d_4_pointwise/Conv2D/merged_input"], "name": "module_apply_default/MobilenetV1/MobilenetV1/Conv2d_4_pointwise/BatchNorm/FusedBatchNorm/Mul", "attr": {"use_cudnn_on_gpu": {"b": true}, "T": {"type": "DT_FLOAT"}, "dilations": {"list": {"i": ["1", "1", "1", "1"]}}, "padding": {"s": "U0FNRQ=="}, "data_format": {"s": "TkhXQw=="}, "strides": {"list": {"i": ["1", "1", "1", "1"]}}}}, {"op": "Add", "input": ["module_apply_default/MobilenetV1/MobilenetV1/Conv2d_4_pointwise/BatchNorm/FusedBatchNorm/Mul", "module_apply_default/MobilenetV1/MobilenetV1/Conv2d_4_pointwise/BatchNorm/FusedBatchNorm/Offset"], "name": "module_apply_default/MobilenetV1/MobilenetV1/Conv2d_4_pointwise/BatchNorm/FusedBatchNorm", "attr": {"T": {"type": "DT_FLOAT"}}}, {"op": "Relu6", "input": ["module_apply_default/MobilenetV1/MobilenetV1/Conv2d_4_pointwise/BatchNorm/FusedBatchNorm"], "name": "module_apply_default/MobilenetV1/MobilenetV1/Conv2d_4_pointwise/Relu6", "attr": {"T": {"type": "DT_FLOAT"}}}, {"op": "DepthwiseConv2dNative", "input": ["module_apply_default/MobilenetV1/MobilenetV1/Conv2d_4_pointwise/Relu6", "module/MobilenetV1/Conv2d_5_depthwise/depthwise_weights"], "name": "module_apply_default/MobilenetV1/MobilenetV1/Conv2d_5_depthwise/depthwise", "attr": {"dilations": {"list": {"i": ["1", "1", "1", "1"]}}, "data_format": {"s": "TkhXQw=="}, "T": {"type": "DT_FLOAT"}, "strides": {"list": {"i": ["1", "1", "1", "1"]}}, "padding": {"s": "U0FNRQ=="}}}, {"op": "Mul", "input": ["module_apply_default/MobilenetV1/MobilenetV1/Conv2d_5_depthwise/depthwise", "module_apply_default/MobilenetV1/MobilenetV1/Conv2d_5_depthwise/BatchNorm/FusedBatchNorm/Scaled"], "name": "module_apply_default/MobilenetV1/MobilenetV1/Conv2d_5_depthwise/BatchNorm/FusedBatchNorm/Mul", "attr": {"T": {"type": "DT_FLOAT"}}}, {"op": "Add", "input": ["module_apply_default/MobilenetV1/MobilenetV1/Conv2d_5_depthwise/BatchNorm/FusedBatchNorm/Mul", "module_apply_default/MobilenetV1/MobilenetV1/Conv2d_5_depthwise/BatchNorm/FusedBatchNorm/Offset"], "name": "module_apply_default/MobilenetV1/MobilenetV1/Conv2d_5_depthwise/BatchNorm/FusedBatchNorm", "attr": {"T": {"type": "DT_FLOAT"}}}, {"op": "Relu6", "input": ["module_apply_default/MobilenetV1/MobilenetV1/Conv2d_5_depthwise/BatchNorm/FusedBatchNorm"], "name": "module_apply_default/MobilenetV1/MobilenetV1/Conv2d_5_depthwise/Relu6", "attr": {"T": {"type": "DT_FLOAT"}}}, {"op": "Conv2D", "input": ["module_apply_default/MobilenetV1/MobilenetV1/Conv2d_5_depthwise/Relu6", "module_apply_default/MobilenetV1/MobilenetV1/Conv2d_5_pointwise/Conv2D/merged_input"], "name": "module_apply_default/MobilenetV1/MobilenetV1/Conv2d_5_pointwise/BatchNorm/FusedBatchNorm/Mul", "attr": {"use_cudnn_on_gpu": {"b": true}, "T": {"type": "DT_FLOAT"}, "dilations": {"list": {"i": ["1", "1", "1", "1"]}}, "padding": {"s": "U0FNRQ=="}, "data_format": {"s": "TkhXQw=="}, "strides": {"list": {"i": ["1", "1", "1", "1"]}}}}, {"op": "Add", "input": ["module_apply_default/MobilenetV1/MobilenetV1/Conv2d_5_pointwise/BatchNorm/FusedBatchNorm/Mul", "module_apply_default/MobilenetV1/MobilenetV1/Conv2d_5_pointwise/BatchNorm/FusedBatchNorm/Offset"], "name": "module_apply_default/MobilenetV1/MobilenetV1/Conv2d_5_pointwise/BatchNorm/FusedBatchNorm", "attr": {"T": {"type": "DT_FLOAT"}}}, {"op": "Relu6", "input": ["module_apply_default/MobilenetV1/MobilenetV1/Conv2d_5_pointwise/BatchNorm/FusedBatchNorm"], "name": "module_apply_default/MobilenetV1/MobilenetV1/Conv2d_5_pointwise/Relu6", "attr": {"T": {"type": "DT_FLOAT"}}}, {"op": "DepthwiseConv2dNative", "input": ["module_apply_default/MobilenetV1/MobilenetV1/Conv2d_5_pointwise/Relu6", "module/MobilenetV1/Conv2d_6_depthwise/depthwise_weights"], "name": "module_apply_default/MobilenetV1/MobilenetV1/Conv2d_6_depthwise/depthwise", "attr": {"strides": {"list": {"i": ["1", "2", "2", "1"]}}, "data_format": {"s": "TkhXQw=="}, "T": {"type": "DT_FLOAT"}, "dilations": {"list": {"i": ["1", "1", "1", "1"]}}, "padding": {"s": "U0FNRQ=="}}}, {"op": "Mul", "input": ["module_apply_default/MobilenetV1/MobilenetV1/Conv2d_6_depthwise/depthwise", "module_apply_default/MobilenetV1/MobilenetV1/Conv2d_6_depthwise/BatchNorm/FusedBatchNorm/Scaled"], "name": "module_apply_default/MobilenetV1/MobilenetV1/Conv2d_6_depthwise/BatchNorm/FusedBatchNorm/Mul", "attr": {"T": {"type": "DT_FLOAT"}}}, {"op": "Add", "input": ["module_apply_default/MobilenetV1/MobilenetV1/Conv2d_6_depthwise/BatchNorm/FusedBatchNorm/Mul", "module_apply_default/MobilenetV1/MobilenetV1/Conv2d_6_depthwise/BatchNorm/FusedBatchNorm/Offset"], "name": "module_apply_default/MobilenetV1/MobilenetV1/Conv2d_6_depthwise/BatchNorm/FusedBatchNorm", "attr": {"T": {"type": "DT_FLOAT"}}}, {"op": "Relu6", "input": ["module_apply_default/MobilenetV1/MobilenetV1/Conv2d_6_depthwise/BatchNorm/FusedBatchNorm"], "name": "module_apply_default/MobilenetV1/MobilenetV1/Conv2d_6_depthwise/Relu6", "attr": {"T": {"type": "DT_FLOAT"}}}, {"op": "Conv2D", "input": ["module_apply_default/MobilenetV1/MobilenetV1/Conv2d_6_depthwise/Relu6", "module_apply_default/MobilenetV1/MobilenetV1/Conv2d_6_pointwise/Conv2D/merged_input"], "name": "module_apply_default/MobilenetV1/MobilenetV1/Conv2d_6_pointwise/BatchNorm/FusedBatchNorm/Mul", "attr": {"use_cudnn_on_gpu": {"b": true}, "T": {"type": "DT_FLOAT"}, "dilations": {"list": {"i": ["1", "1", "1", "1"]}}, "padding": {"s": "U0FNRQ=="}, "data_format": {"s": "TkhXQw=="}, "strides": {"list": {"i": ["1", "1", "1", "1"]}}}}, {"op": "Add", "input": ["module_apply_default/MobilenetV1/MobilenetV1/Conv2d_6_pointwise/BatchNorm/FusedBatchNorm/Mul", "module_apply_default/MobilenetV1/MobilenetV1/Conv2d_6_pointwise/BatchNorm/FusedBatchNorm/Offset"], "name": "module_apply_default/MobilenetV1/MobilenetV1/Conv2d_6_pointwise/BatchNorm/FusedBatchNorm", "attr": {"T": {"type": "DT_FLOAT"}}}, {"op": "Relu6", "input": ["module_apply_default/MobilenetV1/MobilenetV1/Conv2d_6_pointwise/BatchNorm/FusedBatchNorm"], "name": "module_apply_default/MobilenetV1/MobilenetV1/Conv2d_6_pointwise/Relu6", "attr": {"T": {"type": "DT_FLOAT"}}}, {"op": "DepthwiseConv2dNative", "input": ["module_apply_default/MobilenetV1/MobilenetV1/Conv2d_6_pointwise/Relu6", "module/MobilenetV1/Conv2d_7_depthwise/depthwise_weights"], "name": "module_apply_default/MobilenetV1/MobilenetV1/Conv2d_7_depthwise/depthwise", "attr": {"strides": {"list": {"i": ["1", "1", "1", "1"]}}, "data_format": {"s": "TkhXQw=="}, "T": {"type": "DT_FLOAT"}, "dilations": {"list": {"i": ["1", "1", "1", "1"]}}, "padding": {"s": "U0FNRQ=="}}}, {"op": "Mul", "input": ["module_apply_default/MobilenetV1/MobilenetV1/Conv2d_7_depthwise/depthwise", "module_apply_default/MobilenetV1/MobilenetV1/Conv2d_7_depthwise/BatchNorm/FusedBatchNorm/Scaled"], "name": "module_apply_default/MobilenetV1/MobilenetV1/Conv2d_7_depthwise/BatchNorm/FusedBatchNorm/Mul", "attr": {"T": {"type": "DT_FLOAT"}}}, {"op": "Add", "input": ["module_apply_default/MobilenetV1/MobilenetV1/Conv2d_7_depthwise/BatchNorm/FusedBatchNorm/Mul", "module_apply_default/MobilenetV1/MobilenetV1/Conv2d_7_depthwise/BatchNorm/FusedBatchNorm/Offset"], "name": "module_apply_default/MobilenetV1/MobilenetV1/Conv2d_7_depthwise/BatchNorm/FusedBatchNorm", "attr": {"T": {"type": "DT_FLOAT"}}}, {"op": "Relu6", "input": ["module_apply_default/MobilenetV1/MobilenetV1/Conv2d_7_depthwise/BatchNorm/FusedBatchNorm"], "name": "module_apply_default/MobilenetV1/MobilenetV1/Conv2d_7_depthwise/Relu6", "attr": {"T": {"type": "DT_FLOAT"}}}, {"op": "Conv2D", "input": ["module_apply_default/MobilenetV1/MobilenetV1/Conv2d_7_depthwise/Relu6", "module_apply_default/MobilenetV1/MobilenetV1/Conv2d_7_pointwise/Conv2D/merged_input"], "name": "module_apply_default/MobilenetV1/MobilenetV1/Conv2d_7_pointwise/BatchNorm/FusedBatchNorm/Mul", "attr": {"use_cudnn_on_gpu": {"b": true}, "T": {"type": "DT_FLOAT"}, "dilations": {"list": {"i": ["1", "1", "1", "1"]}}, "padding": {"s": "U0FNRQ=="}, "data_format": {"s": "TkhXQw=="}, "strides": {"list": {"i": ["1", "1", "1", "1"]}}}}, {"op": "Add", "input": ["module_apply_default/MobilenetV1/MobilenetV1/Conv2d_7_pointwise/BatchNorm/FusedBatchNorm/Mul", "module_apply_default/MobilenetV1/MobilenetV1/Conv2d_7_pointwise/BatchNorm/FusedBatchNorm/Offset"], "name": "module_apply_default/MobilenetV1/MobilenetV1/Conv2d_7_pointwise/BatchNorm/FusedBatchNorm", "attr": {"T": {"type": "DT_FLOAT"}}}, {"op": "Relu6", "input": ["module_apply_default/MobilenetV1/MobilenetV1/Conv2d_7_pointwise/BatchNorm/FusedBatchNorm"], "name": "module_apply_default/MobilenetV1/MobilenetV1/Conv2d_7_pointwise/Relu6", "attr": {"T": {"type": "DT_FLOAT"}}}, {"op": "DepthwiseConv2dNative", "input": ["module_apply_default/MobilenetV1/MobilenetV1/Conv2d_7_pointwise/Relu6", "module/MobilenetV1/Conv2d_8_depthwise/depthwise_weights"], "name": "module_apply_default/MobilenetV1/MobilenetV1/Conv2d_8_depthwise/depthwise", "attr": {"dilations": {"list": {"i": ["1", "1", "1", "1"]}}, "data_format": {"s": "TkhXQw=="}, "T": {"type": "DT_FLOAT"}, "strides": {"list": {"i": ["1", "1", "1", "1"]}}, "padding": {"s": "U0FNRQ=="}}}, {"op": "Mul", "input": ["module_apply_default/MobilenetV1/MobilenetV1/Conv2d_8_depthwise/depthwise", "module_apply_default/MobilenetV1/MobilenetV1/Conv2d_8_depthwise/BatchNorm/FusedBatchNorm/Scaled"], "name": "module_apply_default/MobilenetV1/MobilenetV1/Conv2d_8_depthwise/BatchNorm/FusedBatchNorm/Mul", "attr": {"T": {"type": "DT_FLOAT"}}}, {"op": "Add", "input": ["module_apply_default/MobilenetV1/MobilenetV1/Conv2d_8_depthwise/BatchNorm/FusedBatchNorm/Mul", "module_apply_default/MobilenetV1/MobilenetV1/Conv2d_8_depthwise/BatchNorm/FusedBatchNorm/Offset"], "name": "module_apply_default/MobilenetV1/MobilenetV1/Conv2d_8_depthwise/BatchNorm/FusedBatchNorm", "attr": {"T": {"type": "DT_FLOAT"}}}, {"op": "Relu6", "input": ["module_apply_default/MobilenetV1/MobilenetV1/Conv2d_8_depthwise/BatchNorm/FusedBatchNorm"], "name": "module_apply_default/MobilenetV1/MobilenetV1/Conv2d_8_depthwise/Relu6", "attr": {"T": {"type": "DT_FLOAT"}}}, {"op": "Conv2D", "input": ["module_apply_default/MobilenetV1/MobilenetV1/Conv2d_8_depthwise/Relu6", "module_apply_default/MobilenetV1/MobilenetV1/Conv2d_8_pointwise/Conv2D/merged_input"], "name": "module_apply_default/MobilenetV1/MobilenetV1/Conv2d_8_pointwise/BatchNorm/FusedBatchNorm/Mul", "attr": {"use_cudnn_on_gpu": {"b": true}, "T": {"type": "DT_FLOAT"}, "dilations": {"list": {"i": ["1", "1", "1", "1"]}}, "padding": {"s": "U0FNRQ=="}, "data_format": {"s": "TkhXQw=="}, "strides": {"list": {"i": ["1", "1", "1", "1"]}}}}, {"op": "Add", "input": ["module_apply_default/MobilenetV1/MobilenetV1/Conv2d_8_pointwise/BatchNorm/FusedBatchNorm/Mul", "module_apply_default/MobilenetV1/MobilenetV1/Conv2d_8_pointwise/BatchNorm/FusedBatchNorm/Offset"], "name": "module_apply_default/MobilenetV1/MobilenetV1/Conv2d_8_pointwise/BatchNorm/FusedBatchNorm", "attr": {"T": {"type": "DT_FLOAT"}}}, {"op": "Relu6", "input": ["module_apply_default/MobilenetV1/MobilenetV1/Conv2d_8_pointwise/BatchNorm/FusedBatchNorm"], "name": "module_apply_default/MobilenetV1/MobilenetV1/Conv2d_8_pointwise/Relu6", "attr": {"T": {"type": "DT_FLOAT"}}}, {"op": "DepthwiseConv2dNative", "input": ["module_apply_default/MobilenetV1/MobilenetV1/Conv2d_8_pointwise/Relu6", "module/MobilenetV1/Conv2d_9_depthwise/depthwise_weights"], "name": "module_apply_default/MobilenetV1/MobilenetV1/Conv2d_9_depthwise/depthwise", "attr": {"strides": {"list": {"i": ["1", "1", "1", "1"]}}, "data_format": {"s": "TkhXQw=="}, "T": {"type": "DT_FLOAT"}, "dilations": {"list": {"i": ["1", "1", "1", "1"]}}, "padding": {"s": "U0FNRQ=="}}}, {"op": "Mul", "input": ["module_apply_default/MobilenetV1/MobilenetV1/Conv2d_9_depthwise/depthwise", "module_apply_default/MobilenetV1/MobilenetV1/Conv2d_9_depthwise/BatchNorm/FusedBatchNorm/Scaled"], "name": "module_apply_default/MobilenetV1/MobilenetV1/Conv2d_9_depthwise/BatchNorm/FusedBatchNorm/Mul", "attr": {"T": {"type": "DT_FLOAT"}}}, {"op": "Add", "input": ["module_apply_default/MobilenetV1/MobilenetV1/Conv2d_9_depthwise/BatchNorm/FusedBatchNorm/Mul", "module_apply_default/MobilenetV1/MobilenetV1/Conv2d_9_depthwise/BatchNorm/FusedBatchNorm/Offset"], "name": "module_apply_default/MobilenetV1/MobilenetV1/Conv2d_9_depthwise/BatchNorm/FusedBatchNorm", "attr": {"T": {"type": "DT_FLOAT"}}}, {"op": "Relu6", "input": ["module_apply_default/MobilenetV1/MobilenetV1/Conv2d_9_depthwise/BatchNorm/FusedBatchNorm"], "name": "module_apply_default/MobilenetV1/MobilenetV1/Conv2d_9_depthwise/Relu6", "attr": {"T": {"type": "DT_FLOAT"}}}, {"op": "Conv2D", "input": ["module_apply_default/MobilenetV1/MobilenetV1/Conv2d_9_depthwise/Relu6", "module_apply_default/MobilenetV1/MobilenetV1/Conv2d_9_pointwise/Conv2D/merged_input"], "name": "module_apply_default/MobilenetV1/MobilenetV1/Conv2d_9_pointwise/BatchNorm/FusedBatchNorm/Mul", "attr": {"use_cudnn_on_gpu": {"b": true}, "T": {"type": "DT_FLOAT"}, "dilations": {"list": {"i": ["1", "1", "1", "1"]}}, "padding": {"s": "U0FNRQ=="}, "data_format": {"s": "TkhXQw=="}, "strides": {"list": {"i": ["1", "1", "1", "1"]}}}}, {"op": "Add", "input": ["module_apply_default/MobilenetV1/MobilenetV1/Conv2d_9_pointwise/BatchNorm/FusedBatchNorm/Mul", "module_apply_default/MobilenetV1/MobilenetV1/Conv2d_9_pointwise/BatchNorm/FusedBatchNorm/Offset"], "name": "module_apply_default/MobilenetV1/MobilenetV1/Conv2d_9_pointwise/BatchNorm/FusedBatchNorm", "attr": {"T": {"type": "DT_FLOAT"}}}, {"op": "Relu6", "input": ["module_apply_default/MobilenetV1/MobilenetV1/Conv2d_9_pointwise/BatchNorm/FusedBatchNorm"], "name": "module_apply_default/MobilenetV1/MobilenetV1/Conv2d_9_pointwise/Relu6", "attr": {"T": {"type": "DT_FLOAT"}}}, {"op": "DepthwiseConv2dNative", "input": ["module_apply_default/MobilenetV1/MobilenetV1/Conv2d_9_pointwise/Relu6", "module/MobilenetV1/Conv2d_10_depthwise/depthwise_weights"], "name": "module_apply_default/MobilenetV1/MobilenetV1/Conv2d_10_depthwise/depthwise", "attr": {"dilations": {"list": {"i": ["1", "1", "1", "1"]}}, "data_format": {"s": "TkhXQw=="}, "T": {"type": "DT_FLOAT"}, "strides": {"list": {"i": ["1", "1", "1", "1"]}}, "padding": {"s": "U0FNRQ=="}}}, {"op": "Mul", "input": ["module_apply_default/MobilenetV1/MobilenetV1/Conv2d_10_depthwise/depthwise", "module_apply_default/MobilenetV1/MobilenetV1/Conv2d_10_depthwise/BatchNorm/FusedBatchNorm/Scaled"], "name": "module_apply_default/MobilenetV1/MobilenetV1/Conv2d_10_depthwise/BatchNorm/FusedBatchNorm/Mul", "attr": {"T": {"type": "DT_FLOAT"}}}, {"op": "Add", "input": ["module_apply_default/MobilenetV1/MobilenetV1/Conv2d_10_depthwise/BatchNorm/FusedBatchNorm/Mul", "module_apply_default/MobilenetV1/MobilenetV1/Conv2d_10_depthwise/BatchNorm/FusedBatchNorm/Offset"], "name": "module_apply_default/MobilenetV1/MobilenetV1/Conv2d_10_depthwise/BatchNorm/FusedBatchNorm", "attr": {"T": {"type": "DT_FLOAT"}}}, {"op": "Relu6", "input": ["module_apply_default/MobilenetV1/MobilenetV1/Conv2d_10_depthwise/BatchNorm/FusedBatchNorm"], "name": "module_apply_default/MobilenetV1/MobilenetV1/Conv2d_10_depthwise/Relu6", "attr": {"T": {"type": "DT_FLOAT"}}}, {"op": "Conv2D", "input": ["module_apply_default/MobilenetV1/MobilenetV1/Conv2d_10_depthwise/Relu6", "module_apply_default/MobilenetV1/MobilenetV1/Conv2d_10_pointwise/Conv2D/merged_input"], "name": "module_apply_default/MobilenetV1/MobilenetV1/Conv2d_10_pointwise/BatchNorm/FusedBatchNorm/Mul", "attr": {"use_cudnn_on_gpu": {"b": true}, "T": {"type": "DT_FLOAT"}, "dilations": {"list": {"i": ["1", "1", "1", "1"]}}, "padding": {"s": "U0FNRQ=="}, "data_format": {"s": "TkhXQw=="}, "strides": {"list": {"i": ["1", "1", "1", "1"]}}}}, {"op": "Add", "input": ["module_apply_default/MobilenetV1/MobilenetV1/Conv2d_10_pointwise/BatchNorm/FusedBatchNorm/Mul", "module_apply_default/MobilenetV1/MobilenetV1/Conv2d_10_pointwise/BatchNorm/FusedBatchNorm/Offset"], "name": "module_apply_default/MobilenetV1/MobilenetV1/Conv2d_10_pointwise/BatchNorm/FusedBatchNorm", "attr": {"T": {"type": "DT_FLOAT"}}}, {"op": "Relu6", "input": ["module_apply_default/MobilenetV1/MobilenetV1/Conv2d_10_pointwise/BatchNorm/FusedBatchNorm"], "name": "module_apply_default/MobilenetV1/MobilenetV1/Conv2d_10_pointwise/Relu6", "attr": {"T": {"type": "DT_FLOAT"}}}, {"op": "DepthwiseConv2dNative", "input": ["module_apply_default/MobilenetV1/MobilenetV1/Conv2d_10_pointwise/Relu6", "module/MobilenetV1/Conv2d_11_depthwise/depthwise_weights"], "name": "module_apply_default/MobilenetV1/MobilenetV1/Conv2d_11_depthwise/depthwise", "attr": {"strides": {"list": {"i": ["1", "1", "1", "1"]}}, "data_format": {"s": "TkhXQw=="}, "T": {"type": "DT_FLOAT"}, "dilations": {"list": {"i": ["1", "1", "1", "1"]}}, "padding": {"s": "U0FNRQ=="}}}, {"op": "Mul", "input": ["module_apply_default/MobilenetV1/MobilenetV1/Conv2d_11_depthwise/depthwise", "module_apply_default/MobilenetV1/MobilenetV1/Conv2d_11_depthwise/BatchNorm/FusedBatchNorm/Scaled"], "name": "module_apply_default/MobilenetV1/MobilenetV1/Conv2d_11_depthwise/BatchNorm/FusedBatchNorm/Mul", "attr": {"T": {"type": "DT_FLOAT"}}}, {"op": "Add", "input": ["module_apply_default/MobilenetV1/MobilenetV1/Conv2d_11_depthwise/BatchNorm/FusedBatchNorm/Mul", "module_apply_default/MobilenetV1/MobilenetV1/Conv2d_11_depthwise/BatchNorm/FusedBatchNorm/Offset"], "name": "module_apply_default/MobilenetV1/MobilenetV1/Conv2d_11_depthwise/BatchNorm/FusedBatchNorm", "attr": {"T": {"type": "DT_FLOAT"}}}, {"op": "Relu6", "input": ["module_apply_default/MobilenetV1/MobilenetV1/Conv2d_11_depthwise/BatchNorm/FusedBatchNorm"], "name": "module_apply_default/MobilenetV1/MobilenetV1/Conv2d_11_depthwise/Relu6", "attr": {"T": {"type": "DT_FLOAT"}}}, {"op": "Conv2D", "input": ["module_apply_default/MobilenetV1/MobilenetV1/Conv2d_11_depthwise/Relu6", "module_apply_default/MobilenetV1/MobilenetV1/Conv2d_11_pointwise/Conv2D/merged_input"], "name": "module_apply_default/MobilenetV1/MobilenetV1/Conv2d_11_pointwise/BatchNorm/FusedBatchNorm/Mul", "attr": {"use_cudnn_on_gpu": {"b": true}, "T": {"type": "DT_FLOAT"}, "dilations": {"list": {"i": ["1", "1", "1", "1"]}}, "padding": {"s": "U0FNRQ=="}, "data_format": {"s": "TkhXQw=="}, "strides": {"list": {"i": ["1", "1", "1", "1"]}}}}, {"op": "Add", "input": ["module_apply_default/MobilenetV1/MobilenetV1/Conv2d_11_pointwise/BatchNorm/FusedBatchNorm/Mul", "module_apply_default/MobilenetV1/MobilenetV1/Conv2d_11_pointwise/BatchNorm/FusedBatchNorm/Offset"], "name": "module_apply_default/MobilenetV1/MobilenetV1/Conv2d_11_pointwise/BatchNorm/FusedBatchNorm", "attr": {"T": {"type": "DT_FLOAT"}}}, {"op": "Relu6", "input": ["module_apply_default/MobilenetV1/MobilenetV1/Conv2d_11_pointwise/BatchNorm/FusedBatchNorm"], "name": "module_apply_default/MobilenetV1/MobilenetV1/Conv2d_11_pointwise/Relu6", "attr": {"T": {"type": "DT_FLOAT"}}}, {"op": "DepthwiseConv2dNative", "input": ["module_apply_default/MobilenetV1/MobilenetV1/Conv2d_11_pointwise/Relu6", "module/MobilenetV1/Conv2d_12_depthwise/depthwise_weights"], "name": "module_apply_default/MobilenetV1/MobilenetV1/Conv2d_12_depthwise/depthwise", "attr": {"dilations": {"list": {"i": ["1", "1", "1", "1"]}}, "data_format": {"s": "TkhXQw=="}, "T": {"type": "DT_FLOAT"}, "strides": {"list": {"i": ["1", "2", "2", "1"]}}, "padding": {"s": "U0FNRQ=="}}}, {"op": "Mul", "input": ["module_apply_default/MobilenetV1/MobilenetV1/Conv2d_12_depthwise/depthwise", "module_apply_default/MobilenetV1/MobilenetV1/Conv2d_12_depthwise/BatchNorm/FusedBatchNorm/Scaled"], "name": "module_apply_default/MobilenetV1/MobilenetV1/Conv2d_12_depthwise/BatchNorm/FusedBatchNorm/Mul", "attr": {"T": {"type": "DT_FLOAT"}}}, {"op": "Add", "input": ["module_apply_default/MobilenetV1/MobilenetV1/Conv2d_12_depthwise/BatchNorm/FusedBatchNorm/Mul", "module_apply_default/MobilenetV1/MobilenetV1/Conv2d_12_depthwise/BatchNorm/FusedBatchNorm/Offset"], "name": "module_apply_default/MobilenetV1/MobilenetV1/Conv2d_12_depthwise/BatchNorm/FusedBatchNorm", "attr": {"T": {"type": "DT_FLOAT"}}}, {"op": "Relu6", "input": ["module_apply_default/MobilenetV1/MobilenetV1/Conv2d_12_depthwise/BatchNorm/FusedBatchNorm"], "name": "module_apply_default/MobilenetV1/MobilenetV1/Conv2d_12_depthwise/Relu6", "attr": {"T": {"type": "DT_FLOAT"}}}, {"op": "Conv2D", "input": ["module_apply_default/MobilenetV1/MobilenetV1/Conv2d_12_depthwise/Relu6", "module_apply_default/MobilenetV1/MobilenetV1/Conv2d_12_pointwise/Conv2D/merged_input"], "name": "module_apply_default/MobilenetV1/MobilenetV1/Conv2d_12_pointwise/BatchNorm/FusedBatchNorm/Mul", "attr": {"use_cudnn_on_gpu": {"b": true}, "T": {"type": "DT_FLOAT"}, "dilations": {"list": {"i": ["1", "1", "1", "1"]}}, "padding": {"s": "U0FNRQ=="}, "data_format": {"s": "TkhXQw=="}, "strides": {"list": {"i": ["1", "1", "1", "1"]}}}}, {"op": "Add", "input": ["module_apply_default/MobilenetV1/MobilenetV1/Conv2d_12_pointwise/BatchNorm/FusedBatchNorm/Mul", "module_apply_default/MobilenetV1/MobilenetV1/Conv2d_12_pointwise/BatchNorm/FusedBatchNorm/Offset"], "name": "module_apply_default/MobilenetV1/MobilenetV1/Conv2d_12_pointwise/BatchNorm/FusedBatchNorm", "attr": {"T": {"type": "DT_FLOAT"}}}, {"op": "Relu6", "input": ["module_apply_default/MobilenetV1/MobilenetV1/Conv2d_12_pointwise/BatchNorm/FusedBatchNorm"], "name": "module_apply_default/MobilenetV1/MobilenetV1/Conv2d_12_pointwise/Relu6", "attr": {"T": {"type": "DT_FLOAT"}}}, {"op": "DepthwiseConv2dNative", "input": ["module_apply_default/MobilenetV1/MobilenetV1/Conv2d_12_pointwise/Relu6", "module/MobilenetV1/Conv2d_13_depthwise/depthwise_weights"], "name": "module_apply_default/MobilenetV1/MobilenetV1/Conv2d_13_depthwise/depthwise", "attr": {"strides": {"list": {"i": ["1", "1", "1", "1"]}}, "data_format": {"s": "TkhXQw=="}, "T": {"type": "DT_FLOAT"}, "dilations": {"list": {"i": ["1", "1", "1", "1"]}}, "padding": {"s": "U0FNRQ=="}}}, {"op": "Mul", "input": ["module_apply_default/MobilenetV1/MobilenetV1/Conv2d_13_depthwise/depthwise", "module_apply_default/MobilenetV1/MobilenetV1/Conv2d_13_depthwise/BatchNorm/FusedBatchNorm/Scaled"], "name": "module_apply_default/MobilenetV1/MobilenetV1/Conv2d_13_depthwise/BatchNorm/FusedBatchNorm/Mul", "attr": {"T": {"type": "DT_FLOAT"}}}, {"op": "Add", "input": ["module_apply_default/MobilenetV1/MobilenetV1/Conv2d_13_depthwise/BatchNorm/FusedBatchNorm/Mul", "module_apply_default/MobilenetV1/MobilenetV1/Conv2d_13_depthwise/BatchNorm/FusedBatchNorm/Offset"], "name": "module_apply_default/MobilenetV1/MobilenetV1/Conv2d_13_depthwise/BatchNorm/FusedBatchNorm", "attr": {"T": {"type": "DT_FLOAT"}}}, {"op": "Relu6", "input": ["module_apply_default/MobilenetV1/MobilenetV1/Conv2d_13_depthwise/BatchNorm/FusedBatchNorm"], "name": "module_apply_default/MobilenetV1/MobilenetV1/Conv2d_13_depthwise/Relu6", "attr": {"T": {"type": "DT_FLOAT"}}}, {"op": "Conv2D", "input": ["module_apply_default/MobilenetV1/MobilenetV1/Conv2d_13_depthwise/Relu6", "module_apply_default/MobilenetV1/MobilenetV1/Conv2d_13_pointwise/Conv2D/merged_input"], "name": "module_apply_default/MobilenetV1/MobilenetV1/Conv2d_13_pointwise/BatchNorm/FusedBatchNorm/Mul", "attr": {"use_cudnn_on_gpu": {"b": true}, "T": {"type": "DT_FLOAT"}, "dilations": {"list": {"i": ["1", "1", "1", "1"]}}, "padding": {"s": "U0FNRQ=="}, "data_format": {"s": "TkhXQw=="}, "strides": {"list": {"i": ["1", "1", "1", "1"]}}}}, {"op": "Add", "input": ["module_apply_default/MobilenetV1/MobilenetV1/Conv2d_13_pointwise/BatchNorm/FusedBatchNorm/Mul", "module_apply_default/MobilenetV1/MobilenetV1/Conv2d_13_pointwise/BatchNorm/FusedBatchNorm/Offset"], "name": "module_apply_default/MobilenetV1/MobilenetV1/Conv2d_13_pointwise/BatchNorm/FusedBatchNorm", "attr": {"T": {"type": "DT_FLOAT"}}}, {"op": "Relu6", "input": ["module_apply_default/MobilenetV1/MobilenetV1/Conv2d_13_pointwise/BatchNorm/FusedBatchNorm"], "name": "module_apply_default/MobilenetV1/MobilenetV1/Conv2d_13_pointwise/Relu6", "attr": {"T": {"type": "DT_FLOAT"}}}, {"op": "Mean", "input": ["module_apply_default/MobilenetV1/MobilenetV1/Conv2d_13_pointwise/Relu6", "module_apply_default/MobilenetV1/Logits/global_pool/reduction_indices"], "name": "module_apply_default/MobilenetV1/Logits/global_pool", "attr": {"keep_dims": {"b": true}, "T": {"type": "DT_FLOAT"}, "Tidx": {"type": "DT_INT32"}}}, {"op": "Conv2D", "input": ["module_apply_default/MobilenetV1/Logits/global_pool", "module/MobilenetV1/Logits/Conv2d_1c_1x1/weights"], "name": "module_apply_default/MobilenetV1/Logits/Conv2d_1c_1x1/Conv2D", "attr": {"use_cudnn_on_gpu": {"b": true}, "T": {"type": "DT_FLOAT"}, "dilations": {"list": {"i": ["1", "1", "1", "1"]}}, "padding": {"s": "U0FNRQ=="}, "data_format": {"s": "TkhXQw=="}, "strides": {"list": {"i": ["1", "1", "1", "1"]}}}}, {"op": "BiasAdd", "input": ["module_apply_default/MobilenetV1/Logits/Conv2d_1c_1x1/Conv2D", "module/MobilenetV1/Logits/Conv2d_1c_1x1/biases"], "name": "module_apply_default/MobilenetV1/Logits/Conv2d_1c_1x1/BiasAdd", "attr": {"data_format": {"s": "TkhXQw=="}, "T": {"type": "DT_FLOAT"}}}, {"op": "Squeeze", "input": ["module_apply_default/MobilenetV1/Logits/Conv2d_1c_1x1/BiasAdd"], "name": "module_apply_default/MobilenetV1/Logits/SpatialSqueeze", "attr": {"squeeze_dims": {"list": {"i": ["1", "2"]}}, "T": {"type": "DT_FLOAT"}}}], "library": {}}, "weightsManifest": [{"paths": ["group1-shard1of5", "group1-shard2of5", "group1-shard3of5", "group1-shard4of5", "group1-shard5of5"], "weights": [{"shape": [], "name": "module_apply_default/hub_input/Mul/y", "dtype": "float32"}, {"shape": [], "name": "module_apply_default/hub_input/Sub/y", "dtype": "float32"}, {"shape": [3, 3, 3, 32], "name": "module_apply_default/MobilenetV1/MobilenetV1/Conv2d_0/Conv2D/merged_input", "dtype": "float32"}, {"shape": [32], "name": "module_apply_default/MobilenetV1/MobilenetV1/Conv2d_0/BatchNorm/FusedBatchNorm/Offset", "dtype": "float32"}, {"shape": [3, 3, 32, 1], "name": "module/MobilenetV1/Conv2d_1_depthwise/depthwise_weights", "dtype": "float32"}, {"shape": [32], "name": "module_apply_default/MobilenetV1/MobilenetV1/Conv2d_1_depthwise/BatchNorm/FusedBatchNorm/Scaled", "dtype": "float32"}, {"shape": [32], "name": "module_apply_default/MobilenetV1/MobilenetV1/Conv2d_1_depthwise/BatchNorm/FusedBatchNorm/Offset", "dtype": "float32"}, {"shape": [1, 1, 32, 64], "name": "module_apply_default/MobilenetV1/MobilenetV1/Conv2d_1_pointwise/Conv2D/merged_input", "dtype": "float32"}, {"shape": [64], "name": "module_apply_default/MobilenetV1/MobilenetV1/Conv2d_1_pointwise/BatchNorm/FusedBatchNorm/Offset", "dtype": "float32"}, {"shape": [3, 3, 64, 1], "name": "module/MobilenetV1/Conv2d_2_depthwise/depthwise_weights", "dtype": "float32"}, {"shape": [64], "name": "module_apply_default/MobilenetV1/MobilenetV1/Conv2d_2_depthwise/BatchNorm/FusedBatchNorm/Scaled", "dtype": "float32"}, {"shape": [64], "name": "module_apply_default/MobilenetV1/MobilenetV1/Conv2d_2_depthwise/BatchNorm/FusedBatchNorm/Offset", "dtype": "float32"}, {"shape": [1, 1, 64, 128], "name": "module_apply_default/MobilenetV1/MobilenetV1/Conv2d_2_pointwise/Conv2D/merged_input", "dtype": "float32"}, {"shape": [128], "name": "module_apply_default/MobilenetV1/MobilenetV1/Conv2d_2_pointwise/BatchNorm/FusedBatchNorm/Offset", "dtype": "float32"}, {"shape": [3, 3, 128, 1], "name": "module/MobilenetV1/Conv2d_3_depthwise/depthwise_weights", "dtype": "float32"}, {"shape": [128], "name": "module_apply_default/MobilenetV1/MobilenetV1/Conv2d_3_depthwise/BatchNorm/FusedBatchNorm/Scaled", "dtype": "float32"}, {"shape": [128], "name": "module_apply_default/MobilenetV1/MobilenetV1/Conv2d_3_depthwise/BatchNorm/FusedBatchNorm/Offset", "dtype": "float32"}, {"shape": [1, 1, 128, 128], "name": "module_apply_default/MobilenetV1/MobilenetV1/Conv2d_3_pointwise/Conv2D/merged_input", "dtype": "float32"}, {"shape": [128], "name": "module_apply_default/MobilenetV1/MobilenetV1/Conv2d_3_pointwise/BatchNorm/FusedBatchNorm/Offset", "dtype": "float32"}, {"shape": [3, 3, 128, 1], "name": "module/MobilenetV1/Conv2d_4_depthwise/depthwise_weights", "dtype": "float32"}, {"shape": [128], "name": "module_apply_default/MobilenetV1/MobilenetV1/Conv2d_4_depthwise/BatchNorm/FusedBatchNorm/Scaled", "dtype": "float32"}, {"shape": [128], "name": "module_apply_default/MobilenetV1/MobilenetV1/Conv2d_4_depthwise/BatchNorm/FusedBatchNorm/Offset", "dtype": "float32"}, {"shape": [1, 1, 128, 256], "name": "module_apply_default/MobilenetV1/MobilenetV1/Conv2d_4_pointwise/Conv2D/merged_input", "dtype": "float32"}, {"shape": [256], "name": "module_apply_default/MobilenetV1/MobilenetV1/Conv2d_4_pointwise/BatchNorm/FusedBatchNorm/Offset", "dtype": "float32"}, {"shape": [3, 3, 256, 1], "name": "module/MobilenetV1/Conv2d_5_depthwise/depthwise_weights", "dtype": "float32"}, {"shape": [256], "name": "module_apply_default/MobilenetV1/MobilenetV1/Conv2d_5_depthwise/BatchNorm/FusedBatchNorm/Scaled", "dtype": "float32"}, {"shape": [256], "name": "module_apply_default/MobilenetV1/MobilenetV1/Conv2d_5_depthwise/BatchNorm/FusedBatchNorm/Offset", "dtype": "float32"}, {"shape": [1, 1, 256, 256], "name": "module_apply_default/MobilenetV1/MobilenetV1/Conv2d_5_pointwise/Conv2D/merged_input", "dtype": "float32"}, {"shape": [256], "name": "module_apply_default/MobilenetV1/MobilenetV1/Conv2d_5_pointwise/BatchNorm/FusedBatchNorm/Offset", "dtype": "float32"}, {"shape": [3, 3, 256, 1], "name": "module/MobilenetV1/Conv2d_6_depthwise/depthwise_weights", "dtype": "float32"}, {"shape": [256], "name": "module_apply_default/MobilenetV1/MobilenetV1/Conv2d_6_depthwise/BatchNorm/FusedBatchNorm/Scaled", "dtype": "float32"}, {"shape": [256], "name": "module_apply_default/MobilenetV1/MobilenetV1/Conv2d_6_depthwise/BatchNorm/FusedBatchNorm/Offset", "dtype": "float32"}, {"shape": [1, 1, 256, 512], "name": "module_apply_default/MobilenetV1/MobilenetV1/Conv2d_6_pointwise/Conv2D/merged_input", "dtype": "float32"}, {"shape": [512], "name": "module_apply_default/MobilenetV1/MobilenetV1/Conv2d_6_pointwise/BatchNorm/FusedBatchNorm/Offset", "dtype": "float32"}, {"shape": [3, 3, 512, 1], "name": "module/MobilenetV1/Conv2d_7_depthwise/depthwise_weights", "dtype": "float32"}, {"shape": [512], "name": "module_apply_default/MobilenetV1/MobilenetV1/Conv2d_7_depthwise/BatchNorm/FusedBatchNorm/Scaled", "dtype": "float32"}, {"shape": [512], "name": "module_apply_default/MobilenetV1/MobilenetV1/Conv2d_7_depthwise/BatchNorm/FusedBatchNorm/Offset", "dtype": "float32"}, {"shape": [1, 1, 512, 512], "name": "module_apply_default/MobilenetV1/MobilenetV1/Conv2d_7_pointwise/Conv2D/merged_input", "dtype": "float32"}, {"shape": [512], "name": "module_apply_default/MobilenetV1/MobilenetV1/Conv2d_7_pointwise/BatchNorm/FusedBatchNorm/Offset", "dtype": "float32"}, {"shape": [3, 3, 512, 1], "name": "module/MobilenetV1/Conv2d_8_depthwise/depthwise_weights", "dtype": "float32"}, {"shape": [512], "name": "module_apply_default/MobilenetV1/MobilenetV1/Conv2d_8_depthwise/BatchNorm/FusedBatchNorm/Scaled", "dtype": "float32"}, {"shape": [512], "name": "module_apply_default/MobilenetV1/MobilenetV1/Conv2d_8_depthwise/BatchNorm/FusedBatchNorm/Offset", "dtype": "float32"}, {"shape": [1, 1, 512, 512], "name": "module_apply_default/MobilenetV1/MobilenetV1/Conv2d_8_pointwise/Conv2D/merged_input", "dtype": "float32"}, {"shape": [512], "name": "module_apply_default/MobilenetV1/MobilenetV1/Conv2d_8_pointwise/BatchNorm/FusedBatchNorm/Offset", "dtype": "float32"}, {"shape": [3, 3, 512, 1], "name": "module/MobilenetV1/Conv2d_9_depthwise/depthwise_weights", "dtype": "float32"}, {"shape": [512], "name": "module_apply_default/MobilenetV1/MobilenetV1/Conv2d_9_depthwise/BatchNorm/FusedBatchNorm/Scaled", "dtype": "float32"}, {"shape": [512], "name": "module_apply_default/MobilenetV1/MobilenetV1/Conv2d_9_depthwise/BatchNorm/FusedBatchNorm/Offset", "dtype": "float32"}, {"shape": [1, 1, 512, 512], "name": "module_apply_default/MobilenetV1/MobilenetV1/Conv2d_9_pointwise/Conv2D/merged_input", "dtype": "float32"}, {"shape": [512], "name": "module_apply_default/MobilenetV1/MobilenetV1/Conv2d_9_pointwise/BatchNorm/FusedBatchNorm/Offset", "dtype": "float32"}, {"shape": [3, 3, 512, 1], "name": "module/MobilenetV1/Conv2d_10_depthwise/depthwise_weights", "dtype": "float32"}, {"shape": [512], "name": "module_apply_default/MobilenetV1/MobilenetV1/Conv2d_10_depthwise/BatchNorm/FusedBatchNorm/Scaled", "dtype": "float32"}, {"shape": [512], "name": "module_apply_default/MobilenetV1/MobilenetV1/Conv2d_10_depthwise/BatchNorm/FusedBatchNorm/Offset", "dtype": "float32"}, {"shape": [1, 1, 512, 512], "name": "module_apply_default/MobilenetV1/MobilenetV1/Conv2d_10_pointwise/Conv2D/merged_input", "dtype": "float32"}, {"shape": [512], "name": "module_apply_default/MobilenetV1/MobilenetV1/Conv2d_10_pointwise/BatchNorm/FusedBatchNorm/Offset", "dtype": "float32"}, {"shape": [3, 3, 512, 1], "name": "module/MobilenetV1/Conv2d_11_depthwise/depthwise_weights", "dtype": "float32"}, {"shape": [512], "name": "module_apply_default/MobilenetV1/MobilenetV1/Conv2d_11_depthwise/BatchNorm/FusedBatchNorm/Scaled", "dtype": "float32"}, {"shape": [512], "name": "module_apply_default/MobilenetV1/MobilenetV1/Conv2d_11_depthwise/BatchNorm/FusedBatchNorm/Offset", "dtype": "float32"}, {"shape": [1, 1, 512, 512], "name": "module_apply_default/MobilenetV1/MobilenetV1/Conv2d_11_pointwise/Conv2D/merged_input", "dtype": "float32"}, {"shape": [512], "name": "module_apply_default/MobilenetV1/MobilenetV1/Conv2d_11_pointwise/BatchNorm/FusedBatchNorm/Offset", "dtype": "float32"}, {"shape": [3, 3, 512, 1], "name": "module/MobilenetV1/Conv2d_12_depthwise/depthwise_weights", "dtype": "float32"}, {"shape": [512], "name": "module_apply_default/MobilenetV1/MobilenetV1/Conv2d_12_depthwise/BatchNorm/FusedBatchNorm/Scaled", "dtype": "float32"}, {"shape": [512], "name": "module_apply_default/MobilenetV1/MobilenetV1/Conv2d_12_depthwise/BatchNorm/FusedBatchNorm/Offset", "dtype": "float32"}, {"shape": [1, 1, 512, 1024], "name": "module_apply_default/MobilenetV1/MobilenetV1/Conv2d_12_pointwise/Conv2D/merged_input", "dtype": "float32"}, {"shape": [1024], "name": "module_apply_default/MobilenetV1/MobilenetV1/Conv2d_12_pointwise/BatchNorm/FusedBatchNorm/Offset", "dtype": "float32"}, {"shape": [3, 3, 1024, 1], "name": "module/MobilenetV1/Conv2d_13_depthwise/depthwise_weights", "dtype": "float32"}, {"shape": [1024], "name": "module_apply_default/MobilenetV1/MobilenetV1/Conv2d_13_depthwise/BatchNorm/FusedBatchNorm/Scaled", "dtype": "float32"}, {"shape": [1024], "name": "module_apply_default/MobilenetV1/MobilenetV1/Conv2d_13_depthwise/BatchNorm/FusedBatchNorm/Offset", "dtype": "float32"}, {"shape": [1, 1, 1024, 1024], "name": "module_apply_default/MobilenetV1/MobilenetV1/Conv2d_13_pointwise/Conv2D/merged_input", "dtype": "float32"}, {"shape": [1024], "name": "module_apply_default/MobilenetV1/MobilenetV1/Conv2d_13_pointwise/BatchNorm/FusedBatchNorm/Offset", "dtype": "float32"}, {"shape": [2], "name": "module_apply_default/MobilenetV1/Logits/global_pool/reduction_indices", "dtype": "int32"}, {"shape": [1, 1, 1024, 1001], "name": "module/MobilenetV1/Logits/Conv2d_1c_1x1/weights", "dtype": "float32"}, {"shape": [1001], "name": "module/MobilenetV1/Logits/Conv2d_1c_1x1/biases", "dtype": "float32"}]}]}