{"weightsManifest": [{"weights": [{"dtype": "float32", "name": "ConstantFolding/Postprocessor/Decode/div_recip", "shape": []}, {"dtype": "float32", "name": "Postprocessor/ExpandDims", "shape": [1, 1917, 4]}, {"dtype": "float32", "name": "ConstantFolding/Postprocessor/Decode/div_4_recip", "shape": []}, {"dtype": "int32", "name": "Postprocessor/Reshape_1/shape", "shape": [2]}, {"dtype": "float32", "name": "ConstantFolding/Postprocessor/Decode/div_2_recip", "shape": []}, {"dtype": "float32", "name": "BoxPredictor_0/BoxEncodingPredictor_depthwise/depthwise_weights", "shape": [3, 3, 576, 1]}, {"dtype": "float32", "name": "BoxPredictor_0/BoxEncodingPredictor_depthwise/BatchNorm/FusedBatchNorm/Scaled", "shape": [576]}, {"dtype": "float32", "name": "BoxPredictor_0/BoxEncodingPredictor_depthwise/BatchNorm/FusedBatchNorm/Offset", "shape": [576]}, {"dtype": "float32", "name": "BoxPredictor_0/BoxEncodingPredictor/weights", "shape": [1, 1, 576, 12]}, {"dtype": "float32", "name": "BoxPredictor_0/BoxEncodingPredictor/biases", "shape": [12]}, {"dtype": "float32", "name": "BoxPredictor_1/BoxEncodingPredictor_depthwise/depthwise_weights", "shape": [3, 3, 1280, 1]}, {"dtype": "float32", "name": "BoxPredictor_1/BoxEncodingPredictor_depthwise/BatchNorm/FusedBatchNorm/Scaled", "shape": [1280]}, {"dtype": "float32", "name": "BoxPredictor_1/BoxEncodingPredictor_depthwise/BatchNorm/FusedBatchNorm/Offset", "shape": [1280]}, {"dtype": "float32", "name": "BoxPredictor_1/BoxEncodingPredictor/weights", "shape": [1, 1, 1280, 24]}, {"dtype": "float32", "name": "BoxPredictor_1/BoxEncodingPredictor/biases", "shape": [24]}, {"dtype": "float32", "name": "BoxPredictor_2/BoxEncodingPredictor_depthwise/depthwise_weights", "shape": [3, 3, 512, 1]}, {"dtype": "float32", "name": "BoxPredictor_2/BoxEncodingPredictor_depthwise/BatchNorm/FusedBatchNorm/Scaled", "shape": [512]}, {"dtype": "float32", "name": "BoxPredictor_2/BoxEncodingPredictor_depthwise/BatchNorm/FusedBatchNorm/Offset", "shape": [512]}, {"dtype": "float32", "name": "BoxPredictor_2/BoxEncodingPredictor/weights", "shape": [1, 1, 512, 24]}, {"dtype": "float32", "name": "BoxPredictor_2/BoxEncodingPredictor/biases", "shape": [24]}, {"dtype": "float32", "name": "BoxPredictor_3/BoxEncodingPredictor_depthwise/depthwise_weights", "shape": [3, 3, 256, 1]}, {"dtype": "float32", "name": "BoxPredictor_3/BoxEncodingPredictor_depthwise/BatchNorm/FusedBatchNorm/Scaled", "shape": [256]}, {"dtype": "float32", "name": "BoxPredictor_3/BoxEncodingPredictor_depthwise/BatchNorm/FusedBatchNorm/Offset", "shape": [256]}, {"dtype": "float32", "name": "BoxPredictor_3/BoxEncodingPredictor/weights", "shape": [1, 1, 256, 24]}, {"dtype": "float32", "name": "BoxPredictor_3/BoxEncodingPredictor/biases", "shape": [24]}, {"dtype": "float32", "name": "BoxPredictor_4/BoxEncodingPredictor_depthwise/depthwise_weights", "shape": [3, 3, 256, 1]}, {"dtype": "float32", "name": "BoxPredictor_4/BoxEncodingPredictor_depthwise/BatchNorm/FusedBatchNorm/Scaled", "shape": [256]}, {"dtype": "float32", "name": "BoxPredictor_4/BoxEncodingPredictor_depthwise/BatchNorm/FusedBatchNorm/Offset", "shape": [256]}, {"dtype": "float32", "name": "BoxPredictor_4/BoxEncodingPredictor/weights", "shape": [1, 1, 256, 24]}, {"dtype": "float32", "name": "BoxPredictor_4/BoxEncodingPredictor/biases", "shape": [24]}, {"dtype": "float32", "name": "BoxPredictor_5/BoxEncodingPredictor_depthwise/depthwise_weights", "shape": [3, 3, 128, 1]}, {"dtype": "float32", "name": "BoxPredictor_5/BoxEncodingPredictor_depthwise/BatchNorm/FusedBatchNorm/Scaled", "shape": [128]}, {"dtype": "float32", "name": "BoxPredictor_5/BoxEncodingPredictor_depthwise/BatchNorm/FusedBatchNorm/Offset", "shape": [128]}, {"dtype": "float32", "name": "BoxPredictor_5/BoxEncodingPredictor/weights", "shape": [1, 1, 128, 24]}, {"dtype": "float32", "name": "BoxPredictor_5/BoxEncodingPredictor/biases", "shape": [24]}, {"dtype": "int32", "name": "MultipleGridAnchorGenerator/assert_equal/x", "shape": []}, {"dtype": "int32", "name": "BoxPredictor_0/stack/3", "shape": []}, {"dtype": "int32", "name": "Postprocessor/ExpandDims_1/dim", "shape": []}, {"dtype": "float32", "name": "BoxPredictor_0/ClassPredictor_depthwise/depthwise_weights", "shape": [3, 3, 576, 1]}, {"dtype": "float32", "name": "BoxPredictor_0/ClassPredictor_depthwise/BatchNorm/FusedBatchNorm/Scaled", "shape": [576]}, {"dtype": "float32", "name": "BoxPredictor_0/ClassPredictor_depthwise/BatchNorm/FusedBatchNorm/Offset", "shape": [576]}, {"dtype": "float32", "name": "BoxPredictor_0/ClassPredictor/weights", "shape": [1, 1, 576, 273]}, {"dtype": "float32", "name": "BoxPredictor_0/ClassPredictor/biases", "shape": [273]}, {"dtype": "int32", "name": "BoxPredictor_0/stack/1", "shape": []}, {"dtype": "float32", "name": "BoxPredictor_1/ClassPredictor_depthwise/depthwise_weights", "shape": [3, 3, 1280, 1]}, {"dtype": "float32", "name": "BoxPredictor_1/ClassPredictor_depthwise/BatchNorm/FusedBatchNorm/Scaled", "shape": [1280]}, {"dtype": "float32", "name": "BoxPredictor_1/ClassPredictor_depthwise/BatchNorm/FusedBatchNorm/Offset", "shape": [1280]}, {"dtype": "float32", "name": "BoxPredictor_1/ClassPredictor/weights", "shape": [1, 1, 1280, 546]}, {"dtype": "float32", "name": "BoxPredictor_1/ClassPredictor/biases", "shape": [546]}, {"dtype": "int32", "name": "BoxPredictor_1/stack/1", "shape": []}, {"dtype": "float32", "name": "BoxPredictor_2/ClassPredictor_depthwise/depthwise_weights", "shape": [3, 3, 512, 1]}, {"dtype": "float32", "name": "BoxPredictor_2/ClassPredictor_depthwise/BatchNorm/FusedBatchNorm/Scaled", "shape": [512]}, {"dtype": "float32", "name": "BoxPredictor_2/ClassPredictor_depthwise/BatchNorm/FusedBatchNorm/Offset", "shape": [512]}, {"dtype": "float32", "name": "BoxPredictor_2/ClassPredictor/weights", "shape": [1, 1, 512, 546]}, {"dtype": "float32", "name": "BoxPredictor_2/ClassPredictor/biases", "shape": [546]}, {"dtype": "int32", "name": "BoxPredictor_2/stack/1", "shape": []}, {"dtype": "float32", "name": "BoxPredictor_3/ClassPredictor_depthwise/depthwise_weights", "shape": [3, 3, 256, 1]}, {"dtype": "float32", "name": "BoxPredictor_3/ClassPredictor_depthwise/BatchNorm/FusedBatchNorm/Scaled", "shape": [256]}, {"dtype": "float32", "name": "BoxPredictor_3/ClassPredictor_depthwise/BatchNorm/FusedBatchNorm/Offset", "shape": [256]}, {"dtype": "float32", "name": "BoxPredictor_3/ClassPredictor/weights", "shape": [1, 1, 256, 546]}, {"dtype": "float32", "name": "BoxPredictor_3/ClassPredictor/biases", "shape": [546]}, {"dtype": "int32", "name": "BoxPredictor_3/stack/1", "shape": []}, {"dtype": "float32", "name": "BoxPredictor_4/ClassPredictor_depthwise/depthwise_weights", "shape": [3, 3, 256, 1]}, {"dtype": "float32", "name": "BoxPredictor_4/ClassPredictor_depthwise/BatchNorm/FusedBatchNorm/Scaled", "shape": [256]}, {"dtype": "float32", "name": "BoxPredictor_4/ClassPredictor_depthwise/BatchNorm/FusedBatchNorm/Offset", "shape": [256]}, {"dtype": "float32", "name": "BoxPredictor_4/ClassPredictor/weights", "shape": [1, 1, 256, 546]}, {"dtype": "float32", "name": "BoxPredictor_4/ClassPredictor/biases", "shape": [546]}, {"dtype": "int32", "name": "BoxPredictor_4/stack/1", "shape": []}, {"dtype": "float32", "name": "BoxPredictor_5/ClassPredictor_depthwise/depthwise_weights", "shape": [3, 3, 128, 1]}, {"dtype": "float32", "name": "BoxPredictor_5/ClassPredictor_depthwise/BatchNorm/FusedBatchNorm/Scaled", "shape": [128]}, {"dtype": "float32", "name": "BoxPredictor_5/ClassPredictor_depthwise/BatchNorm/FusedBatchNorm/Offset", "shape": [128]}, {"dtype": "float32", "name": "BoxPredictor_5/ClassPredictor/weights", "shape": [1, 1, 128, 546]}, {"dtype": "float32", "name": "BoxPredictor_5/ClassPredictor/biases", "shape": [546]}, {"dtype": "float32", "name": "FeatureExtractor/MobilenetV2/expanded_conv_15/project/BatchNorm/batchnorm/sub", "shape": [160]}, {"dtype": "float32", "name": "FeatureExtractor/MobilenetV2/expanded_conv_15/expand/Conv2D/merged_input", "shape": [1, 1, 160, 960]}, {"dtype": "float32", "name": "FeatureExtractor/MobilenetV2/expanded_conv_15/expand/BatchNorm/batchnorm/sub", "shape": [960]}, {"dtype": "float32", "name": "FeatureExtractor/MobilenetV2/expanded_conv_15/depthwise/depthwise_weights", "shape": [3, 3, 960, 1]}, {"dtype": "float32", "name": "FeatureExtractor/MobilenetV2/expanded_conv_15/depthwise/BatchNorm/batchnorm/mul", "shape": [960]}, {"dtype": "float32", "name": "FeatureExtractor/MobilenetV2/expanded_conv_15/depthwise/BatchNorm/batchnorm/sub", "shape": [960]}, {"dtype": "float32", "name": "FeatureExtractor/MobilenetV2/expanded_conv_15/project/Conv2D/merged_input", "shape": [1, 1, 960, 160]}, {"dtype": "float32", "name": "FeatureExtractor/MobilenetV2/expanded_conv_14/project/BatchNorm/batchnorm/sub", "shape": [160]}, {"dtype": "float32", "name": "FeatureExtractor/MobilenetV2/expanded_conv_14/expand/Conv2D/merged_input", "shape": [1, 1, 160, 960]}, {"dtype": "float32", "name": "FeatureExtractor/MobilenetV2/expanded_conv_14/expand/BatchNorm/batchnorm/sub", "shape": [960]}, {"dtype": "float32", "name": "FeatureExtractor/MobilenetV2/expanded_conv_14/depthwise/depthwise_weights", "shape": [3, 3, 960, 1]}, {"dtype": "float32", "name": "FeatureExtractor/MobilenetV2/expanded_conv_14/depthwise/BatchNorm/batchnorm/mul", "shape": [960]}, {"dtype": "float32", "name": "FeatureExtractor/MobilenetV2/expanded_conv_14/depthwise/BatchNorm/batchnorm/sub", "shape": [960]}, {"dtype": "float32", "name": "FeatureExtractor/MobilenetV2/expanded_conv_14/project/Conv2D/merged_input", "shape": [1, 1, 960, 160]}, {"dtype": "float32", "name": "FeatureExtractor/MobilenetV2/expanded_conv_12/project/BatchNorm/batchnorm/sub", "shape": [96]}, {"dtype": "float32", "name": "FeatureExtractor/MobilenetV2/expanded_conv_12/expand/Conv2D/merged_input", "shape": [1, 1, 96, 576]}, {"dtype": "float32", "name": "FeatureExtractor/MobilenetV2/expanded_conv_12/expand/BatchNorm/batchnorm/sub", "shape": [576]}, {"dtype": "float32", "name": "FeatureExtractor/MobilenetV2/expanded_conv_12/depthwise/depthwise_weights", "shape": [3, 3, 576, 1]}, {"dtype": "float32", "name": "FeatureExtractor/MobilenetV2/expanded_conv_12/depthwise/BatchNorm/batchnorm/mul", "shape": [576]}, {"dtype": "float32", "name": "FeatureExtractor/MobilenetV2/expanded_conv_12/depthwise/BatchNorm/batchnorm/sub", "shape": [576]}, {"dtype": "float32", "name": "FeatureExtractor/MobilenetV2/expanded_conv_12/project/Conv2D/merged_input", "shape": [1, 1, 576, 96]}, {"dtype": "float32", "name": "FeatureExtractor/MobilenetV2/expanded_conv_11/project/BatchNorm/batchnorm/sub", "shape": [96]}, {"dtype": "float32", "name": "FeatureExtractor/MobilenetV2/expanded_conv_11/expand/Conv2D/merged_input", "shape": [1, 1, 96, 576]}, {"dtype": "float32", "name": "FeatureExtractor/MobilenetV2/expanded_conv_11/expand/BatchNorm/batchnorm/sub", "shape": [576]}, {"dtype": "float32", "name": "FeatureExtractor/MobilenetV2/expanded_conv_11/depthwise/depthwise_weights", "shape": [3, 3, 576, 1]}, {"dtype": "float32", "name": "FeatureExtractor/MobilenetV2/expanded_conv_11/depthwise/BatchNorm/batchnorm/mul", "shape": [576]}, {"dtype": "float32", "name": "FeatureExtractor/MobilenetV2/expanded_conv_11/depthwise/BatchNorm/batchnorm/sub", "shape": [576]}, {"dtype": "float32", "name": "FeatureExtractor/MobilenetV2/expanded_conv_11/project/Conv2D/merged_input", "shape": [1, 1, 576, 96]}, {"dtype": "float32", "name": "FeatureExtractor/MobilenetV2/expanded_conv_9/project/BatchNorm/batchnorm/sub", "shape": [64]}, {"dtype": "float32", "name": "FeatureExtractor/MobilenetV2/expanded_conv_9/expand/Conv2D/merged_input", "shape": [1, 1, 64, 384]}, {"dtype": "float32", "name": "FeatureExtractor/MobilenetV2/expanded_conv_9/expand/BatchNorm/batchnorm/sub", "shape": [384]}, {"dtype": "float32", "name": "FeatureExtractor/MobilenetV2/expanded_conv_9/depthwise/depthwise_weights", "shape": [3, 3, 384, 1]}, {"dtype": "float32", "name": "FeatureExtractor/MobilenetV2/expanded_conv_9/depthwise/BatchNorm/batchnorm/mul", "shape": [384]}, {"dtype": "float32", "name": "FeatureExtractor/MobilenetV2/expanded_conv_9/depthwise/BatchNorm/batchnorm/sub", "shape": [384]}, {"dtype": "float32", "name": "FeatureExtractor/MobilenetV2/expanded_conv_9/project/Conv2D/merged_input", "shape": [1, 1, 384, 64]}, {"dtype": "float32", "name": "FeatureExtractor/MobilenetV2/expanded_conv_8/project/BatchNorm/batchnorm/sub", "shape": [64]}, {"dtype": "float32", "name": "FeatureExtractor/MobilenetV2/expanded_conv_8/expand/Conv2D/merged_input", "shape": [1, 1, 64, 384]}, {"dtype": "float32", "name": "FeatureExtractor/MobilenetV2/expanded_conv_8/expand/BatchNorm/batchnorm/sub", "shape": [384]}, {"dtype": "float32", "name": "FeatureExtractor/MobilenetV2/expanded_conv_8/depthwise/depthwise_weights", "shape": [3, 3, 384, 1]}, {"dtype": "float32", "name": "FeatureExtractor/MobilenetV2/expanded_conv_8/depthwise/BatchNorm/batchnorm/mul", "shape": [384]}, {"dtype": "float32", "name": "FeatureExtractor/MobilenetV2/expanded_conv_8/depthwise/BatchNorm/batchnorm/sub", "shape": [384]}, {"dtype": "float32", "name": "FeatureExtractor/MobilenetV2/expanded_conv_8/project/Conv2D/merged_input", "shape": [1, 1, 384, 64]}, {"dtype": "float32", "name": "FeatureExtractor/MobilenetV2/expanded_conv_7/project/BatchNorm/batchnorm/sub", "shape": [64]}, {"dtype": "float32", "name": "FeatureExtractor/MobilenetV2/expanded_conv_7/expand/Conv2D/merged_input", "shape": [1, 1, 64, 384]}, {"dtype": "float32", "name": "FeatureExtractor/MobilenetV2/expanded_conv_7/expand/BatchNorm/batchnorm/sub", "shape": [384]}, {"dtype": "float32", "name": "FeatureExtractor/MobilenetV2/expanded_conv_7/depthwise/depthwise_weights", "shape": [3, 3, 384, 1]}, {"dtype": "float32", "name": "FeatureExtractor/MobilenetV2/expanded_conv_7/depthwise/BatchNorm/batchnorm/mul", "shape": [384]}, {"dtype": "float32", "name": "FeatureExtractor/MobilenetV2/expanded_conv_7/depthwise/BatchNorm/batchnorm/sub", "shape": [384]}, {"dtype": "float32", "name": "FeatureExtractor/MobilenetV2/expanded_conv_7/project/Conv2D/merged_input", "shape": [1, 1, 384, 64]}, {"dtype": "float32", "name": "FeatureExtractor/MobilenetV2/expanded_conv_5/project/BatchNorm/batchnorm/sub", "shape": [32]}, {"dtype": "float32", "name": "FeatureExtractor/MobilenetV2/expanded_conv_5/expand/Conv2D/merged_input", "shape": [1, 1, 32, 192]}, {"dtype": "float32", "name": "FeatureExtractor/MobilenetV2/expanded_conv_5/expand/BatchNorm/batchnorm/sub", "shape": [192]}, {"dtype": "float32", "name": "FeatureExtractor/MobilenetV2/expanded_conv_5/depthwise/depthwise_weights", "shape": [3, 3, 192, 1]}, {"dtype": "float32", "name": "FeatureExtractor/MobilenetV2/expanded_conv_5/depthwise/BatchNorm/batchnorm/mul", "shape": [192]}, {"dtype": "float32", "name": "FeatureExtractor/MobilenetV2/expanded_conv_5/depthwise/BatchNorm/batchnorm/sub", "shape": [192]}, {"dtype": "float32", "name": "FeatureExtractor/MobilenetV2/expanded_conv_5/project/Conv2D/merged_input", "shape": [1, 1, 192, 32]}, {"dtype": "float32", "name": "FeatureExtractor/MobilenetV2/expanded_conv_4/project/BatchNorm/batchnorm/sub", "shape": [32]}, {"dtype": "float32", "name": "FeatureExtractor/MobilenetV2/expanded_conv_4/expand/Conv2D/merged_input", "shape": [1, 1, 32, 192]}, {"dtype": "float32", "name": "FeatureExtractor/MobilenetV2/expanded_conv_4/expand/BatchNorm/batchnorm/sub", "shape": [192]}, {"dtype": "float32", "name": "FeatureExtractor/MobilenetV2/expanded_conv_4/depthwise/depthwise_weights", "shape": [3, 3, 192, 1]}, {"dtype": "float32", "name": "FeatureExtractor/MobilenetV2/expanded_conv_4/depthwise/BatchNorm/batchnorm/mul", "shape": [192]}, {"dtype": "float32", "name": "FeatureExtractor/MobilenetV2/expanded_conv_4/depthwise/BatchNorm/batchnorm/sub", "shape": [192]}, {"dtype": "float32", "name": "FeatureExtractor/MobilenetV2/expanded_conv_4/project/Conv2D/merged_input", "shape": [1, 1, 192, 32]}, {"dtype": "float32", "name": "FeatureExtractor/MobilenetV2/expanded_conv_2/project/BatchNorm/batchnorm/sub", "shape": [24]}, {"dtype": "float32", "name": "FeatureExtractor/MobilenetV2/expanded_conv_2/expand/Conv2D/merged_input", "shape": [1, 1, 24, 144]}, {"dtype": "float32", "name": "FeatureExtractor/MobilenetV2/expanded_conv_2/expand/BatchNorm/batchnorm/sub", "shape": [144]}, {"dtype": "float32", "name": "FeatureExtractor/MobilenetV2/expanded_conv_2/depthwise/depthwise_weights", "shape": [3, 3, 144, 1]}, {"dtype": "float32", "name": "FeatureExtractor/MobilenetV2/expanded_conv_2/depthwise/BatchNorm/batchnorm/mul", "shape": [144]}, {"dtype": "float32", "name": "FeatureExtractor/MobilenetV2/expanded_conv_2/depthwise/BatchNorm/batchnorm/sub", "shape": [144]}, {"dtype": "float32", "name": "FeatureExtractor/MobilenetV2/expanded_conv_2/project/Conv2D/merged_input", "shape": [1, 1, 144, 24]}, {"dtype": "float32", "name": "Preprocessor/mul/x", "shape": []}, {"dtype": "int32", "name": "Preprocessor/map/TensorArrayStack/range/start", "shape": []}, {"dtype": "float32", "name": "Preprocessor/sub/y", "shape": []}, {"dtype": "float32", "name": "FeatureExtractor/MobilenetV2/Conv/Conv2D/merged_input", "shape": [3, 3, 3, 32]}, {"dtype": "float32", "name": "FeatureExtractor/MobilenetV2/Conv/BatchNorm/batchnorm/sub", "shape": [32]}, {"dtype": "float32", "name": "FeatureExtractor/MobilenetV2/expanded_conv/depthwise/depthwise_weights", "shape": [3, 3, 32, 1]}, {"dtype": "float32", "name": "FeatureExtractor/MobilenetV2/expanded_conv/depthwise/BatchNorm/batchnorm/mul", "shape": [32]}, {"dtype": "float32", "name": "FeatureExtractor/MobilenetV2/expanded_conv/depthwise/BatchNorm/batchnorm/sub", "shape": [32]}, {"dtype": "float32", "name": "FeatureExtractor/MobilenetV2/expanded_conv/project/Conv2D/merged_input", "shape": [1, 1, 32, 16]}, {"dtype": "float32", "name": "FeatureExtractor/MobilenetV2/expanded_conv/project/BatchNorm/batchnorm/sub", "shape": [16]}, {"dtype": "float32", "name": "FeatureExtractor/MobilenetV2/expanded_conv_1/expand/Conv2D/merged_input", "shape": [1, 1, 16, 96]}, {"dtype": "float32", "name": "FeatureExtractor/MobilenetV2/expanded_conv_1/expand/BatchNorm/batchnorm/sub", "shape": [96]}, {"dtype": "float32", "name": "FeatureExtractor/MobilenetV2/expanded_conv_1/depthwise/depthwise_weights", "shape": [3, 3, 96, 1]}, {"dtype": "float32", "name": "FeatureExtractor/MobilenetV2/expanded_conv_1/depthwise/BatchNorm/batchnorm/mul", "shape": [96]}, {"dtype": "float32", "name": "FeatureExtractor/MobilenetV2/expanded_conv_1/depthwise/BatchNorm/batchnorm/sub", "shape": [96]}, {"dtype": "float32", "name": "FeatureExtractor/MobilenetV2/expanded_conv_1/project/Conv2D/merged_input", "shape": [1, 1, 96, 24]}, {"dtype": "float32", "name": "FeatureExtractor/MobilenetV2/expanded_conv_1/project/BatchNorm/batchnorm/sub", "shape": [24]}, {"dtype": "float32", "name": "FeatureExtractor/MobilenetV2/expanded_conv_3/expand/Conv2D/merged_input", "shape": [1, 1, 24, 144]}, {"dtype": "float32", "name": "FeatureExtractor/MobilenetV2/expanded_conv_3/expand/BatchNorm/batchnorm/sub", "shape": [144]}, {"dtype": "float32", "name": "FeatureExtractor/MobilenetV2/expanded_conv_3/depthwise/depthwise_weights", "shape": [3, 3, 144, 1]}, {"dtype": "float32", "name": "FeatureExtractor/MobilenetV2/expanded_conv_3/depthwise/BatchNorm/batchnorm/mul", "shape": [144]}, {"dtype": "float32", "name": "FeatureExtractor/MobilenetV2/expanded_conv_3/depthwise/BatchNorm/batchnorm/sub", "shape": [144]}, {"dtype": "float32", "name": "FeatureExtractor/MobilenetV2/expanded_conv_3/project/Conv2D/merged_input", "shape": [1, 1, 144, 32]}, {"dtype": "float32", "name": "FeatureExtractor/MobilenetV2/expanded_conv_3/project/BatchNorm/batchnorm/sub", "shape": [32]}, {"dtype": "float32", "name": "FeatureExtractor/MobilenetV2/expanded_conv_6/expand/Conv2D/merged_input", "shape": [1, 1, 32, 192]}, {"dtype": "float32", "name": "FeatureExtractor/MobilenetV2/expanded_conv_6/expand/BatchNorm/batchnorm/sub", "shape": [192]}, {"dtype": "float32", "name": "FeatureExtractor/MobilenetV2/expanded_conv_6/depthwise/depthwise_weights", "shape": [3, 3, 192, 1]}, {"dtype": "float32", "name": "FeatureExtractor/MobilenetV2/expanded_conv_6/depthwise/BatchNorm/batchnorm/mul", "shape": [192]}, {"dtype": "float32", "name": "FeatureExtractor/MobilenetV2/expanded_conv_6/depthwise/BatchNorm/batchnorm/sub", "shape": [192]}, {"dtype": "float32", "name": "FeatureExtractor/MobilenetV2/expanded_conv_6/project/Conv2D/merged_input", "shape": [1, 1, 192, 64]}, {"dtype": "float32", "name": "FeatureExtractor/MobilenetV2/expanded_conv_6/project/BatchNorm/batchnorm/sub", "shape": [64]}, {"dtype": "float32", "name": "FeatureExtractor/MobilenetV2/expanded_conv_10/expand/Conv2D/merged_input", "shape": [1, 1, 64, 384]}, {"dtype": "float32", "name": "FeatureExtractor/MobilenetV2/expanded_conv_10/expand/BatchNorm/batchnorm/sub", "shape": [384]}, {"dtype": "float32", "name": "FeatureExtractor/MobilenetV2/expanded_conv_10/depthwise/depthwise_weights", "shape": [3, 3, 384, 1]}, {"dtype": "float32", "name": "FeatureExtractor/MobilenetV2/expanded_conv_10/depthwise/BatchNorm/batchnorm/mul", "shape": [384]}, {"dtype": "float32", "name": "FeatureExtractor/MobilenetV2/expanded_conv_10/depthwise/BatchNorm/batchnorm/sub", "shape": [384]}, {"dtype": "float32", "name": "FeatureExtractor/MobilenetV2/expanded_conv_10/project/Conv2D/merged_input", "shape": [1, 1, 384, 96]}, {"dtype": "float32", "name": "FeatureExtractor/MobilenetV2/expanded_conv_10/project/BatchNorm/batchnorm/sub", "shape": [96]}, {"dtype": "float32", "name": "FeatureExtractor/MobilenetV2/expanded_conv_13/expand/Conv2D/merged_input", "shape": [1, 1, 96, 576]}, {"dtype": "float32", "name": "FeatureExtractor/MobilenetV2/expanded_conv_13/expand/BatchNorm/batchnorm/sub", "shape": [576]}, {"dtype": "float32", "name": "FeatureExtractor/MobilenetV2/expanded_conv_13/depthwise/depthwise_weights", "shape": [3, 3, 576, 1]}, {"dtype": "float32", "name": "FeatureExtractor/MobilenetV2/expanded_conv_13/depthwise/BatchNorm/batchnorm/mul", "shape": [576]}, {"dtype": "float32", "name": "FeatureExtractor/MobilenetV2/expanded_conv_13/depthwise/BatchNorm/batchnorm/sub", "shape": [576]}, {"dtype": "float32", "name": "FeatureExtractor/MobilenetV2/expanded_conv_13/project/Conv2D/merged_input", "shape": [1, 1, 576, 160]}, {"dtype": "float32", "name": "FeatureExtractor/MobilenetV2/expanded_conv_13/project/BatchNorm/batchnorm/sub", "shape": [160]}, {"dtype": "float32", "name": "FeatureExtractor/MobilenetV2/expanded_conv_16/expand/Conv2D/merged_input", "shape": [1, 1, 160, 960]}, {"dtype": "float32", "name": "FeatureExtractor/MobilenetV2/expanded_conv_16/expand/BatchNorm/batchnorm/sub", "shape": [960]}, {"dtype": "float32", "name": "FeatureExtractor/MobilenetV2/expanded_conv_16/depthwise/depthwise_weights", "shape": [3, 3, 960, 1]}, {"dtype": "float32", "name": "FeatureExtractor/MobilenetV2/expanded_conv_16/depthwise/BatchNorm/batchnorm/mul", "shape": [960]}, {"dtype": "float32", "name": "FeatureExtractor/MobilenetV2/expanded_conv_16/depthwise/BatchNorm/batchnorm/sub", "shape": [960]}, {"dtype": "float32", "name": "FeatureExtractor/MobilenetV2/expanded_conv_16/project/Conv2D/merged_input", "shape": [1, 1, 960, 320]}, {"dtype": "float32", "name": "FeatureExtractor/MobilenetV2/expanded_conv_16/project/BatchNorm/batchnorm/sub", "shape": [320]}, {"dtype": "float32", "name": "FeatureExtractor/MobilenetV2/Conv_1/Conv2D/merged_input", "shape": [1, 1, 320, 1280]}, {"dtype": "float32", "name": "FeatureExtractor/MobilenetV2/Conv_1/BatchNorm/batchnorm/sub", "shape": [1280]}, {"dtype": "float32", "name": "FeatureExtractor/MobilenetV2/layer_19_1_Conv2d_2_1x1_256/Conv2D/merged_input", "shape": [1, 1, 1280, 256]}, {"dtype": "float32", "name": "FeatureExtractor/MobilenetV2/layer_19_1_Conv2d_2_1x1_256/BatchNorm/batchnorm/sub", "shape": [256]}, {"dtype": "float32", "name": "FeatureExtractor/MobilenetV2/layer_19_2_Conv2d_2_3x3_s2_512_depthwise/depthwise_weights", "shape": [3, 3, 256, 1]}, {"dtype": "float32", "name": "FeatureExtractor/MobilenetV2/layer_19_2_Conv2d_2_3x3_s2_512_depthwise/BatchNorm/batchnorm/mul", "shape": [256]}, {"dtype": "float32", "name": "FeatureExtractor/MobilenetV2/layer_19_2_Conv2d_2_3x3_s2_512_depthwise/BatchNorm/batchnorm/sub", "shape": [256]}, {"dtype": "float32", "name": "FeatureExtractor/MobilenetV2/layer_19_2_Conv2d_2_3x3_s2_512/Conv2D/merged_input", "shape": [1, 1, 256, 512]}, {"dtype": "float32", "name": "FeatureExtractor/MobilenetV2/layer_19_2_Conv2d_2_3x3_s2_512/BatchNorm/batchnorm/sub", "shape": [512]}, {"dtype": "float32", "name": "FeatureExtractor/MobilenetV2/layer_19_1_Conv2d_3_1x1_128/Conv2D/merged_input", "shape": [1, 1, 512, 128]}, {"dtype": "float32", "name": "FeatureExtractor/MobilenetV2/layer_19_1_Conv2d_3_1x1_128/BatchNorm/batchnorm/sub", "shape": [128]}, {"dtype": "float32", "name": "FeatureExtractor/MobilenetV2/layer_19_2_Conv2d_3_3x3_s2_256_depthwise/depthwise_weights", "shape": [3, 3, 128, 1]}, {"dtype": "float32", "name": "FeatureExtractor/MobilenetV2/layer_19_2_Conv2d_3_3x3_s2_256_depthwise/BatchNorm/batchnorm/mul", "shape": [128]}, {"dtype": "float32", "name": "FeatureExtractor/MobilenetV2/layer_19_2_Conv2d_3_3x3_s2_256_depthwise/BatchNorm/batchnorm/sub", "shape": [128]}, {"dtype": "float32", "name": "FeatureExtractor/MobilenetV2/layer_19_2_Conv2d_3_3x3_s2_256/Conv2D/merged_input", "shape": [1, 1, 128, 256]}, {"dtype": "float32", "name": "FeatureExtractor/MobilenetV2/layer_19_2_Conv2d_3_3x3_s2_256/BatchNorm/batchnorm/sub", "shape": [256]}, {"dtype": "float32", "name": "FeatureExtractor/MobilenetV2/layer_19_1_Conv2d_4_1x1_128/Conv2D/merged_input", "shape": [1, 1, 256, 128]}, {"dtype": "float32", "name": "FeatureExtractor/MobilenetV2/layer_19_1_Conv2d_4_1x1_128/BatchNorm/batchnorm/sub", "shape": [128]}, {"dtype": "float32", "name": "FeatureExtractor/MobilenetV2/layer_19_2_Conv2d_4_3x3_s2_256_depthwise/depthwise_weights", "shape": [3, 3, 128, 1]}, {"dtype": "float32", "name": "FeatureExtractor/MobilenetV2/layer_19_2_Conv2d_4_3x3_s2_256_depthwise/BatchNorm/batchnorm/mul", "shape": [128]}, {"dtype": "float32", "name": "FeatureExtractor/MobilenetV2/layer_19_2_Conv2d_4_3x3_s2_256_depthwise/BatchNorm/batchnorm/sub", "shape": [128]}, {"dtype": "float32", "name": "FeatureExtractor/MobilenetV2/layer_19_2_Conv2d_4_3x3_s2_256/Conv2D/merged_input", "shape": [1, 1, 128, 256]}, {"dtype": "float32", "name": "FeatureExtractor/MobilenetV2/layer_19_2_Conv2d_4_3x3_s2_256/BatchNorm/batchnorm/sub", "shape": [256]}, {"dtype": "float32", "name": "FeatureExtractor/MobilenetV2/layer_19_1_Conv2d_5_1x1_64/Conv2D/merged_input", "shape": [1, 1, 256, 64]}, {"dtype": "float32", "name": "FeatureExtractor/MobilenetV2/layer_19_1_Conv2d_5_1x1_64/BatchNorm/batchnorm/sub", "shape": [64]}, {"dtype": "float32", "name": "FeatureExtractor/MobilenetV2/layer_19_2_Conv2d_5_3x3_s2_128_depthwise/depthwise_weights", "shape": [3, 3, 64, 1]}, {"dtype": "float32", "name": "FeatureExtractor/MobilenetV2/layer_19_2_Conv2d_5_3x3_s2_128_depthwise/BatchNorm/batchnorm/mul", "shape": [64]}, {"dtype": "float32", "name": "FeatureExtractor/MobilenetV2/layer_19_2_Conv2d_5_3x3_s2_128_depthwise/BatchNorm/batchnorm/sub", "shape": [64]}, {"dtype": "float32", "name": "FeatureExtractor/MobilenetV2/layer_19_2_Conv2d_5_3x3_s2_128/Conv2D/merged_input", "shape": [1, 1, 64, 128]}, {"dtype": "float32", "name": "FeatureExtractor/MobilenetV2/layer_19_2_Conv2d_5_3x3_s2_128/BatchNorm/batchnorm/sub", "shape": [128]}, {"dtype": "int32", "name": "Postprocessor/strided_slice/stack", "shape": [1]}, {"dtype": "int32", "name": "Postprocessor/strided_slice/stack_1", "shape": [1]}, {"dtype": "int32", "name": "BoxPredictor_5/stack/1", "shape": []}, {"dtype": "int32", "name": "BoxPredictor_0/stack_1/2", "shape": []}, {"dtype": "int32", "name": "Postprocessor/Tile/multiples/1", "shape": []}, {"dtype": "int32", "name": "Postprocessor/Slice/begin", "shape": [3]}, {"dtype": "int32", "name": "Postprocessor/Slice/size", "shape": [3]}, {"dtype": "int32", "name": "Preprocessor/map/while/ResizeImage/ExpandDims/dim", "shape": []}, {"dtype": "int32", "name": "Preprocessor/map/while/ResizeImage/stack", "shape": [2]}, {"dtype": "int32", "name": "Preprocessor/map/while/add/y", "shape": []}, {"dtype": "int32", "name": "Postprocessor/Decode/transpose/sub_1", "shape": [2]}, {"dtype": "int32", "name": "Postprocessor/Decode/get_center_coordinates_and_sizes/transpose/sub_1", "shape": [2]}, {"dtype": "int32", "name": "Postprocessor/Decode/transpose_1/sub_1", "shape": [2]}], "paths": ["group1-shard1of5", "group1-shard2of5", "group1-shard3of5", "group1-shard4of5", "group1-shard5of5"]}], "modelTopology": {"node": [{"attr": {"dtype": {"type": "DT_FLOAT"}, "value": {"tensor": {"dtype": "DT_FLOAT", "tensorShape": {}}}}, "op": "Const", "name": "ConstantFolding/Postprocessor/Decode/div_recip"}, {"attr": {"dtype": {"type": "DT_FLOAT"}, "value": {"tensor": {"dtype": "DT_FLOAT", "tensorShape": {"dim": [{"size": "1"}, {"size": "1917"}, {"size": "4"}]}}}}, "op": "Const", "name": "Postprocessor/ExpandDims"}, {"attr": {"dtype": {"type": "DT_FLOAT"}, "value": {"tensor": {"dtype": "DT_FLOAT", "tensorShape": {}}}}, "op": "Const", "name": "ConstantFolding/Postprocessor/Decode/div_4_recip"}, {"attr": {"dtype": {"type": "DT_INT32"}, "value": {"tensor": {"dtype": "DT_INT32", "tensorShape": {"dim": [{"size": "2"}]}}}}, "op": "Const", "name": "Postprocessor/Reshape_1/shape"}, {"attr": {"dtype": {"type": "DT_FLOAT"}, "value": {"tensor": {"dtype": "DT_FLOAT", "tensorShape": {}}}}, "op": "Const", "name": "ConstantFolding/Postprocessor/Decode/div_2_recip"}, {"attr": {"dtype": {"type": "DT_FLOAT"}, "value": {"tensor": {"dtype": "DT_FLOAT", "tensorShape": {"dim": [{"size": "3"}, {"size": "3"}, {"size": "576"}, {"size": "1"}]}}}}, "op": "Const", "name": "BoxPredictor_0/BoxEncodingPredictor_depthwise/depthwise_weights"}, {"attr": {"dtype": {"type": "DT_FLOAT"}, "value": {"tensor": {"dtype": "DT_FLOAT", "tensorShape": {"dim": [{"size": "576"}]}}}}, "op": "Const", "name": "BoxPredictor_0/BoxEncodingPredictor_depthwise/BatchNorm/FusedBatchNorm/Scaled"}, {"attr": {"dtype": {"type": "DT_FLOAT"}, "value": {"tensor": {"dtype": "DT_FLOAT", "tensorShape": {"dim": [{"size": "576"}]}}}}, "op": "Const", "name": "BoxPredictor_0/BoxEncodingPredictor_depthwise/BatchNorm/FusedBatchNorm/Offset"}, {"attr": {"dtype": {"type": "DT_FLOAT"}, "value": {"tensor": {"dtype": "DT_FLOAT", "tensorShape": {"dim": [{"size": "1"}, {"size": "1"}, {"size": "576"}, {"size": "12"}]}}}}, "op": "Const", "name": "BoxPredictor_0/BoxEncodingPredictor/weights"}, {"attr": {"dtype": {"type": "DT_FLOAT"}, "value": {"tensor": {"dtype": "DT_FLOAT", "tensorShape": {"dim": [{"size": "12"}]}}}}, "op": "Const", "name": "BoxPredictor_0/BoxEncodingPredictor/biases"}, {"attr": {"dtype": {"type": "DT_FLOAT"}, "value": {"tensor": {"dtype": "DT_FLOAT", "tensorShape": {"dim": [{"size": "3"}, {"size": "3"}, {"size": "1280"}, {"size": "1"}]}}}}, "op": "Const", "name": "BoxPredictor_1/BoxEncodingPredictor_depthwise/depthwise_weights"}, {"attr": {"dtype": {"type": "DT_FLOAT"}, "value": {"tensor": {"dtype": "DT_FLOAT", "tensorShape": {"dim": [{"size": "1280"}]}}}}, "op": "Const", "name": "BoxPredictor_1/BoxEncodingPredictor_depthwise/BatchNorm/FusedBatchNorm/Scaled"}, {"attr": {"dtype": {"type": "DT_FLOAT"}, "value": {"tensor": {"dtype": "DT_FLOAT", "tensorShape": {"dim": [{"size": "1280"}]}}}}, "op": "Const", "name": "BoxPredictor_1/BoxEncodingPredictor_depthwise/BatchNorm/FusedBatchNorm/Offset"}, {"attr": {"dtype": {"type": "DT_FLOAT"}, "value": {"tensor": {"dtype": "DT_FLOAT", "tensorShape": {"dim": [{"size": "1"}, {"size": "1"}, {"size": "1280"}, {"size": "24"}]}}}}, "op": "Const", "name": "BoxPredictor_1/BoxEncodingPredictor/weights"}, {"attr": {"dtype": {"type": "DT_FLOAT"}, "value": {"tensor": {"dtype": "DT_FLOAT", "tensorShape": {"dim": [{"size": "24"}]}}}}, "op": "Const", "name": "BoxPredictor_1/BoxEncodingPredictor/biases"}, {"attr": {"dtype": {"type": "DT_FLOAT"}, "value": {"tensor": {"dtype": "DT_FLOAT", "tensorShape": {"dim": [{"size": "3"}, {"size": "3"}, {"size": "512"}, {"size": "1"}]}}}}, "op": "Const", "name": "BoxPredictor_2/BoxEncodingPredictor_depthwise/depthwise_weights"}, {"attr": {"dtype": {"type": "DT_FLOAT"}, "value": {"tensor": {"dtype": "DT_FLOAT", "tensorShape": {"dim": [{"size": "512"}]}}}}, "op": "Const", "name": "BoxPredictor_2/BoxEncodingPredictor_depthwise/BatchNorm/FusedBatchNorm/Scaled"}, {"attr": {"dtype": {"type": "DT_FLOAT"}, "value": {"tensor": {"dtype": "DT_FLOAT", "tensorShape": {"dim": [{"size": "512"}]}}}}, "op": "Const", "name": "BoxPredictor_2/BoxEncodingPredictor_depthwise/BatchNorm/FusedBatchNorm/Offset"}, {"attr": {"dtype": {"type": "DT_FLOAT"}, "value": {"tensor": {"dtype": "DT_FLOAT", "tensorShape": {"dim": [{"size": "1"}, {"size": "1"}, {"size": "512"}, {"size": "24"}]}}}}, "op": "Const", "name": "BoxPredictor_2/BoxEncodingPredictor/weights"}, {"attr": {"dtype": {"type": "DT_FLOAT"}, "value": {"tensor": {"dtype": "DT_FLOAT", "tensorShape": {"dim": [{"size": "24"}]}}}}, "op": "Const", "name": "BoxPredictor_2/BoxEncodingPredictor/biases"}, {"attr": {"dtype": {"type": "DT_FLOAT"}, "value": {"tensor": {"dtype": "DT_FLOAT", "tensorShape": {"dim": [{"size": "3"}, {"size": "3"}, {"size": "256"}, {"size": "1"}]}}}}, "op": "Const", "name": "BoxPredictor_3/BoxEncodingPredictor_depthwise/depthwise_weights"}, {"attr": {"dtype": {"type": "DT_FLOAT"}, "value": {"tensor": {"dtype": "DT_FLOAT", "tensorShape": {"dim": [{"size": "256"}]}}}}, "op": "Const", "name": "BoxPredictor_3/BoxEncodingPredictor_depthwise/BatchNorm/FusedBatchNorm/Scaled"}, {"attr": {"dtype": {"type": "DT_FLOAT"}, "value": {"tensor": {"dtype": "DT_FLOAT", "tensorShape": {"dim": [{"size": "256"}]}}}}, "op": "Const", "name": "BoxPredictor_3/BoxEncodingPredictor_depthwise/BatchNorm/FusedBatchNorm/Offset"}, {"attr": {"dtype": {"type": "DT_FLOAT"}, "value": {"tensor": {"dtype": "DT_FLOAT", "tensorShape": {"dim": [{"size": "1"}, {"size": "1"}, {"size": "256"}, {"size": "24"}]}}}}, "op": "Const", "name": "BoxPredictor_3/BoxEncodingPredictor/weights"}, {"attr": {"dtype": {"type": "DT_FLOAT"}, "value": {"tensor": {"dtype": "DT_FLOAT", "tensorShape": {"dim": [{"size": "24"}]}}}}, "op": "Const", "name": "BoxPredictor_3/BoxEncodingPredictor/biases"}, {"attr": {"dtype": {"type": "DT_FLOAT"}, "value": {"tensor": {"dtype": "DT_FLOAT", "tensorShape": {"dim": [{"size": "3"}, {"size": "3"}, {"size": "256"}, {"size": "1"}]}}}}, "op": "Const", "name": "BoxPredictor_4/BoxEncodingPredictor_depthwise/depthwise_weights"}, {"attr": {"dtype": {"type": "DT_FLOAT"}, "value": {"tensor": {"dtype": "DT_FLOAT", "tensorShape": {"dim": [{"size": "256"}]}}}}, "op": "Const", "name": "BoxPredictor_4/BoxEncodingPredictor_depthwise/BatchNorm/FusedBatchNorm/Scaled"}, {"attr": {"dtype": {"type": "DT_FLOAT"}, "value": {"tensor": {"dtype": "DT_FLOAT", "tensorShape": {"dim": [{"size": "256"}]}}}}, "op": "Const", "name": "BoxPredictor_4/BoxEncodingPredictor_depthwise/BatchNorm/FusedBatchNorm/Offset"}, {"attr": {"dtype": {"type": "DT_FLOAT"}, "value": {"tensor": {"dtype": "DT_FLOAT", "tensorShape": {"dim": [{"size": "1"}, {"size": "1"}, {"size": "256"}, {"size": "24"}]}}}}, "op": "Const", "name": "BoxPredictor_4/BoxEncodingPredictor/weights"}, {"attr": {"dtype": {"type": "DT_FLOAT"}, "value": {"tensor": {"dtype": "DT_FLOAT", "tensorShape": {"dim": [{"size": "24"}]}}}}, "op": "Const", "name": "BoxPredictor_4/BoxEncodingPredictor/biases"}, {"attr": {"dtype": {"type": "DT_FLOAT"}, "value": {"tensor": {"dtype": "DT_FLOAT", "tensorShape": {"dim": [{"size": "3"}, {"size": "3"}, {"size": "128"}, {"size": "1"}]}}}}, "op": "Const", "name": "BoxPredictor_5/BoxEncodingPredictor_depthwise/depthwise_weights"}, {"attr": {"dtype": {"type": "DT_FLOAT"}, "value": {"tensor": {"dtype": "DT_FLOAT", "tensorShape": {"dim": [{"size": "128"}]}}}}, "op": "Const", "name": "BoxPredictor_5/BoxEncodingPredictor_depthwise/BatchNorm/FusedBatchNorm/Scaled"}, {"attr": {"dtype": {"type": "DT_FLOAT"}, "value": {"tensor": {"dtype": "DT_FLOAT", "tensorShape": {"dim": [{"size": "128"}]}}}}, "op": "Const", "name": "BoxPredictor_5/BoxEncodingPredictor_depthwise/BatchNorm/FusedBatchNorm/Offset"}, {"attr": {"dtype": {"type": "DT_FLOAT"}, "value": {"tensor": {"dtype": "DT_FLOAT", "tensorShape": {"dim": [{"size": "1"}, {"size": "1"}, {"size": "128"}, {"size": "24"}]}}}}, "op": "Const", "name": "BoxPredictor_5/BoxEncodingPredictor/weights"}, {"attr": {"dtype": {"type": "DT_FLOAT"}, "value": {"tensor": {"dtype": "DT_FLOAT", "tensorShape": {"dim": [{"size": "24"}]}}}}, "op": "Const", "name": "BoxPredictor_5/BoxEncodingPredictor/biases"}, {"attr": {"dtype": {"type": "DT_INT32"}, "value": {"tensor": {"dtype": "DT_INT32", "tensorShape": {}}}}, "op": "Const", "name": "MultipleGridAnchorGenerator/assert_equal/x"}, {"attr": {"dtype": {"type": "DT_INT32"}, "value": {"tensor": {"dtype": "DT_INT32", "tensorShape": {}}}}, "op": "Const", "name": "BoxPredictor_0/stack/3"}, {"attr": {"dtype": {"type": "DT_INT32"}, "value": {"tensor": {"dtype": "DT_INT32", "tensorShape": {}}}}, "op": "Const", "name": "Postprocessor/ExpandDims_1/dim"}, {"attr": {"dtype": {"type": "DT_FLOAT"}, "value": {"tensor": {"dtype": "DT_FLOAT", "tensorShape": {"dim": [{"size": "3"}, {"size": "3"}, {"size": "576"}, {"size": "1"}]}}}}, "op": "Const", "name": "BoxPredictor_0/ClassPredictor_depthwise/depthwise_weights"}, {"attr": {"dtype": {"type": "DT_FLOAT"}, "value": {"tensor": {"dtype": "DT_FLOAT", "tensorShape": {"dim": [{"size": "576"}]}}}}, "op": "Const", "name": "BoxPredictor_0/ClassPredictor_depthwise/BatchNorm/FusedBatchNorm/Scaled"}, {"attr": {"dtype": {"type": "DT_FLOAT"}, "value": {"tensor": {"dtype": "DT_FLOAT", "tensorShape": {"dim": [{"size": "576"}]}}}}, "op": "Const", "name": "BoxPredictor_0/ClassPredictor_depthwise/BatchNorm/FusedBatchNorm/Offset"}, {"attr": {"dtype": {"type": "DT_FLOAT"}, "value": {"tensor": {"dtype": "DT_FLOAT", "tensorShape": {"dim": [{"size": "1"}, {"size": "1"}, {"size": "576"}, {"size": "273"}]}}}}, "op": "Const", "name": "BoxPredictor_0/ClassPredictor/weights"}, {"attr": {"dtype": {"type": "DT_FLOAT"}, "value": {"tensor": {"dtype": "DT_FLOAT", "tensorShape": {"dim": [{"size": "273"}]}}}}, "op": "Const", "name": "BoxPredictor_0/ClassPredictor/biases"}, {"attr": {"dtype": {"type": "DT_INT32"}, "value": {"tensor": {"dtype": "DT_INT32", "tensorShape": {}}}}, "op": "Const", "name": "BoxPredictor_0/stack/1"}, {"attr": {"dtype": {"type": "DT_FLOAT"}, "value": {"tensor": {"dtype": "DT_FLOAT", "tensorShape": {"dim": [{"size": "3"}, {"size": "3"}, {"size": "1280"}, {"size": "1"}]}}}}, "op": "Const", "name": "BoxPredictor_1/ClassPredictor_depthwise/depthwise_weights"}, {"attr": {"dtype": {"type": "DT_FLOAT"}, "value": {"tensor": {"dtype": "DT_FLOAT", "tensorShape": {"dim": [{"size": "1280"}]}}}}, "op": "Const", "name": "BoxPredictor_1/ClassPredictor_depthwise/BatchNorm/FusedBatchNorm/Scaled"}, {"attr": {"dtype": {"type": "DT_FLOAT"}, "value": {"tensor": {"dtype": "DT_FLOAT", "tensorShape": {"dim": [{"size": "1280"}]}}}}, "op": "Const", "name": "BoxPredictor_1/ClassPredictor_depthwise/BatchNorm/FusedBatchNorm/Offset"}, {"attr": {"dtype": {"type": "DT_FLOAT"}, "value": {"tensor": {"dtype": "DT_FLOAT", "tensorShape": {"dim": [{"size": "1"}, {"size": "1"}, {"size": "1280"}, {"size": "546"}]}}}}, "op": "Const", "name": "BoxPredictor_1/ClassPredictor/weights"}, {"attr": {"dtype": {"type": "DT_FLOAT"}, "value": {"tensor": {"dtype": "DT_FLOAT", "tensorShape": {"dim": [{"size": "546"}]}}}}, "op": "Const", "name": "BoxPredictor_1/ClassPredictor/biases"}, {"attr": {"dtype": {"type": "DT_INT32"}, "value": {"tensor": {"dtype": "DT_INT32", "tensorShape": {}}}}, "op": "Const", "name": "BoxPredictor_1/stack/1"}, {"attr": {"dtype": {"type": "DT_FLOAT"}, "value": {"tensor": {"dtype": "DT_FLOAT", "tensorShape": {"dim": [{"size": "3"}, {"size": "3"}, {"size": "512"}, {"size": "1"}]}}}}, "op": "Const", "name": "BoxPredictor_2/ClassPredictor_depthwise/depthwise_weights"}, {"attr": {"dtype": {"type": "DT_FLOAT"}, "value": {"tensor": {"dtype": "DT_FLOAT", "tensorShape": {"dim": [{"size": "512"}]}}}}, "op": "Const", "name": "BoxPredictor_2/ClassPredictor_depthwise/BatchNorm/FusedBatchNorm/Scaled"}, {"attr": {"dtype": {"type": "DT_FLOAT"}, "value": {"tensor": {"dtype": "DT_FLOAT", "tensorShape": {"dim": [{"size": "512"}]}}}}, "op": "Const", "name": "BoxPredictor_2/ClassPredictor_depthwise/BatchNorm/FusedBatchNorm/Offset"}, {"attr": {"dtype": {"type": "DT_FLOAT"}, "value": {"tensor": {"dtype": "DT_FLOAT", "tensorShape": {"dim": [{"size": "1"}, {"size": "1"}, {"size": "512"}, {"size": "546"}]}}}}, "op": "Const", "name": "BoxPredictor_2/ClassPredictor/weights"}, {"attr": {"dtype": {"type": "DT_FLOAT"}, "value": {"tensor": {"dtype": "DT_FLOAT", "tensorShape": {"dim": [{"size": "546"}]}}}}, "op": "Const", "name": "BoxPredictor_2/ClassPredictor/biases"}, {"attr": {"dtype": {"type": "DT_INT32"}, "value": {"tensor": {"dtype": "DT_INT32", "tensorShape": {}}}}, "op": "Const", "name": "BoxPredictor_2/stack/1"}, {"attr": {"dtype": {"type": "DT_FLOAT"}, "value": {"tensor": {"dtype": "DT_FLOAT", "tensorShape": {"dim": [{"size": "3"}, {"size": "3"}, {"size": "256"}, {"size": "1"}]}}}}, "op": "Const", "name": "BoxPredictor_3/ClassPredictor_depthwise/depthwise_weights"}, {"attr": {"dtype": {"type": "DT_FLOAT"}, "value": {"tensor": {"dtype": "DT_FLOAT", "tensorShape": {"dim": [{"size": "256"}]}}}}, "op": "Const", "name": "BoxPredictor_3/ClassPredictor_depthwise/BatchNorm/FusedBatchNorm/Scaled"}, {"attr": {"dtype": {"type": "DT_FLOAT"}, "value": {"tensor": {"dtype": "DT_FLOAT", "tensorShape": {"dim": [{"size": "256"}]}}}}, "op": "Const", "name": "BoxPredictor_3/ClassPredictor_depthwise/BatchNorm/FusedBatchNorm/Offset"}, {"attr": {"dtype": {"type": "DT_FLOAT"}, "value": {"tensor": {"dtype": "DT_FLOAT", "tensorShape": {"dim": [{"size": "1"}, {"size": "1"}, {"size": "256"}, {"size": "546"}]}}}}, "op": "Const", "name": "BoxPredictor_3/ClassPredictor/weights"}, {"attr": {"dtype": {"type": "DT_FLOAT"}, "value": {"tensor": {"dtype": "DT_FLOAT", "tensorShape": {"dim": [{"size": "546"}]}}}}, "op": "Const", "name": "BoxPredictor_3/ClassPredictor/biases"}, {"attr": {"dtype": {"type": "DT_INT32"}, "value": {"tensor": {"dtype": "DT_INT32", "tensorShape": {}}}}, "op": "Const", "name": "BoxPredictor_3/stack/1"}, {"attr": {"dtype": {"type": "DT_FLOAT"}, "value": {"tensor": {"dtype": "DT_FLOAT", "tensorShape": {"dim": [{"size": "3"}, {"size": "3"}, {"size": "256"}, {"size": "1"}]}}}}, "op": "Const", "name": "BoxPredictor_4/ClassPredictor_depthwise/depthwise_weights"}, {"attr": {"dtype": {"type": "DT_FLOAT"}, "value": {"tensor": {"dtype": "DT_FLOAT", "tensorShape": {"dim": [{"size": "256"}]}}}}, "op": "Const", "name": "BoxPredictor_4/ClassPredictor_depthwise/BatchNorm/FusedBatchNorm/Scaled"}, {"attr": {"dtype": {"type": "DT_FLOAT"}, "value": {"tensor": {"dtype": "DT_FLOAT", "tensorShape": {"dim": [{"size": "256"}]}}}}, "op": "Const", "name": "BoxPredictor_4/ClassPredictor_depthwise/BatchNorm/FusedBatchNorm/Offset"}, {"attr": {"dtype": {"type": "DT_FLOAT"}, "value": {"tensor": {"dtype": "DT_FLOAT", "tensorShape": {"dim": [{"size": "1"}, {"size": "1"}, {"size": "256"}, {"size": "546"}]}}}}, "op": "Const", "name": "BoxPredictor_4/ClassPredictor/weights"}, {"attr": {"dtype": {"type": "DT_FLOAT"}, "value": {"tensor": {"dtype": "DT_FLOAT", "tensorShape": {"dim": [{"size": "546"}]}}}}, "op": "Const", "name": "BoxPredictor_4/ClassPredictor/biases"}, {"attr": {"dtype": {"type": "DT_INT32"}, "value": {"tensor": {"dtype": "DT_INT32", "tensorShape": {}}}}, "op": "Const", "name": "BoxPredictor_4/stack/1"}, {"attr": {"dtype": {"type": "DT_FLOAT"}, "value": {"tensor": {"dtype": "DT_FLOAT", "tensorShape": {"dim": [{"size": "3"}, {"size": "3"}, {"size": "128"}, {"size": "1"}]}}}}, "op": "Const", "name": "BoxPredictor_5/ClassPredictor_depthwise/depthwise_weights"}, {"attr": {"dtype": {"type": "DT_FLOAT"}, "value": {"tensor": {"dtype": "DT_FLOAT", "tensorShape": {"dim": [{"size": "128"}]}}}}, "op": "Const", "name": "BoxPredictor_5/ClassPredictor_depthwise/BatchNorm/FusedBatchNorm/Scaled"}, {"attr": {"dtype": {"type": "DT_FLOAT"}, "value": {"tensor": {"dtype": "DT_FLOAT", "tensorShape": {"dim": [{"size": "128"}]}}}}, "op": "Const", "name": "BoxPredictor_5/ClassPredictor_depthwise/BatchNorm/FusedBatchNorm/Offset"}, {"attr": {"dtype": {"type": "DT_FLOAT"}, "value": {"tensor": {"dtype": "DT_FLOAT", "tensorShape": {"dim": [{"size": "1"}, {"size": "1"}, {"size": "128"}, {"size": "546"}]}}}}, "op": "Const", "name": "BoxPredictor_5/ClassPredictor/weights"}, {"attr": {"dtype": {"type": "DT_FLOAT"}, "value": {"tensor": {"dtype": "DT_FLOAT", "tensorShape": {"dim": [{"size": "546"}]}}}}, "op": "Const", "name": "BoxPredictor_5/ClassPredictor/biases"}, {"attr": {"dtype": {"type": "DT_FLOAT"}, "value": {"tensor": {"dtype": "DT_FLOAT", "tensorShape": {"dim": [{"size": "160"}]}}}}, "op": "Const", "name": "FeatureExtractor/MobilenetV2/expanded_conv_15/project/BatchNorm/batchnorm/sub"}, {"attr": {"dtype": {"type": "DT_FLOAT"}, "value": {"tensor": {"dtype": "DT_FLOAT", "tensorShape": {"dim": [{"size": "1"}, {"size": "1"}, {"size": "160"}, {"size": "960"}]}}}}, "op": "Const", "name": "FeatureExtractor/MobilenetV2/expanded_conv_15/expand/Conv2D/merged_input"}, {"attr": {"dtype": {"type": "DT_FLOAT"}, "value": {"tensor": {"dtype": "DT_FLOAT", "tensorShape": {"dim": [{"size": "960"}]}}}}, "op": "Const", "name": "FeatureExtractor/MobilenetV2/expanded_conv_15/expand/BatchNorm/batchnorm/sub"}, {"attr": {"dtype": {"type": "DT_FLOAT"}, "value": {"tensor": {"dtype": "DT_FLOAT", "tensorShape": {"dim": [{"size": "3"}, {"size": "3"}, {"size": "960"}, {"size": "1"}]}}}}, "op": "Const", "name": "FeatureExtractor/MobilenetV2/expanded_conv_15/depthwise/depthwise_weights"}, {"attr": {"dtype": {"type": "DT_FLOAT"}, "value": {"tensor": {"dtype": "DT_FLOAT", "tensorShape": {"dim": [{"size": "960"}]}}}}, "op": "Const", "name": "FeatureExtractor/MobilenetV2/expanded_conv_15/depthwise/BatchNorm/batchnorm/mul"}, {"attr": {"dtype": {"type": "DT_FLOAT"}, "value": {"tensor": {"dtype": "DT_FLOAT", "tensorShape": {"dim": [{"size": "960"}]}}}}, "op": "Const", "name": "FeatureExtractor/MobilenetV2/expanded_conv_15/depthwise/BatchNorm/batchnorm/sub"}, {"attr": {"dtype": {"type": "DT_FLOAT"}, "value": {"tensor": {"dtype": "DT_FLOAT", "tensorShape": {"dim": [{"size": "1"}, {"size": "1"}, {"size": "960"}, {"size": "160"}]}}}}, "op": "Const", "name": "FeatureExtractor/MobilenetV2/expanded_conv_15/project/Conv2D/merged_input"}, {"attr": {"dtype": {"type": "DT_FLOAT"}, "value": {"tensor": {"dtype": "DT_FLOAT", "tensorShape": {"dim": [{"size": "160"}]}}}}, "op": "Const", "name": "FeatureExtractor/MobilenetV2/expanded_conv_14/project/BatchNorm/batchnorm/sub"}, {"attr": {"dtype": {"type": "DT_FLOAT"}, "value": {"tensor": {"dtype": "DT_FLOAT", "tensorShape": {"dim": [{"size": "1"}, {"size": "1"}, {"size": "160"}, {"size": "960"}]}}}}, "op": "Const", "name": "FeatureExtractor/MobilenetV2/expanded_conv_14/expand/Conv2D/merged_input"}, {"attr": {"dtype": {"type": "DT_FLOAT"}, "value": {"tensor": {"dtype": "DT_FLOAT", "tensorShape": {"dim": [{"size": "960"}]}}}}, "op": "Const", "name": "FeatureExtractor/MobilenetV2/expanded_conv_14/expand/BatchNorm/batchnorm/sub"}, {"attr": {"dtype": {"type": "DT_FLOAT"}, "value": {"tensor": {"dtype": "DT_FLOAT", "tensorShape": {"dim": [{"size": "3"}, {"size": "3"}, {"size": "960"}, {"size": "1"}]}}}}, "op": "Const", "name": "FeatureExtractor/MobilenetV2/expanded_conv_14/depthwise/depthwise_weights"}, {"attr": {"dtype": {"type": "DT_FLOAT"}, "value": {"tensor": {"dtype": "DT_FLOAT", "tensorShape": {"dim": [{"size": "960"}]}}}}, "op": "Const", "name": "FeatureExtractor/MobilenetV2/expanded_conv_14/depthwise/BatchNorm/batchnorm/mul"}, {"attr": {"dtype": {"type": "DT_FLOAT"}, "value": {"tensor": {"dtype": "DT_FLOAT", "tensorShape": {"dim": [{"size": "960"}]}}}}, "op": "Const", "name": "FeatureExtractor/MobilenetV2/expanded_conv_14/depthwise/BatchNorm/batchnorm/sub"}, {"attr": {"dtype": {"type": "DT_FLOAT"}, "value": {"tensor": {"dtype": "DT_FLOAT", "tensorShape": {"dim": [{"size": "1"}, {"size": "1"}, {"size": "960"}, {"size": "160"}]}}}}, "op": "Const", "name": "FeatureExtractor/MobilenetV2/expanded_conv_14/project/Conv2D/merged_input"}, {"attr": {"dtype": {"type": "DT_FLOAT"}, "value": {"tensor": {"dtype": "DT_FLOAT", "tensorShape": {"dim": [{"size": "96"}]}}}}, "op": "Const", "name": "FeatureExtractor/MobilenetV2/expanded_conv_12/project/BatchNorm/batchnorm/sub"}, {"attr": {"dtype": {"type": "DT_FLOAT"}, "value": {"tensor": {"dtype": "DT_FLOAT", "tensorShape": {"dim": [{"size": "1"}, {"size": "1"}, {"size": "96"}, {"size": "576"}]}}}}, "op": "Const", "name": "FeatureExtractor/MobilenetV2/expanded_conv_12/expand/Conv2D/merged_input"}, {"attr": {"dtype": {"type": "DT_FLOAT"}, "value": {"tensor": {"dtype": "DT_FLOAT", "tensorShape": {"dim": [{"size": "576"}]}}}}, "op": "Const", "name": "FeatureExtractor/MobilenetV2/expanded_conv_12/expand/BatchNorm/batchnorm/sub"}, {"attr": {"dtype": {"type": "DT_FLOAT"}, "value": {"tensor": {"dtype": "DT_FLOAT", "tensorShape": {"dim": [{"size": "3"}, {"size": "3"}, {"size": "576"}, {"size": "1"}]}}}}, "op": "Const", "name": "FeatureExtractor/MobilenetV2/expanded_conv_12/depthwise/depthwise_weights"}, {"attr": {"dtype": {"type": "DT_FLOAT"}, "value": {"tensor": {"dtype": "DT_FLOAT", "tensorShape": {"dim": [{"size": "576"}]}}}}, "op": "Const", "name": "FeatureExtractor/MobilenetV2/expanded_conv_12/depthwise/BatchNorm/batchnorm/mul"}, {"attr": {"dtype": {"type": "DT_FLOAT"}, "value": {"tensor": {"dtype": "DT_FLOAT", "tensorShape": {"dim": [{"size": "576"}]}}}}, "op": "Const", "name": "FeatureExtractor/MobilenetV2/expanded_conv_12/depthwise/BatchNorm/batchnorm/sub"}, {"attr": {"dtype": {"type": "DT_FLOAT"}, "value": {"tensor": {"dtype": "DT_FLOAT", "tensorShape": {"dim": [{"size": "1"}, {"size": "1"}, {"size": "576"}, {"size": "96"}]}}}}, "op": "Const", "name": "FeatureExtractor/MobilenetV2/expanded_conv_12/project/Conv2D/merged_input"}, {"attr": {"dtype": {"type": "DT_FLOAT"}, "value": {"tensor": {"dtype": "DT_FLOAT", "tensorShape": {"dim": [{"size": "96"}]}}}}, "op": "Const", "name": "FeatureExtractor/MobilenetV2/expanded_conv_11/project/BatchNorm/batchnorm/sub"}, {"attr": {"dtype": {"type": "DT_FLOAT"}, "value": {"tensor": {"dtype": "DT_FLOAT", "tensorShape": {"dim": [{"size": "1"}, {"size": "1"}, {"size": "96"}, {"size": "576"}]}}}}, "op": "Const", "name": "FeatureExtractor/MobilenetV2/expanded_conv_11/expand/Conv2D/merged_input"}, {"attr": {"dtype": {"type": "DT_FLOAT"}, "value": {"tensor": {"dtype": "DT_FLOAT", "tensorShape": {"dim": [{"size": "576"}]}}}}, "op": "Const", "name": "FeatureExtractor/MobilenetV2/expanded_conv_11/expand/BatchNorm/batchnorm/sub"}, {"attr": {"dtype": {"type": "DT_FLOAT"}, "value": {"tensor": {"dtype": "DT_FLOAT", "tensorShape": {"dim": [{"size": "3"}, {"size": "3"}, {"size": "576"}, {"size": "1"}]}}}}, "op": "Const", "name": "FeatureExtractor/MobilenetV2/expanded_conv_11/depthwise/depthwise_weights"}, {"attr": {"dtype": {"type": "DT_FLOAT"}, "value": {"tensor": {"dtype": "DT_FLOAT", "tensorShape": {"dim": [{"size": "576"}]}}}}, "op": "Const", "name": "FeatureExtractor/MobilenetV2/expanded_conv_11/depthwise/BatchNorm/batchnorm/mul"}, {"attr": {"dtype": {"type": "DT_FLOAT"}, "value": {"tensor": {"dtype": "DT_FLOAT", "tensorShape": {"dim": [{"size": "576"}]}}}}, "op": "Const", "name": "FeatureExtractor/MobilenetV2/expanded_conv_11/depthwise/BatchNorm/batchnorm/sub"}, {"attr": {"dtype": {"type": "DT_FLOAT"}, "value": {"tensor": {"dtype": "DT_FLOAT", "tensorShape": {"dim": [{"size": "1"}, {"size": "1"}, {"size": "576"}, {"size": "96"}]}}}}, "op": "Const", "name": "FeatureExtractor/MobilenetV2/expanded_conv_11/project/Conv2D/merged_input"}, {"attr": {"dtype": {"type": "DT_FLOAT"}, "value": {"tensor": {"dtype": "DT_FLOAT", "tensorShape": {"dim": [{"size": "64"}]}}}}, "op": "Const", "name": "FeatureExtractor/MobilenetV2/expanded_conv_9/project/BatchNorm/batchnorm/sub"}, {"attr": {"dtype": {"type": "DT_FLOAT"}, "value": {"tensor": {"dtype": "DT_FLOAT", "tensorShape": {"dim": [{"size": "1"}, {"size": "1"}, {"size": "64"}, {"size": "384"}]}}}}, "op": "Const", "name": "FeatureExtractor/MobilenetV2/expanded_conv_9/expand/Conv2D/merged_input"}, {"attr": {"dtype": {"type": "DT_FLOAT"}, "value": {"tensor": {"dtype": "DT_FLOAT", "tensorShape": {"dim": [{"size": "384"}]}}}}, "op": "Const", "name": "FeatureExtractor/MobilenetV2/expanded_conv_9/expand/BatchNorm/batchnorm/sub"}, {"attr": {"dtype": {"type": "DT_FLOAT"}, "value": {"tensor": {"dtype": "DT_FLOAT", "tensorShape": {"dim": [{"size": "3"}, {"size": "3"}, {"size": "384"}, {"size": "1"}]}}}}, "op": "Const", "name": "FeatureExtractor/MobilenetV2/expanded_conv_9/depthwise/depthwise_weights"}, {"attr": {"dtype": {"type": "DT_FLOAT"}, "value": {"tensor": {"dtype": "DT_FLOAT", "tensorShape": {"dim": [{"size": "384"}]}}}}, "op": "Const", "name": "FeatureExtractor/MobilenetV2/expanded_conv_9/depthwise/BatchNorm/batchnorm/mul"}, {"attr": {"dtype": {"type": "DT_FLOAT"}, "value": {"tensor": {"dtype": "DT_FLOAT", "tensorShape": {"dim": [{"size": "384"}]}}}}, "op": "Const", "name": "FeatureExtractor/MobilenetV2/expanded_conv_9/depthwise/BatchNorm/batchnorm/sub"}, {"attr": {"dtype": {"type": "DT_FLOAT"}, "value": {"tensor": {"dtype": "DT_FLOAT", "tensorShape": {"dim": [{"size": "1"}, {"size": "1"}, {"size": "384"}, {"size": "64"}]}}}}, "op": "Const", "name": "FeatureExtractor/MobilenetV2/expanded_conv_9/project/Conv2D/merged_input"}, {"attr": {"dtype": {"type": "DT_FLOAT"}, "value": {"tensor": {"dtype": "DT_FLOAT", "tensorShape": {"dim": [{"size": "64"}]}}}}, "op": "Const", "name": "FeatureExtractor/MobilenetV2/expanded_conv_8/project/BatchNorm/batchnorm/sub"}, {"attr": {"dtype": {"type": "DT_FLOAT"}, "value": {"tensor": {"dtype": "DT_FLOAT", "tensorShape": {"dim": [{"size": "1"}, {"size": "1"}, {"size": "64"}, {"size": "384"}]}}}}, "op": "Const", "name": "FeatureExtractor/MobilenetV2/expanded_conv_8/expand/Conv2D/merged_input"}, {"attr": {"dtype": {"type": "DT_FLOAT"}, "value": {"tensor": {"dtype": "DT_FLOAT", "tensorShape": {"dim": [{"size": "384"}]}}}}, "op": "Const", "name": "FeatureExtractor/MobilenetV2/expanded_conv_8/expand/BatchNorm/batchnorm/sub"}, {"attr": {"dtype": {"type": "DT_FLOAT"}, "value": {"tensor": {"dtype": "DT_FLOAT", "tensorShape": {"dim": [{"size": "3"}, {"size": "3"}, {"size": "384"}, {"size": "1"}]}}}}, "op": "Const", "name": "FeatureExtractor/MobilenetV2/expanded_conv_8/depthwise/depthwise_weights"}, {"attr": {"dtype": {"type": "DT_FLOAT"}, "value": {"tensor": {"dtype": "DT_FLOAT", "tensorShape": {"dim": [{"size": "384"}]}}}}, "op": "Const", "name": "FeatureExtractor/MobilenetV2/expanded_conv_8/depthwise/BatchNorm/batchnorm/mul"}, {"attr": {"dtype": {"type": "DT_FLOAT"}, "value": {"tensor": {"dtype": "DT_FLOAT", "tensorShape": {"dim": [{"size": "384"}]}}}}, "op": "Const", "name": "FeatureExtractor/MobilenetV2/expanded_conv_8/depthwise/BatchNorm/batchnorm/sub"}, {"attr": {"dtype": {"type": "DT_FLOAT"}, "value": {"tensor": {"dtype": "DT_FLOAT", "tensorShape": {"dim": [{"size": "1"}, {"size": "1"}, {"size": "384"}, {"size": "64"}]}}}}, "op": "Const", "name": "FeatureExtractor/MobilenetV2/expanded_conv_8/project/Conv2D/merged_input"}, {"attr": {"dtype": {"type": "DT_FLOAT"}, "value": {"tensor": {"dtype": "DT_FLOAT", "tensorShape": {"dim": [{"size": "64"}]}}}}, "op": "Const", "name": "FeatureExtractor/MobilenetV2/expanded_conv_7/project/BatchNorm/batchnorm/sub"}, {"attr": {"dtype": {"type": "DT_FLOAT"}, "value": {"tensor": {"dtype": "DT_FLOAT", "tensorShape": {"dim": [{"size": "1"}, {"size": "1"}, {"size": "64"}, {"size": "384"}]}}}}, "op": "Const", "name": "FeatureExtractor/MobilenetV2/expanded_conv_7/expand/Conv2D/merged_input"}, {"attr": {"dtype": {"type": "DT_FLOAT"}, "value": {"tensor": {"dtype": "DT_FLOAT", "tensorShape": {"dim": [{"size": "384"}]}}}}, "op": "Const", "name": "FeatureExtractor/MobilenetV2/expanded_conv_7/expand/BatchNorm/batchnorm/sub"}, {"attr": {"dtype": {"type": "DT_FLOAT"}, "value": {"tensor": {"dtype": "DT_FLOAT", "tensorShape": {"dim": [{"size": "3"}, {"size": "3"}, {"size": "384"}, {"size": "1"}]}}}}, "op": "Const", "name": "FeatureExtractor/MobilenetV2/expanded_conv_7/depthwise/depthwise_weights"}, {"attr": {"dtype": {"type": "DT_FLOAT"}, "value": {"tensor": {"dtype": "DT_FLOAT", "tensorShape": {"dim": [{"size": "384"}]}}}}, "op": "Const", "name": "FeatureExtractor/MobilenetV2/expanded_conv_7/depthwise/BatchNorm/batchnorm/mul"}, {"attr": {"dtype": {"type": "DT_FLOAT"}, "value": {"tensor": {"dtype": "DT_FLOAT", "tensorShape": {"dim": [{"size": "384"}]}}}}, "op": "Const", "name": "FeatureExtractor/MobilenetV2/expanded_conv_7/depthwise/BatchNorm/batchnorm/sub"}, {"attr": {"dtype": {"type": "DT_FLOAT"}, "value": {"tensor": {"dtype": "DT_FLOAT", "tensorShape": {"dim": [{"size": "1"}, {"size": "1"}, {"size": "384"}, {"size": "64"}]}}}}, "op": "Const", "name": "FeatureExtractor/MobilenetV2/expanded_conv_7/project/Conv2D/merged_input"}, {"attr": {"dtype": {"type": "DT_FLOAT"}, "value": {"tensor": {"dtype": "DT_FLOAT", "tensorShape": {"dim": [{"size": "32"}]}}}}, "op": "Const", "name": "FeatureExtractor/MobilenetV2/expanded_conv_5/project/BatchNorm/batchnorm/sub"}, {"attr": {"dtype": {"type": "DT_FLOAT"}, "value": {"tensor": {"dtype": "DT_FLOAT", "tensorShape": {"dim": [{"size": "1"}, {"size": "1"}, {"size": "32"}, {"size": "192"}]}}}}, "op": "Const", "name": "FeatureExtractor/MobilenetV2/expanded_conv_5/expand/Conv2D/merged_input"}, {"attr": {"dtype": {"type": "DT_FLOAT"}, "value": {"tensor": {"dtype": "DT_FLOAT", "tensorShape": {"dim": [{"size": "192"}]}}}}, "op": "Const", "name": "FeatureExtractor/MobilenetV2/expanded_conv_5/expand/BatchNorm/batchnorm/sub"}, {"attr": {"dtype": {"type": "DT_FLOAT"}, "value": {"tensor": {"dtype": "DT_FLOAT", "tensorShape": {"dim": [{"size": "3"}, {"size": "3"}, {"size": "192"}, {"size": "1"}]}}}}, "op": "Const", "name": "FeatureExtractor/MobilenetV2/expanded_conv_5/depthwise/depthwise_weights"}, {"attr": {"dtype": {"type": "DT_FLOAT"}, "value": {"tensor": {"dtype": "DT_FLOAT", "tensorShape": {"dim": [{"size": "192"}]}}}}, "op": "Const", "name": "FeatureExtractor/MobilenetV2/expanded_conv_5/depthwise/BatchNorm/batchnorm/mul"}, {"attr": {"dtype": {"type": "DT_FLOAT"}, "value": {"tensor": {"dtype": "DT_FLOAT", "tensorShape": {"dim": [{"size": "192"}]}}}}, "op": "Const", "name": "FeatureExtractor/MobilenetV2/expanded_conv_5/depthwise/BatchNorm/batchnorm/sub"}, {"attr": {"dtype": {"type": "DT_FLOAT"}, "value": {"tensor": {"dtype": "DT_FLOAT", "tensorShape": {"dim": [{"size": "1"}, {"size": "1"}, {"size": "192"}, {"size": "32"}]}}}}, "op": "Const", "name": "FeatureExtractor/MobilenetV2/expanded_conv_5/project/Conv2D/merged_input"}, {"attr": {"dtype": {"type": "DT_FLOAT"}, "value": {"tensor": {"dtype": "DT_FLOAT", "tensorShape": {"dim": [{"size": "32"}]}}}}, "op": "Const", "name": "FeatureExtractor/MobilenetV2/expanded_conv_4/project/BatchNorm/batchnorm/sub"}, {"attr": {"dtype": {"type": "DT_FLOAT"}, "value": {"tensor": {"dtype": "DT_FLOAT", "tensorShape": {"dim": [{"size": "1"}, {"size": "1"}, {"size": "32"}, {"size": "192"}]}}}}, "op": "Const", "name": "FeatureExtractor/MobilenetV2/expanded_conv_4/expand/Conv2D/merged_input"}, {"attr": {"dtype": {"type": "DT_FLOAT"}, "value": {"tensor": {"dtype": "DT_FLOAT", "tensorShape": {"dim": [{"size": "192"}]}}}}, "op": "Const", "name": "FeatureExtractor/MobilenetV2/expanded_conv_4/expand/BatchNorm/batchnorm/sub"}, {"attr": {"dtype": {"type": "DT_FLOAT"}, "value": {"tensor": {"dtype": "DT_FLOAT", "tensorShape": {"dim": [{"size": "3"}, {"size": "3"}, {"size": "192"}, {"size": "1"}]}}}}, "op": "Const", "name": "FeatureExtractor/MobilenetV2/expanded_conv_4/depthwise/depthwise_weights"}, {"attr": {"dtype": {"type": "DT_FLOAT"}, "value": {"tensor": {"dtype": "DT_FLOAT", "tensorShape": {"dim": [{"size": "192"}]}}}}, "op": "Const", "name": "FeatureExtractor/MobilenetV2/expanded_conv_4/depthwise/BatchNorm/batchnorm/mul"}, {"attr": {"dtype": {"type": "DT_FLOAT"}, "value": {"tensor": {"dtype": "DT_FLOAT", "tensorShape": {"dim": [{"size": "192"}]}}}}, "op": "Const", "name": "FeatureExtractor/MobilenetV2/expanded_conv_4/depthwise/BatchNorm/batchnorm/sub"}, {"attr": {"dtype": {"type": "DT_FLOAT"}, "value": {"tensor": {"dtype": "DT_FLOAT", "tensorShape": {"dim": [{"size": "1"}, {"size": "1"}, {"size": "192"}, {"size": "32"}]}}}}, "op": "Const", "name": "FeatureExtractor/MobilenetV2/expanded_conv_4/project/Conv2D/merged_input"}, {"attr": {"dtype": {"type": "DT_FLOAT"}, "value": {"tensor": {"dtype": "DT_FLOAT", "tensorShape": {"dim": [{"size": "24"}]}}}}, "op": "Const", "name": "FeatureExtractor/MobilenetV2/expanded_conv_2/project/BatchNorm/batchnorm/sub"}, {"attr": {"dtype": {"type": "DT_FLOAT"}, "value": {"tensor": {"dtype": "DT_FLOAT", "tensorShape": {"dim": [{"size": "1"}, {"size": "1"}, {"size": "24"}, {"size": "144"}]}}}}, "op": "Const", "name": "FeatureExtractor/MobilenetV2/expanded_conv_2/expand/Conv2D/merged_input"}, {"attr": {"dtype": {"type": "DT_FLOAT"}, "value": {"tensor": {"dtype": "DT_FLOAT", "tensorShape": {"dim": [{"size": "144"}]}}}}, "op": "Const", "name": "FeatureExtractor/MobilenetV2/expanded_conv_2/expand/BatchNorm/batchnorm/sub"}, {"attr": {"dtype": {"type": "DT_FLOAT"}, "value": {"tensor": {"dtype": "DT_FLOAT", "tensorShape": {"dim": [{"size": "3"}, {"size": "3"}, {"size": "144"}, {"size": "1"}]}}}}, "op": "Const", "name": "FeatureExtractor/MobilenetV2/expanded_conv_2/depthwise/depthwise_weights"}, {"attr": {"dtype": {"type": "DT_FLOAT"}, "value": {"tensor": {"dtype": "DT_FLOAT", "tensorShape": {"dim": [{"size": "144"}]}}}}, "op": "Const", "name": "FeatureExtractor/MobilenetV2/expanded_conv_2/depthwise/BatchNorm/batchnorm/mul"}, {"attr": {"dtype": {"type": "DT_FLOAT"}, "value": {"tensor": {"dtype": "DT_FLOAT", "tensorShape": {"dim": [{"size": "144"}]}}}}, "op": "Const", "name": "FeatureExtractor/MobilenetV2/expanded_conv_2/depthwise/BatchNorm/batchnorm/sub"}, {"attr": {"dtype": {"type": "DT_FLOAT"}, "value": {"tensor": {"dtype": "DT_FLOAT", "tensorShape": {"dim": [{"size": "1"}, {"size": "1"}, {"size": "144"}, {"size": "24"}]}}}}, "op": "Const", "name": "FeatureExtractor/MobilenetV2/expanded_conv_2/project/Conv2D/merged_input"}, {"attr": {"dtype": {"type": "DT_FLOAT"}, "value": {"tensor": {"dtype": "DT_FLOAT", "tensorShape": {}}}}, "op": "Const", "name": "Preprocessor/mul/x"}, {"attr": {"dtype": {"type": "DT_INT32"}, "value": {"tensor": {"dtype": "DT_INT32", "tensorShape": {}}}}, "op": "Const", "name": "Preprocessor/map/TensorArrayStack/range/start"}, {"attr": {"dtype": {"type": "DT_FLOAT"}, "value": {"tensor": {"dtype": "DT_FLOAT", "tensorShape": {}}}}, "op": "Const", "name": "Preprocessor/sub/y"}, {"attr": {"dtype": {"type": "DT_FLOAT"}, "value": {"tensor": {"dtype": "DT_FLOAT", "tensorShape": {"dim": [{"size": "3"}, {"size": "3"}, {"size": "3"}, {"size": "32"}]}}}}, "op": "Const", "name": "FeatureExtractor/MobilenetV2/Conv/Conv2D/merged_input"}, {"attr": {"dtype": {"type": "DT_FLOAT"}, "value": {"tensor": {"dtype": "DT_FLOAT", "tensorShape": {"dim": [{"size": "32"}]}}}}, "op": "Const", "name": "FeatureExtractor/MobilenetV2/Conv/BatchNorm/batchnorm/sub"}, {"attr": {"dtype": {"type": "DT_FLOAT"}, "value": {"tensor": {"dtype": "DT_FLOAT", "tensorShape": {"dim": [{"size": "3"}, {"size": "3"}, {"size": "32"}, {"size": "1"}]}}}}, "op": "Const", "name": "FeatureExtractor/MobilenetV2/expanded_conv/depthwise/depthwise_weights"}, {"attr": {"dtype": {"type": "DT_FLOAT"}, "value": {"tensor": {"dtype": "DT_FLOAT", "tensorShape": {"dim": [{"size": "32"}]}}}}, "op": "Const", "name": "FeatureExtractor/MobilenetV2/expanded_conv/depthwise/BatchNorm/batchnorm/mul"}, {"attr": {"dtype": {"type": "DT_FLOAT"}, "value": {"tensor": {"dtype": "DT_FLOAT", "tensorShape": {"dim": [{"size": "32"}]}}}}, "op": "Const", "name": "FeatureExtractor/MobilenetV2/expanded_conv/depthwise/BatchNorm/batchnorm/sub"}, {"attr": {"dtype": {"type": "DT_FLOAT"}, "value": {"tensor": {"dtype": "DT_FLOAT", "tensorShape": {"dim": [{"size": "1"}, {"size": "1"}, {"size": "32"}, {"size": "16"}]}}}}, "op": "Const", "name": "FeatureExtractor/MobilenetV2/expanded_conv/project/Conv2D/merged_input"}, {"attr": {"dtype": {"type": "DT_FLOAT"}, "value": {"tensor": {"dtype": "DT_FLOAT", "tensorShape": {"dim": [{"size": "16"}]}}}}, "op": "Const", "name": "FeatureExtractor/MobilenetV2/expanded_conv/project/BatchNorm/batchnorm/sub"}, {"attr": {"dtype": {"type": "DT_FLOAT"}, "value": {"tensor": {"dtype": "DT_FLOAT", "tensorShape": {"dim": [{"size": "1"}, {"size": "1"}, {"size": "16"}, {"size": "96"}]}}}}, "op": "Const", "name": "FeatureExtractor/MobilenetV2/expanded_conv_1/expand/Conv2D/merged_input"}, {"attr": {"dtype": {"type": "DT_FLOAT"}, "value": {"tensor": {"dtype": "DT_FLOAT", "tensorShape": {"dim": [{"size": "96"}]}}}}, "op": "Const", "name": "FeatureExtractor/MobilenetV2/expanded_conv_1/expand/BatchNorm/batchnorm/sub"}, {"attr": {"dtype": {"type": "DT_FLOAT"}, "value": {"tensor": {"dtype": "DT_FLOAT", "tensorShape": {"dim": [{"size": "3"}, {"size": "3"}, {"size": "96"}, {"size": "1"}]}}}}, "op": "Const", "name": "FeatureExtractor/MobilenetV2/expanded_conv_1/depthwise/depthwise_weights"}, {"attr": {"dtype": {"type": "DT_FLOAT"}, "value": {"tensor": {"dtype": "DT_FLOAT", "tensorShape": {"dim": [{"size": "96"}]}}}}, "op": "Const", "name": "FeatureExtractor/MobilenetV2/expanded_conv_1/depthwise/BatchNorm/batchnorm/mul"}, {"attr": {"dtype": {"type": "DT_FLOAT"}, "value": {"tensor": {"dtype": "DT_FLOAT", "tensorShape": {"dim": [{"size": "96"}]}}}}, "op": "Const", "name": "FeatureExtractor/MobilenetV2/expanded_conv_1/depthwise/BatchNorm/batchnorm/sub"}, {"attr": {"dtype": {"type": "DT_FLOAT"}, "value": {"tensor": {"dtype": "DT_FLOAT", "tensorShape": {"dim": [{"size": "1"}, {"size": "1"}, {"size": "96"}, {"size": "24"}]}}}}, "op": "Const", "name": "FeatureExtractor/MobilenetV2/expanded_conv_1/project/Conv2D/merged_input"}, {"attr": {"dtype": {"type": "DT_FLOAT"}, "value": {"tensor": {"dtype": "DT_FLOAT", "tensorShape": {"dim": [{"size": "24"}]}}}}, "op": "Const", "name": "FeatureExtractor/MobilenetV2/expanded_conv_1/project/BatchNorm/batchnorm/sub"}, {"attr": {"dtype": {"type": "DT_FLOAT"}, "value": {"tensor": {"dtype": "DT_FLOAT", "tensorShape": {"dim": [{"size": "1"}, {"size": "1"}, {"size": "24"}, {"size": "144"}]}}}}, "op": "Const", "name": "FeatureExtractor/MobilenetV2/expanded_conv_3/expand/Conv2D/merged_input"}, {"attr": {"dtype": {"type": "DT_FLOAT"}, "value": {"tensor": {"dtype": "DT_FLOAT", "tensorShape": {"dim": [{"size": "144"}]}}}}, "op": "Const", "name": "FeatureExtractor/MobilenetV2/expanded_conv_3/expand/BatchNorm/batchnorm/sub"}, {"attr": {"dtype": {"type": "DT_FLOAT"}, "value": {"tensor": {"dtype": "DT_FLOAT", "tensorShape": {"dim": [{"size": "3"}, {"size": "3"}, {"size": "144"}, {"size": "1"}]}}}}, "op": "Const", "name": "FeatureExtractor/MobilenetV2/expanded_conv_3/depthwise/depthwise_weights"}, {"attr": {"dtype": {"type": "DT_FLOAT"}, "value": {"tensor": {"dtype": "DT_FLOAT", "tensorShape": {"dim": [{"size": "144"}]}}}}, "op": "Const", "name": "FeatureExtractor/MobilenetV2/expanded_conv_3/depthwise/BatchNorm/batchnorm/mul"}, {"attr": {"dtype": {"type": "DT_FLOAT"}, "value": {"tensor": {"dtype": "DT_FLOAT", "tensorShape": {"dim": [{"size": "144"}]}}}}, "op": "Const", "name": "FeatureExtractor/MobilenetV2/expanded_conv_3/depthwise/BatchNorm/batchnorm/sub"}, {"attr": {"dtype": {"type": "DT_FLOAT"}, "value": {"tensor": {"dtype": "DT_FLOAT", "tensorShape": {"dim": [{"size": "1"}, {"size": "1"}, {"size": "144"}, {"size": "32"}]}}}}, "op": "Const", "name": "FeatureExtractor/MobilenetV2/expanded_conv_3/project/Conv2D/merged_input"}, {"attr": {"dtype": {"type": "DT_FLOAT"}, "value": {"tensor": {"dtype": "DT_FLOAT", "tensorShape": {"dim": [{"size": "32"}]}}}}, "op": "Const", "name": "FeatureExtractor/MobilenetV2/expanded_conv_3/project/BatchNorm/batchnorm/sub"}, {"attr": {"dtype": {"type": "DT_FLOAT"}, "value": {"tensor": {"dtype": "DT_FLOAT", "tensorShape": {"dim": [{"size": "1"}, {"size": "1"}, {"size": "32"}, {"size": "192"}]}}}}, "op": "Const", "name": "FeatureExtractor/MobilenetV2/expanded_conv_6/expand/Conv2D/merged_input"}, {"attr": {"dtype": {"type": "DT_FLOAT"}, "value": {"tensor": {"dtype": "DT_FLOAT", "tensorShape": {"dim": [{"size": "192"}]}}}}, "op": "Const", "name": "FeatureExtractor/MobilenetV2/expanded_conv_6/expand/BatchNorm/batchnorm/sub"}, {"attr": {"dtype": {"type": "DT_FLOAT"}, "value": {"tensor": {"dtype": "DT_FLOAT", "tensorShape": {"dim": [{"size": "3"}, {"size": "3"}, {"size": "192"}, {"size": "1"}]}}}}, "op": "Const", "name": "FeatureExtractor/MobilenetV2/expanded_conv_6/depthwise/depthwise_weights"}, {"attr": {"dtype": {"type": "DT_FLOAT"}, "value": {"tensor": {"dtype": "DT_FLOAT", "tensorShape": {"dim": [{"size": "192"}]}}}}, "op": "Const", "name": "FeatureExtractor/MobilenetV2/expanded_conv_6/depthwise/BatchNorm/batchnorm/mul"}, {"attr": {"dtype": {"type": "DT_FLOAT"}, "value": {"tensor": {"dtype": "DT_FLOAT", "tensorShape": {"dim": [{"size": "192"}]}}}}, "op": "Const", "name": "FeatureExtractor/MobilenetV2/expanded_conv_6/depthwise/BatchNorm/batchnorm/sub"}, {"attr": {"dtype": {"type": "DT_FLOAT"}, "value": {"tensor": {"dtype": "DT_FLOAT", "tensorShape": {"dim": [{"size": "1"}, {"size": "1"}, {"size": "192"}, {"size": "64"}]}}}}, "op": "Const", "name": "FeatureExtractor/MobilenetV2/expanded_conv_6/project/Conv2D/merged_input"}, {"attr": {"dtype": {"type": "DT_FLOAT"}, "value": {"tensor": {"dtype": "DT_FLOAT", "tensorShape": {"dim": [{"size": "64"}]}}}}, "op": "Const", "name": "FeatureExtractor/MobilenetV2/expanded_conv_6/project/BatchNorm/batchnorm/sub"}, {"attr": {"dtype": {"type": "DT_FLOAT"}, "value": {"tensor": {"dtype": "DT_FLOAT", "tensorShape": {"dim": [{"size": "1"}, {"size": "1"}, {"size": "64"}, {"size": "384"}]}}}}, "op": "Const", "name": "FeatureExtractor/MobilenetV2/expanded_conv_10/expand/Conv2D/merged_input"}, {"attr": {"dtype": {"type": "DT_FLOAT"}, "value": {"tensor": {"dtype": "DT_FLOAT", "tensorShape": {"dim": [{"size": "384"}]}}}}, "op": "Const", "name": "FeatureExtractor/MobilenetV2/expanded_conv_10/expand/BatchNorm/batchnorm/sub"}, {"attr": {"dtype": {"type": "DT_FLOAT"}, "value": {"tensor": {"dtype": "DT_FLOAT", "tensorShape": {"dim": [{"size": "3"}, {"size": "3"}, {"size": "384"}, {"size": "1"}]}}}}, "op": "Const", "name": "FeatureExtractor/MobilenetV2/expanded_conv_10/depthwise/depthwise_weights"}, {"attr": {"dtype": {"type": "DT_FLOAT"}, "value": {"tensor": {"dtype": "DT_FLOAT", "tensorShape": {"dim": [{"size": "384"}]}}}}, "op": "Const", "name": "FeatureExtractor/MobilenetV2/expanded_conv_10/depthwise/BatchNorm/batchnorm/mul"}, {"attr": {"dtype": {"type": "DT_FLOAT"}, "value": {"tensor": {"dtype": "DT_FLOAT", "tensorShape": {"dim": [{"size": "384"}]}}}}, "op": "Const", "name": "FeatureExtractor/MobilenetV2/expanded_conv_10/depthwise/BatchNorm/batchnorm/sub"}, {"attr": {"dtype": {"type": "DT_FLOAT"}, "value": {"tensor": {"dtype": "DT_FLOAT", "tensorShape": {"dim": [{"size": "1"}, {"size": "1"}, {"size": "384"}, {"size": "96"}]}}}}, "op": "Const", "name": "FeatureExtractor/MobilenetV2/expanded_conv_10/project/Conv2D/merged_input"}, {"attr": {"dtype": {"type": "DT_FLOAT"}, "value": {"tensor": {"dtype": "DT_FLOAT", "tensorShape": {"dim": [{"size": "96"}]}}}}, "op": "Const", "name": "FeatureExtractor/MobilenetV2/expanded_conv_10/project/BatchNorm/batchnorm/sub"}, {"attr": {"dtype": {"type": "DT_FLOAT"}, "value": {"tensor": {"dtype": "DT_FLOAT", "tensorShape": {"dim": [{"size": "1"}, {"size": "1"}, {"size": "96"}, {"size": "576"}]}}}}, "op": "Const", "name": "FeatureExtractor/MobilenetV2/expanded_conv_13/expand/Conv2D/merged_input"}, {"attr": {"dtype": {"type": "DT_FLOAT"}, "value": {"tensor": {"dtype": "DT_FLOAT", "tensorShape": {"dim": [{"size": "576"}]}}}}, "op": "Const", "name": "FeatureExtractor/MobilenetV2/expanded_conv_13/expand/BatchNorm/batchnorm/sub"}, {"attr": {"dtype": {"type": "DT_FLOAT"}, "value": {"tensor": {"dtype": "DT_FLOAT", "tensorShape": {"dim": [{"size": "3"}, {"size": "3"}, {"size": "576"}, {"size": "1"}]}}}}, "op": "Const", "name": "FeatureExtractor/MobilenetV2/expanded_conv_13/depthwise/depthwise_weights"}, {"attr": {"dtype": {"type": "DT_FLOAT"}, "value": {"tensor": {"dtype": "DT_FLOAT", "tensorShape": {"dim": [{"size": "576"}]}}}}, "op": "Const", "name": "FeatureExtractor/MobilenetV2/expanded_conv_13/depthwise/BatchNorm/batchnorm/mul"}, {"attr": {"dtype": {"type": "DT_FLOAT"}, "value": {"tensor": {"dtype": "DT_FLOAT", "tensorShape": {"dim": [{"size": "576"}]}}}}, "op": "Const", "name": "FeatureExtractor/MobilenetV2/expanded_conv_13/depthwise/BatchNorm/batchnorm/sub"}, {"attr": {"dtype": {"type": "DT_FLOAT"}, "value": {"tensor": {"dtype": "DT_FLOAT", "tensorShape": {"dim": [{"size": "1"}, {"size": "1"}, {"size": "576"}, {"size": "160"}]}}}}, "op": "Const", "name": "FeatureExtractor/MobilenetV2/expanded_conv_13/project/Conv2D/merged_input"}, {"attr": {"dtype": {"type": "DT_FLOAT"}, "value": {"tensor": {"dtype": "DT_FLOAT", "tensorShape": {"dim": [{"size": "160"}]}}}}, "op": "Const", "name": "FeatureExtractor/MobilenetV2/expanded_conv_13/project/BatchNorm/batchnorm/sub"}, {"attr": {"dtype": {"type": "DT_FLOAT"}, "value": {"tensor": {"dtype": "DT_FLOAT", "tensorShape": {"dim": [{"size": "1"}, {"size": "1"}, {"size": "160"}, {"size": "960"}]}}}}, "op": "Const", "name": "FeatureExtractor/MobilenetV2/expanded_conv_16/expand/Conv2D/merged_input"}, {"attr": {"dtype": {"type": "DT_FLOAT"}, "value": {"tensor": {"dtype": "DT_FLOAT", "tensorShape": {"dim": [{"size": "960"}]}}}}, "op": "Const", "name": "FeatureExtractor/MobilenetV2/expanded_conv_16/expand/BatchNorm/batchnorm/sub"}, {"attr": {"dtype": {"type": "DT_FLOAT"}, "value": {"tensor": {"dtype": "DT_FLOAT", "tensorShape": {"dim": [{"size": "3"}, {"size": "3"}, {"size": "960"}, {"size": "1"}]}}}}, "op": "Const", "name": "FeatureExtractor/MobilenetV2/expanded_conv_16/depthwise/depthwise_weights"}, {"attr": {"dtype": {"type": "DT_FLOAT"}, "value": {"tensor": {"dtype": "DT_FLOAT", "tensorShape": {"dim": [{"size": "960"}]}}}}, "op": "Const", "name": "FeatureExtractor/MobilenetV2/expanded_conv_16/depthwise/BatchNorm/batchnorm/mul"}, {"attr": {"dtype": {"type": "DT_FLOAT"}, "value": {"tensor": {"dtype": "DT_FLOAT", "tensorShape": {"dim": [{"size": "960"}]}}}}, "op": "Const", "name": "FeatureExtractor/MobilenetV2/expanded_conv_16/depthwise/BatchNorm/batchnorm/sub"}, {"attr": {"dtype": {"type": "DT_FLOAT"}, "value": {"tensor": {"dtype": "DT_FLOAT", "tensorShape": {"dim": [{"size": "1"}, {"size": "1"}, {"size": "960"}, {"size": "320"}]}}}}, "op": "Const", "name": "FeatureExtractor/MobilenetV2/expanded_conv_16/project/Conv2D/merged_input"}, {"attr": {"dtype": {"type": "DT_FLOAT"}, "value": {"tensor": {"dtype": "DT_FLOAT", "tensorShape": {"dim": [{"size": "320"}]}}}}, "op": "Const", "name": "FeatureExtractor/MobilenetV2/expanded_conv_16/project/BatchNorm/batchnorm/sub"}, {"attr": {"dtype": {"type": "DT_FLOAT"}, "value": {"tensor": {"dtype": "DT_FLOAT", "tensorShape": {"dim": [{"size": "1"}, {"size": "1"}, {"size": "320"}, {"size": "1280"}]}}}}, "op": "Const", "name": "FeatureExtractor/MobilenetV2/Conv_1/Conv2D/merged_input"}, {"attr": {"dtype": {"type": "DT_FLOAT"}, "value": {"tensor": {"dtype": "DT_FLOAT", "tensorShape": {"dim": [{"size": "1280"}]}}}}, "op": "Const", "name": "FeatureExtractor/MobilenetV2/Conv_1/BatchNorm/batchnorm/sub"}, {"attr": {"dtype": {"type": "DT_FLOAT"}, "value": {"tensor": {"dtype": "DT_FLOAT", "tensorShape": {"dim": [{"size": "1"}, {"size": "1"}, {"size": "1280"}, {"size": "256"}]}}}}, "op": "Const", "name": "FeatureExtractor/MobilenetV2/layer_19_1_Conv2d_2_1x1_256/Conv2D/merged_input"}, {"attr": {"dtype": {"type": "DT_FLOAT"}, "value": {"tensor": {"dtype": "DT_FLOAT", "tensorShape": {"dim": [{"size": "256"}]}}}}, "op": "Const", "name": "FeatureExtractor/MobilenetV2/layer_19_1_Conv2d_2_1x1_256/BatchNorm/batchnorm/sub"}, {"attr": {"dtype": {"type": "DT_FLOAT"}, "value": {"tensor": {"dtype": "DT_FLOAT", "tensorShape": {"dim": [{"size": "3"}, {"size": "3"}, {"size": "256"}, {"size": "1"}]}}}}, "op": "Const", "name": "FeatureExtractor/MobilenetV2/layer_19_2_Conv2d_2_3x3_s2_512_depthwise/depthwise_weights"}, {"attr": {"dtype": {"type": "DT_FLOAT"}, "value": {"tensor": {"dtype": "DT_FLOAT", "tensorShape": {"dim": [{"size": "256"}]}}}}, "op": "Const", "name": "FeatureExtractor/MobilenetV2/layer_19_2_Conv2d_2_3x3_s2_512_depthwise/BatchNorm/batchnorm/mul"}, {"attr": {"dtype": {"type": "DT_FLOAT"}, "value": {"tensor": {"dtype": "DT_FLOAT", "tensorShape": {"dim": [{"size": "256"}]}}}}, "op": "Const", "name": "FeatureExtractor/MobilenetV2/layer_19_2_Conv2d_2_3x3_s2_512_depthwise/BatchNorm/batchnorm/sub"}, {"attr": {"dtype": {"type": "DT_FLOAT"}, "value": {"tensor": {"dtype": "DT_FLOAT", "tensorShape": {"dim": [{"size": "1"}, {"size": "1"}, {"size": "256"}, {"size": "512"}]}}}}, "op": "Const", "name": "FeatureExtractor/MobilenetV2/layer_19_2_Conv2d_2_3x3_s2_512/Conv2D/merged_input"}, {"attr": {"dtype": {"type": "DT_FLOAT"}, "value": {"tensor": {"dtype": "DT_FLOAT", "tensorShape": {"dim": [{"size": "512"}]}}}}, "op": "Const", "name": "FeatureExtractor/MobilenetV2/layer_19_2_Conv2d_2_3x3_s2_512/BatchNorm/batchnorm/sub"}, {"attr": {"dtype": {"type": "DT_FLOAT"}, "value": {"tensor": {"dtype": "DT_FLOAT", "tensorShape": {"dim": [{"size": "1"}, {"size": "1"}, {"size": "512"}, {"size": "128"}]}}}}, "op": "Const", "name": "FeatureExtractor/MobilenetV2/layer_19_1_Conv2d_3_1x1_128/Conv2D/merged_input"}, {"attr": {"dtype": {"type": "DT_FLOAT"}, "value": {"tensor": {"dtype": "DT_FLOAT", "tensorShape": {"dim": [{"size": "128"}]}}}}, "op": "Const", "name": "FeatureExtractor/MobilenetV2/layer_19_1_Conv2d_3_1x1_128/BatchNorm/batchnorm/sub"}, {"attr": {"dtype": {"type": "DT_FLOAT"}, "value": {"tensor": {"dtype": "DT_FLOAT", "tensorShape": {"dim": [{"size": "3"}, {"size": "3"}, {"size": "128"}, {"size": "1"}]}}}}, "op": "Const", "name": "FeatureExtractor/MobilenetV2/layer_19_2_Conv2d_3_3x3_s2_256_depthwise/depthwise_weights"}, {"attr": {"dtype": {"type": "DT_FLOAT"}, "value": {"tensor": {"dtype": "DT_FLOAT", "tensorShape": {"dim": [{"size": "128"}]}}}}, "op": "Const", "name": "FeatureExtractor/MobilenetV2/layer_19_2_Conv2d_3_3x3_s2_256_depthwise/BatchNorm/batchnorm/mul"}, {"attr": {"dtype": {"type": "DT_FLOAT"}, "value": {"tensor": {"dtype": "DT_FLOAT", "tensorShape": {"dim": [{"size": "128"}]}}}}, "op": "Const", "name": "FeatureExtractor/MobilenetV2/layer_19_2_Conv2d_3_3x3_s2_256_depthwise/BatchNorm/batchnorm/sub"}, {"attr": {"dtype": {"type": "DT_FLOAT"}, "value": {"tensor": {"dtype": "DT_FLOAT", "tensorShape": {"dim": [{"size": "1"}, {"size": "1"}, {"size": "128"}, {"size": "256"}]}}}}, "op": "Const", "name": "FeatureExtractor/MobilenetV2/layer_19_2_Conv2d_3_3x3_s2_256/Conv2D/merged_input"}, {"attr": {"dtype": {"type": "DT_FLOAT"}, "value": {"tensor": {"dtype": "DT_FLOAT", "tensorShape": {"dim": [{"size": "256"}]}}}}, "op": "Const", "name": "FeatureExtractor/MobilenetV2/layer_19_2_Conv2d_3_3x3_s2_256/BatchNorm/batchnorm/sub"}, {"attr": {"dtype": {"type": "DT_FLOAT"}, "value": {"tensor": {"dtype": "DT_FLOAT", "tensorShape": {"dim": [{"size": "1"}, {"size": "1"}, {"size": "256"}, {"size": "128"}]}}}}, "op": "Const", "name": "FeatureExtractor/MobilenetV2/layer_19_1_Conv2d_4_1x1_128/Conv2D/merged_input"}, {"attr": {"dtype": {"type": "DT_FLOAT"}, "value": {"tensor": {"dtype": "DT_FLOAT", "tensorShape": {"dim": [{"size": "128"}]}}}}, "op": "Const", "name": "FeatureExtractor/MobilenetV2/layer_19_1_Conv2d_4_1x1_128/BatchNorm/batchnorm/sub"}, {"attr": {"dtype": {"type": "DT_FLOAT"}, "value": {"tensor": {"dtype": "DT_FLOAT", "tensorShape": {"dim": [{"size": "3"}, {"size": "3"}, {"size": "128"}, {"size": "1"}]}}}}, "op": "Const", "name": "FeatureExtractor/MobilenetV2/layer_19_2_Conv2d_4_3x3_s2_256_depthwise/depthwise_weights"}, {"attr": {"dtype": {"type": "DT_FLOAT"}, "value": {"tensor": {"dtype": "DT_FLOAT", "tensorShape": {"dim": [{"size": "128"}]}}}}, "op": "Const", "name": "FeatureExtractor/MobilenetV2/layer_19_2_Conv2d_4_3x3_s2_256_depthwise/BatchNorm/batchnorm/mul"}, {"attr": {"dtype": {"type": "DT_FLOAT"}, "value": {"tensor": {"dtype": "DT_FLOAT", "tensorShape": {"dim": [{"size": "128"}]}}}}, "op": "Const", "name": "FeatureExtractor/MobilenetV2/layer_19_2_Conv2d_4_3x3_s2_256_depthwise/BatchNorm/batchnorm/sub"}, {"attr": {"dtype": {"type": "DT_FLOAT"}, "value": {"tensor": {"dtype": "DT_FLOAT", "tensorShape": {"dim": [{"size": "1"}, {"size": "1"}, {"size": "128"}, {"size": "256"}]}}}}, "op": "Const", "name": "FeatureExtractor/MobilenetV2/layer_19_2_Conv2d_4_3x3_s2_256/Conv2D/merged_input"}, {"attr": {"dtype": {"type": "DT_FLOAT"}, "value": {"tensor": {"dtype": "DT_FLOAT", "tensorShape": {"dim": [{"size": "256"}]}}}}, "op": "Const", "name": "FeatureExtractor/MobilenetV2/layer_19_2_Conv2d_4_3x3_s2_256/BatchNorm/batchnorm/sub"}, {"attr": {"dtype": {"type": "DT_FLOAT"}, "value": {"tensor": {"dtype": "DT_FLOAT", "tensorShape": {"dim": [{"size": "1"}, {"size": "1"}, {"size": "256"}, {"size": "64"}]}}}}, "op": "Const", "name": "FeatureExtractor/MobilenetV2/layer_19_1_Conv2d_5_1x1_64/Conv2D/merged_input"}, {"attr": {"dtype": {"type": "DT_FLOAT"}, "value": {"tensor": {"dtype": "DT_FLOAT", "tensorShape": {"dim": [{"size": "64"}]}}}}, "op": "Const", "name": "FeatureExtractor/MobilenetV2/layer_19_1_Conv2d_5_1x1_64/BatchNorm/batchnorm/sub"}, {"attr": {"dtype": {"type": "DT_FLOAT"}, "value": {"tensor": {"dtype": "DT_FLOAT", "tensorShape": {"dim": [{"size": "3"}, {"size": "3"}, {"size": "64"}, {"size": "1"}]}}}}, "op": "Const", "name": "FeatureExtractor/MobilenetV2/layer_19_2_Conv2d_5_3x3_s2_128_depthwise/depthwise_weights"}, {"attr": {"dtype": {"type": "DT_FLOAT"}, "value": {"tensor": {"dtype": "DT_FLOAT", "tensorShape": {"dim": [{"size": "64"}]}}}}, "op": "Const", "name": "FeatureExtractor/MobilenetV2/layer_19_2_Conv2d_5_3x3_s2_128_depthwise/BatchNorm/batchnorm/mul"}, {"attr": {"dtype": {"type": "DT_FLOAT"}, "value": {"tensor": {"dtype": "DT_FLOAT", "tensorShape": {"dim": [{"size": "64"}]}}}}, "op": "Const", "name": "FeatureExtractor/MobilenetV2/layer_19_2_Conv2d_5_3x3_s2_128_depthwise/BatchNorm/batchnorm/sub"}, {"attr": {"dtype": {"type": "DT_FLOAT"}, "value": {"tensor": {"dtype": "DT_FLOAT", "tensorShape": {"dim": [{"size": "1"}, {"size": "1"}, {"size": "64"}, {"size": "128"}]}}}}, "op": "Const", "name": "FeatureExtractor/MobilenetV2/layer_19_2_Conv2d_5_3x3_s2_128/Conv2D/merged_input"}, {"attr": {"dtype": {"type": "DT_FLOAT"}, "value": {"tensor": {"dtype": "DT_FLOAT", "tensorShape": {"dim": [{"size": "128"}]}}}}, "op": "Const", "name": "FeatureExtractor/MobilenetV2/layer_19_2_Conv2d_5_3x3_s2_128/BatchNorm/batchnorm/sub"}, {"attr": {"dtype": {"type": "DT_INT32"}, "value": {"tensor": {"dtype": "DT_INT32", "tensorShape": {"dim": [{"size": "1"}]}}}}, "op": "Const", "name": "Postprocessor/strided_slice/stack"}, {"attr": {"dtype": {"type": "DT_INT32"}, "value": {"tensor": {"dtype": "DT_INT32", "tensorShape": {"dim": [{"size": "1"}]}}}}, "op": "Const", "name": "Postprocessor/strided_slice/stack_1"}, {"attr": {"dtype": {"type": "DT_INT32"}, "value": {"tensor": {"dtype": "DT_INT32", "tensorShape": {}}}}, "op": "Const", "name": "BoxPredictor_5/stack/1"}, {"attr": {"dtype": {"type": "DT_INT32"}, "value": {"tensor": {"dtype": "DT_INT32", "tensorShape": {}}}}, "op": "Const", "name": "BoxPredictor_0/stack_1/2"}, {"attr": {"dtype": {"type": "DT_INT32"}, "value": {"tensor": {"dtype": "DT_INT32", "tensorShape": {}}}}, "op": "Const", "name": "Postprocessor/Tile/multiples/1"}, {"attr": {"dtype": {"type": "DT_INT32"}, "value": {"tensor": {"dtype": "DT_INT32", "tensorShape": {"dim": [{"size": "3"}]}}}}, "op": "Const", "name": "Postprocessor/Slice/begin"}, {"attr": {"dtype": {"type": "DT_INT32"}, "value": {"tensor": {"dtype": "DT_INT32", "tensorShape": {"dim": [{"size": "3"}]}}}}, "op": "Const", "name": "Postprocessor/Slice/size"}, {"attr": {"dtype": {"type": "DT_UINT8"}, "shape": {"shape": {"dim": [{"size": "-1"}, {"size": "-1"}, {"size": "-1"}, {"size": "3"}]}}}, "op": "Placeholder", "name": "image_tensor"}, {"attr": {"T": {"type": "DT_INT32"}, "parallel_iterations": {"i": "32"}, "is_constant": {"b": false}, "frame_name": {"s": "UHJlcHJvY2Vzc29yL21hcC93aGlsZS93aGlsZV9jb250ZXh0"}}, "op": "Enter", "name": "Preprocessor/map/while/Enter", "input": ["Preprocessor/map/TensorArrayStack/range/start"]}, {"attr": {"Truncate": {"b": false}, "DstT": {"type": "DT_FLOAT"}, "SrcT": {"type": "DT_UINT8"}}, "op": "Cast", "name": "ToFloat", "input": ["image_tensor"]}, {"attr": {"T": {"type": "DT_INT32"}, "N": {"i": "2"}}, "op": "Merge", "name": "Preprocessor/map/while/Merge", "input": ["Preprocessor/map/while/Enter", "Preprocessor/map/while/NextIteration"]}, {"attr": {"T": {"type": "DT_FLOAT"}, "out_type": {"type": "DT_INT32"}}, "op": "Shape", "name": "Preprocessor/map/TensorArrayUnstack/Shape", "input": ["ToFloat"]}, {"attr": {"end_mask": {"i": "0"}, "begin_mask": {"i": "0"}, "ellipsis_mask": {"i": "0"}, "Index": {"type": "DT_INT32"}, "T": {"type": "DT_INT32"}, "shrink_axis_mask": {"i": "1"}, "new_axis_mask": {"i": "0"}}, "op": "StridedSlice", "name": "Preprocessor/map/TensorArrayUnstack/strided_slice", "input": ["Preprocessor/map/TensorArrayUnstack/Shape", "Postprocessor/strided_slice/stack", "Postprocessor/strided_slice/stack_1", "Postprocessor/strided_slice/stack_1"]}, {"attr": {"dtype": {"type": "DT_FLOAT"}, "dynamic_size": {"b": false}, "identical_element_shapes": {"b": false}, "tensor_array_name": {"s": ""}, "element_shape": {"shape": {"unknownRank": true}}, "clear_after_read": {"b": true}}, "op": "TensorArrayV3", "name": "Preprocessor/map/TensorArray_1", "input": ["Preprocessor/map/TensorArrayUnstack/strided_slice"]}, {"attr": {"Tidx": {"type": "DT_INT32"}}, "op": "Range", "name": "Preprocessor/map/TensorArrayUnstack/range", "input": ["Preprocessor/map/TensorArrayStack/range/start", "Preprocessor/map/TensorArrayUnstack/strided_slice", "Postprocessor/Tile/multiples/1"]}, {"attr": {"dtype": {"type": "DT_FLOAT"}, "dynamic_size": {"b": false}, "identical_element_shapes": {"b": false}, "tensor_array_name": {"s": ""}, "element_shape": {"shape": {"unknownRank": true}}, "clear_after_read": {"b": true}}, "op": "TensorArrayV3", "name": "Preprocessor/map/TensorArray", "input": ["Preprocessor/map/TensorArrayUnstack/strided_slice"]}, {"attr": {"T": {"type": "DT_INT32"}, "parallel_iterations": {"i": "32"}, "is_constant": {"b": true}, "frame_name": {"s": "UHJlcHJvY2Vzc29yL21hcC93aGlsZS93aGlsZV9jb250ZXh0"}}, "op": "Enter", "name": "Preprocessor/map/while/Less/Enter", "input": ["Preprocessor/map/TensorArrayUnstack/strided_slice"]}, {"attr": {"T": {"type": "DT_FLOAT"}, "parallel_iterations": {"i": "32"}, "is_constant": {"b": false}, "frame_name": {"s": "UHJlcHJvY2Vzc29yL21hcC93aGlsZS93aGlsZV9jb250ZXh0"}}, "op": "Enter", "name": "Preprocessor/map/while/Enter_1", "input": ["Preprocessor/map/TensorArray_1:1"]}, {"attr": {"T": {"type": "DT_RESOURCE"}, "parallel_iterations": {"i": "32"}, "is_constant": {"b": true}, "frame_name": {"s": "UHJlcHJvY2Vzc29yL21hcC93aGlsZS93aGlsZV9jb250ZXh0"}}, "op": "Enter", "name": "Preprocessor/map/while/TensorArrayWrite/TensorArrayWriteV3/Enter", "input": ["Preprocessor/map/TensorArray_1"]}, {"attr": {"T": {"type": "DT_RESOURCE"}, "parallel_iterations": {"i": "32"}, "is_constant": {"b": true}, "frame_name": {"s": "UHJlcHJvY2Vzc29yL21hcC93aGlsZS93aGlsZV9jb250ZXh0"}}, "op": "Enter", "name": "Preprocessor/map/while/TensorArrayReadV3/Enter", "input": ["Preprocessor/map/TensorArray"]}, {"attr": {"T": {"type": "DT_FLOAT"}}, "op": "TensorArrayScatterV3", "name": "Preprocessor/map/TensorArrayUnstack/TensorArrayScatter/TensorArrayScatterV3", "input": ["Preprocessor/map/TensorArray", "Preprocessor/map/TensorArrayUnstack/range", "ToFloat", "Preprocessor/map/TensorArray:1"]}, {"attr": {"T": {"type": "DT_INT32"}}, "op": "Less", "name": "Preprocessor/map/while/Less", "input": ["Preprocessor/map/while/Merge", "Preprocessor/map/while/Less/Enter"]}, {"attr": {"T": {"type": "DT_FLOAT"}, "N": {"i": "2"}}, "op": "Merge", "name": "Preprocessor/map/while/Merge_1", "input": ["Preprocessor/map/while/Enter_1", "Preprocessor/map/while/NextIteration_1"]}, {"attr": {"T": {"type": "DT_FLOAT"}, "parallel_iterations": {"i": "32"}, "is_constant": {"b": true}, "frame_name": {"s": "UHJlcHJvY2Vzc29yL21hcC93aGlsZS93aGlsZV9jb250ZXh0"}}, "op": "Enter", "name": "Preprocessor/map/while/TensorArrayReadV3/Enter_1", "input": ["Preprocessor/map/TensorArrayUnstack/TensorArrayScatter/TensorArrayScatterV3"]}, {"op": "LoopCond", "name": "Preprocessor/map/while/LoopCond", "input": ["Preprocessor/map/while/Less"]}, {"attr": {"T": {"type": "DT_INT32"}}, "op": "Switch", "name": "Preprocessor/map/while/Switch", "input": ["Preprocessor/map/while/Merge", "Preprocessor/map/while/LoopCond"]}, {"attr": {"T": {"type": "DT_FLOAT"}}, "op": "Switch", "name": "Preprocessor/map/while/Switch_1", "input": ["Preprocessor/map/while/Merge_1", "Preprocessor/map/while/LoopCond"]}, {"attr": {"T": {"type": "DT_INT32"}}, "op": "Identity", "name": "Preprocessor/map/while/Identity", "input": ["Preprocessor/map/while/Switch:1"]}, {"attr": {"T": {"type": "DT_FLOAT"}}, "op": "Exit", "name": "Preprocessor/map/while/Exit_1", "input": ["Preprocessor/map/while/Switch_1"]}, {"attr": {"dtype": {"type": "DT_FLOAT"}}, "op": "TensorArrayReadV3", "name": "Preprocessor/map/while/TensorArrayReadV3", "input": ["Preprocessor/map/while/TensorArrayReadV3/Enter", "Preprocessor/map/while/Identity", "Preprocessor/map/while/TensorArrayReadV3/Enter_1"]}, {"attr": {"dtype": {"type": "DT_INT32"}, "value": {"tensor": {"dtype": "DT_INT32", "tensorShape": {}}}}, "op": "Const", "name": "Preprocessor/map/while/ResizeImage/ExpandDims/dim", "input": ["^Preprocessor/map/while/Identity"]}, {"attr": {"dtype": {"type": "DT_INT32"}, "value": {"tensor": {"dtype": "DT_INT32", "tensorShape": {"dim": [{"size": "2"}]}}}}, "op": "Const", "name": "Preprocessor/map/while/ResizeImage/stack", "input": ["^Preprocessor/map/while/Identity"]}, {"attr": {"dtype": {"type": "DT_INT32"}, "value": {"tensor": {"dtype": "DT_INT32", "tensorShape": {}}}}, "op": "Const", "name": "Preprocessor/map/while/add/y", "input": ["^Preprocessor/map/while/Identity"]}, {"op": "TensorArraySizeV3", "name": "Preprocessor/map/TensorArrayStack/TensorArraySizeV3", "input": ["Preprocessor/map/TensorArray_1", "Preprocessor/map/while/Exit_1"]}, {"attr": {"Tdim": {"type": "DT_INT32"}, "T": {"type": "DT_FLOAT"}}, "op": "ExpandDims", "name": "Preprocessor/map/while/ResizeImage/ExpandDims", "input": ["Preprocessor/map/while/TensorArrayReadV3", "Preprocessor/map/while/ResizeImage/ExpandDims/dim"]}, {"attr": {"T": {"type": "DT_INT32"}}, "op": "Add", "name": "Preprocessor/map/while/add", "input": ["Preprocessor/map/while/Identity", "Preprocessor/map/while/add/y"]}, {"attr": {"Tidx": {"type": "DT_INT32"}}, "op": "Range", "name": "Preprocessor/map/TensorArrayStack/range", "input": ["Preprocessor/map/TensorArrayStack/range/start", "Preprocessor/map/TensorArrayStack/TensorArraySizeV3", "Postprocessor/Tile/multiples/1"]}, {"attr": {"T": {"type": "DT_FLOAT"}, "align_corners": {"b": false}}, "op": "ResizeBilinear", "name": "Preprocessor/map/while/ResizeImage/ResizeBilinear", "input": ["Preprocessor/map/while/ResizeImage/ExpandDims", "Preprocessor/map/while/ResizeImage/stack"]}, {"attr": {"T": {"type": "DT_INT32"}}, "op": "NextIteration", "name": "Preprocessor/map/while/NextIteration", "input": ["Preprocessor/map/while/add"]}, {"attr": {"dtype": {"type": "DT_FLOAT"}, "element_shape": {"shape": {"dim": [{"size": "300"}, {"size": "300"}, {"size": "3"}]}}}, "op": "TensorArrayGatherV3", "name": "Preprocessor/map/TensorArrayStack/TensorArrayGatherV3", "input": ["Preprocessor/map/TensorArray_1", "Preprocessor/map/TensorArrayStack/range", "Preprocessor/map/while/Exit_1"]}, {"attr": {"squeeze_dims": {"list": {"i": ["0"]}}, "T": {"type": "DT_FLOAT"}}, "op": "Squeeze", "name": "Preprocessor/map/while/ResizeImage/Squeeze", "input": ["Preprocessor/map/while/ResizeImage/ResizeBilinear"]}, {"attr": {"T": {"type": "DT_FLOAT"}}, "op": "Mul", "name": "Preprocessor/mul", "input": ["Preprocessor/mul/x", "Preprocessor/map/TensorArrayStack/TensorArrayGatherV3"]}, {"attr": {"T": {"type": "DT_FLOAT"}}, "op": "TensorArrayWriteV3", "name": "Preprocessor/map/while/TensorArrayWrite/TensorArrayWriteV3", "input": ["Preprocessor/map/while/TensorArrayWrite/TensorArrayWriteV3/Enter", "Preprocessor/map/while/Identity", "Preprocessor/map/while/ResizeImage/Squeeze", "Preprocessor/map/while/Switch_1:1"]}, {"attr": {"T": {"type": "DT_FLOAT"}}, "op": "Sub", "name": "Preprocessor/sub", "input": ["Preprocessor/mul", "Preprocessor/sub/y"]}, {"attr": {"T": {"type": "DT_FLOAT"}}, "op": "NextIteration", "name": "Preprocessor/map/while/NextIteration_1", "input": ["Preprocessor/map/while/TensorArrayWrite/TensorArrayWriteV3"]}, {"attr": {"padding": {"s": "U0FNRQ=="}, "strides": {"list": {"i": ["1", "2", "2", "1"]}}, "dilations": {"list": {"i": ["1", "1", "1", "1"]}}, "T": {"type": "DT_FLOAT"}, "data_format": {"s": "TkhXQw=="}, "use_cudnn_on_gpu": {"b": true}}, "op": "Conv2D", "name": "FeatureExtractor/MobilenetV2/Conv/BatchNorm/batchnorm/mul_1", "input": ["Preprocessor/sub", "FeatureExtractor/MobilenetV2/Conv/Conv2D/merged_input"]}, {"attr": {"T": {"type": "DT_FLOAT"}}, "op": "Add", "name": "FeatureExtractor/MobilenetV2/Conv/BatchNorm/batchnorm/add_1", "input": ["FeatureExtractor/MobilenetV2/Conv/BatchNorm/batchnorm/mul_1", "FeatureExtractor/MobilenetV2/Conv/BatchNorm/batchnorm/sub"]}, {"attr": {"T": {"type": "DT_FLOAT"}}, "op": "Relu6", "name": "FeatureExtractor/MobilenetV2/Conv/Relu6", "input": ["FeatureExtractor/MobilenetV2/Conv/BatchNorm/batchnorm/add_1"]}, {"attr": {"data_format": {"s": "TkhXQw=="}, "padding": {"s": "U0FNRQ=="}, "dilations": {"list": {"i": ["1", "1", "1", "1"]}}, "T": {"type": "DT_FLOAT"}, "strides": {"list": {"i": ["1", "1", "1", "1"]}}}, "op": "DepthwiseConv2dNative", "name": "FeatureExtractor/MobilenetV2/expanded_conv/depthwise/depthwise", "input": ["FeatureExtractor/MobilenetV2/Conv/Relu6", "FeatureExtractor/MobilenetV2/expanded_conv/depthwise/depthwise_weights"]}, {"attr": {"T": {"type": "DT_FLOAT"}}, "op": "Mul", "name": "FeatureExtractor/MobilenetV2/expanded_conv/depthwise/BatchNorm/batchnorm/mul_1", "input": ["FeatureExtractor/MobilenetV2/expanded_conv/depthwise/depthwise", "FeatureExtractor/MobilenetV2/expanded_conv/depthwise/BatchNorm/batchnorm/mul"]}, {"attr": {"T": {"type": "DT_FLOAT"}}, "op": "Add", "name": "FeatureExtractor/MobilenetV2/expanded_conv/depthwise/BatchNorm/batchnorm/add_1", "input": ["FeatureExtractor/MobilenetV2/expanded_conv/depthwise/BatchNorm/batchnorm/mul_1", "FeatureExtractor/MobilenetV2/expanded_conv/depthwise/BatchNorm/batchnorm/sub"]}, {"attr": {"T": {"type": "DT_FLOAT"}}, "op": "Relu6", "name": "FeatureExtractor/MobilenetV2/expanded_conv/depthwise/Relu6", "input": ["FeatureExtractor/MobilenetV2/expanded_conv/depthwise/BatchNorm/batchnorm/add_1"]}, {"attr": {"padding": {"s": "U0FNRQ=="}, "strides": {"list": {"i": ["1", "1", "1", "1"]}}, "dilations": {"list": {"i": ["1", "1", "1", "1"]}}, "T": {"type": "DT_FLOAT"}, "data_format": {"s": "TkhXQw=="}, "use_cudnn_on_gpu": {"b": true}}, "op": "Conv2D", "name": "FeatureExtractor/MobilenetV2/expanded_conv/project/BatchNorm/batchnorm/mul_1", "input": ["FeatureExtractor/MobilenetV2/expanded_conv/depthwise/Relu6", "FeatureExtractor/MobilenetV2/expanded_conv/project/Conv2D/merged_input"]}, {"attr": {"T": {"type": "DT_FLOAT"}}, "op": "Add", "name": "FeatureExtractor/MobilenetV2/expanded_conv/project/BatchNorm/batchnorm/add_1", "input": ["FeatureExtractor/MobilenetV2/expanded_conv/project/BatchNorm/batchnorm/mul_1", "FeatureExtractor/MobilenetV2/expanded_conv/project/BatchNorm/batchnorm/sub"]}, {"attr": {"padding": {"s": "U0FNRQ=="}, "strides": {"list": {"i": ["1", "1", "1", "1"]}}, "dilations": {"list": {"i": ["1", "1", "1", "1"]}}, "T": {"type": "DT_FLOAT"}, "data_format": {"s": "TkhXQw=="}, "use_cudnn_on_gpu": {"b": true}}, "op": "Conv2D", "name": "FeatureExtractor/MobilenetV2/expanded_conv_1/expand/BatchNorm/batchnorm/mul_1", "input": ["FeatureExtractor/MobilenetV2/expanded_conv/project/BatchNorm/batchnorm/add_1", "FeatureExtractor/MobilenetV2/expanded_conv_1/expand/Conv2D/merged_input"]}, {"attr": {"T": {"type": "DT_FLOAT"}}, "op": "Add", "name": "FeatureExtractor/MobilenetV2/expanded_conv_1/expand/BatchNorm/batchnorm/add_1", "input": ["FeatureExtractor/MobilenetV2/expanded_conv_1/expand/BatchNorm/batchnorm/mul_1", "FeatureExtractor/MobilenetV2/expanded_conv_1/expand/BatchNorm/batchnorm/sub"]}, {"attr": {"T": {"type": "DT_FLOAT"}}, "op": "Relu6", "name": "FeatureExtractor/MobilenetV2/expanded_conv_1/expand/Relu6", "input": ["FeatureExtractor/MobilenetV2/expanded_conv_1/expand/BatchNorm/batchnorm/add_1"]}, {"attr": {"data_format": {"s": "TkhXQw=="}, "padding": {"s": "U0FNRQ=="}, "dilations": {"list": {"i": ["1", "1", "1", "1"]}}, "T": {"type": "DT_FLOAT"}, "strides": {"list": {"i": ["1", "2", "2", "1"]}}}, "op": "DepthwiseConv2dNative", "name": "FeatureExtractor/MobilenetV2/expanded_conv_1/depthwise/depthwise", "input": ["FeatureExtractor/MobilenetV2/expanded_conv_1/expand/Relu6", "FeatureExtractor/MobilenetV2/expanded_conv_1/depthwise/depthwise_weights"]}, {"attr": {"T": {"type": "DT_FLOAT"}}, "op": "Mul", "name": "FeatureExtractor/MobilenetV2/expanded_conv_1/depthwise/BatchNorm/batchnorm/mul_1", "input": ["FeatureExtractor/MobilenetV2/expanded_conv_1/depthwise/depthwise", "FeatureExtractor/MobilenetV2/expanded_conv_1/depthwise/BatchNorm/batchnorm/mul"]}, {"attr": {"T": {"type": "DT_FLOAT"}}, "op": "Add", "name": "FeatureExtractor/MobilenetV2/expanded_conv_1/depthwise/BatchNorm/batchnorm/add_1", "input": ["FeatureExtractor/MobilenetV2/expanded_conv_1/depthwise/BatchNorm/batchnorm/mul_1", "FeatureExtractor/MobilenetV2/expanded_conv_1/depthwise/BatchNorm/batchnorm/sub"]}, {"attr": {"T": {"type": "DT_FLOAT"}}, "op": "Relu6", "name": "FeatureExtractor/MobilenetV2/expanded_conv_1/depthwise/Relu6", "input": ["FeatureExtractor/MobilenetV2/expanded_conv_1/depthwise/BatchNorm/batchnorm/add_1"]}, {"attr": {"padding": {"s": "U0FNRQ=="}, "strides": {"list": {"i": ["1", "1", "1", "1"]}}, "dilations": {"list": {"i": ["1", "1", "1", "1"]}}, "T": {"type": "DT_FLOAT"}, "data_format": {"s": "TkhXQw=="}, "use_cudnn_on_gpu": {"b": true}}, "op": "Conv2D", "name": "FeatureExtractor/MobilenetV2/expanded_conv_1/project/BatchNorm/batchnorm/mul_1", "input": ["FeatureExtractor/MobilenetV2/expanded_conv_1/depthwise/Relu6", "FeatureExtractor/MobilenetV2/expanded_conv_1/project/Conv2D/merged_input"]}, {"attr": {"T": {"type": "DT_FLOAT"}}, "op": "Add", "name": "FeatureExtractor/MobilenetV2/expanded_conv_1/project/BatchNorm/batchnorm/add_1", "input": ["FeatureExtractor/MobilenetV2/expanded_conv_1/project/BatchNorm/batchnorm/mul_1", "FeatureExtractor/MobilenetV2/expanded_conv_1/project/BatchNorm/batchnorm/sub"]}, {"attr": {"padding": {"s": "U0FNRQ=="}, "strides": {"list": {"i": ["1", "1", "1", "1"]}}, "dilations": {"list": {"i": ["1", "1", "1", "1"]}}, "T": {"type": "DT_FLOAT"}, "data_format": {"s": "TkhXQw=="}, "use_cudnn_on_gpu": {"b": true}}, "op": "Conv2D", "name": "FeatureExtractor/MobilenetV2/expanded_conv_2/expand/BatchNorm/batchnorm/mul_1", "input": ["FeatureExtractor/MobilenetV2/expanded_conv_1/project/BatchNorm/batchnorm/add_1", "FeatureExtractor/MobilenetV2/expanded_conv_2/expand/Conv2D/merged_input"]}, {"attr": {"T": {"type": "DT_FLOAT"}}, "op": "Add", "name": "FeatureExtractor/MobilenetV2/expanded_conv_2/expand/BatchNorm/batchnorm/add_1", "input": ["FeatureExtractor/MobilenetV2/expanded_conv_2/expand/BatchNorm/batchnorm/mul_1", "FeatureExtractor/MobilenetV2/expanded_conv_2/expand/BatchNorm/batchnorm/sub"]}, {"attr": {"T": {"type": "DT_FLOAT"}}, "op": "Relu6", "name": "FeatureExtractor/MobilenetV2/expanded_conv_2/expand/Relu6", "input": ["FeatureExtractor/MobilenetV2/expanded_conv_2/expand/BatchNorm/batchnorm/add_1"]}, {"attr": {"dilations": {"list": {"i": ["1", "1", "1", "1"]}}, "T": {"type": "DT_FLOAT"}, "padding": {"s": "U0FNRQ=="}, "data_format": {"s": "TkhXQw=="}, "strides": {"list": {"i": ["1", "1", "1", "1"]}}}, "op": "DepthwiseConv2dNative", "name": "FeatureExtractor/MobilenetV2/expanded_conv_2/depthwise/depthwise", "input": ["FeatureExtractor/MobilenetV2/expanded_conv_2/expand/Relu6", "FeatureExtractor/MobilenetV2/expanded_conv_2/depthwise/depthwise_weights"]}, {"attr": {"T": {"type": "DT_FLOAT"}}, "op": "Mul", "name": "FeatureExtractor/MobilenetV2/expanded_conv_2/depthwise/BatchNorm/batchnorm/mul_1", "input": ["FeatureExtractor/MobilenetV2/expanded_conv_2/depthwise/depthwise", "FeatureExtractor/MobilenetV2/expanded_conv_2/depthwise/BatchNorm/batchnorm/mul"]}, {"attr": {"T": {"type": "DT_FLOAT"}}, "op": "Add", "name": "FeatureExtractor/MobilenetV2/expanded_conv_2/depthwise/BatchNorm/batchnorm/add_1", "input": ["FeatureExtractor/MobilenetV2/expanded_conv_2/depthwise/BatchNorm/batchnorm/mul_1", "FeatureExtractor/MobilenetV2/expanded_conv_2/depthwise/BatchNorm/batchnorm/sub"]}, {"attr": {"T": {"type": "DT_FLOAT"}}, "op": "Relu6", "name": "FeatureExtractor/MobilenetV2/expanded_conv_2/depthwise/Relu6", "input": ["FeatureExtractor/MobilenetV2/expanded_conv_2/depthwise/BatchNorm/batchnorm/add_1"]}, {"attr": {"padding": {"s": "U0FNRQ=="}, "strides": {"list": {"i": ["1", "1", "1", "1"]}}, "dilations": {"list": {"i": ["1", "1", "1", "1"]}}, "T": {"type": "DT_FLOAT"}, "data_format": {"s": "TkhXQw=="}, "use_cudnn_on_gpu": {"b": true}}, "op": "Conv2D", "name": "FeatureExtractor/MobilenetV2/expanded_conv_2/project/BatchNorm/batchnorm/mul_1", "input": ["FeatureExtractor/MobilenetV2/expanded_conv_2/depthwise/Relu6", "FeatureExtractor/MobilenetV2/expanded_conv_2/project/Conv2D/merged_input"]}, {"attr": {"_grappler:ArithmeticOptimizer:AddOpsRewriteStage": {"b": true}, "T": {"type": "DT_FLOAT"}, "N": {"i": "2"}}, "op": "AddN", "name": "FeatureExtractor/MobilenetV2/expanded_conv_2/ArithmeticOptimizer/AddOpsRewrite_Leaf_1_add", "input": ["FeatureExtractor/MobilenetV2/expanded_conv_2/project/BatchNorm/batchnorm/mul_1", "FeatureExtractor/MobilenetV2/expanded_conv_1/project/BatchNorm/batchnorm/add_1"]}, {"attr": {"_grappler:ArithmeticOptimizer:AddOpsRewriteStage": {"b": true}, "T": {"type": "DT_FLOAT"}}, "op": "Add", "name": "FeatureExtractor/MobilenetV2/expanded_conv_2/ArithmeticOptimizer/AddOpsRewrite_add", "input": ["FeatureExtractor/MobilenetV2/expanded_conv_2/project/BatchNorm/batchnorm/sub", "FeatureExtractor/MobilenetV2/expanded_conv_2/ArithmeticOptimizer/AddOpsRewrite_Leaf_1_add"]}, {"attr": {"padding": {"s": "U0FNRQ=="}, "strides": {"list": {"i": ["1", "1", "1", "1"]}}, "dilations": {"list": {"i": ["1", "1", "1", "1"]}}, "T": {"type": "DT_FLOAT"}, "data_format": {"s": "TkhXQw=="}, "use_cudnn_on_gpu": {"b": true}}, "op": "Conv2D", "name": "FeatureExtractor/MobilenetV2/expanded_conv_3/expand/BatchNorm/batchnorm/mul_1", "input": ["FeatureExtractor/MobilenetV2/expanded_conv_2/ArithmeticOptimizer/AddOpsRewrite_add", "FeatureExtractor/MobilenetV2/expanded_conv_3/expand/Conv2D/merged_input"]}, {"attr": {"T": {"type": "DT_FLOAT"}}, "op": "Add", "name": "FeatureExtractor/MobilenetV2/expanded_conv_3/expand/BatchNorm/batchnorm/add_1", "input": ["FeatureExtractor/MobilenetV2/expanded_conv_3/expand/BatchNorm/batchnorm/mul_1", "FeatureExtractor/MobilenetV2/expanded_conv_3/expand/BatchNorm/batchnorm/sub"]}, {"attr": {"T": {"type": "DT_FLOAT"}}, "op": "Relu6", "name": "FeatureExtractor/MobilenetV2/expanded_conv_3/expand/Relu6", "input": ["FeatureExtractor/MobilenetV2/expanded_conv_3/expand/BatchNorm/batchnorm/add_1"]}, {"attr": {"data_format": {"s": "TkhXQw=="}, "padding": {"s": "U0FNRQ=="}, "dilations": {"list": {"i": ["1", "1", "1", "1"]}}, "T": {"type": "DT_FLOAT"}, "strides": {"list": {"i": ["1", "2", "2", "1"]}}}, "op": "DepthwiseConv2dNative", "name": "FeatureExtractor/MobilenetV2/expanded_conv_3/depthwise/depthwise", "input": ["FeatureExtractor/MobilenetV2/expanded_conv_3/expand/Relu6", "FeatureExtractor/MobilenetV2/expanded_conv_3/depthwise/depthwise_weights"]}, {"attr": {"T": {"type": "DT_FLOAT"}}, "op": "Mul", "name": "FeatureExtractor/MobilenetV2/expanded_conv_3/depthwise/BatchNorm/batchnorm/mul_1", "input": ["FeatureExtractor/MobilenetV2/expanded_conv_3/depthwise/depthwise", "FeatureExtractor/MobilenetV2/expanded_conv_3/depthwise/BatchNorm/batchnorm/mul"]}, {"attr": {"T": {"type": "DT_FLOAT"}}, "op": "Add", "name": "FeatureExtractor/MobilenetV2/expanded_conv_3/depthwise/BatchNorm/batchnorm/add_1", "input": ["FeatureExtractor/MobilenetV2/expanded_conv_3/depthwise/BatchNorm/batchnorm/mul_1", "FeatureExtractor/MobilenetV2/expanded_conv_3/depthwise/BatchNorm/batchnorm/sub"]}, {"attr": {"T": {"type": "DT_FLOAT"}}, "op": "Relu6", "name": "FeatureExtractor/MobilenetV2/expanded_conv_3/depthwise/Relu6", "input": ["FeatureExtractor/MobilenetV2/expanded_conv_3/depthwise/BatchNorm/batchnorm/add_1"]}, {"attr": {"padding": {"s": "U0FNRQ=="}, "strides": {"list": {"i": ["1", "1", "1", "1"]}}, "dilations": {"list": {"i": ["1", "1", "1", "1"]}}, "T": {"type": "DT_FLOAT"}, "data_format": {"s": "TkhXQw=="}, "use_cudnn_on_gpu": {"b": true}}, "op": "Conv2D", "name": "FeatureExtractor/MobilenetV2/expanded_conv_3/project/BatchNorm/batchnorm/mul_1", "input": ["FeatureExtractor/MobilenetV2/expanded_conv_3/depthwise/Relu6", "FeatureExtractor/MobilenetV2/expanded_conv_3/project/Conv2D/merged_input"]}, {"attr": {"T": {"type": "DT_FLOAT"}}, "op": "Add", "name": "FeatureExtractor/MobilenetV2/expanded_conv_3/project/BatchNorm/batchnorm/add_1", "input": ["FeatureExtractor/MobilenetV2/expanded_conv_3/project/BatchNorm/batchnorm/mul_1", "FeatureExtractor/MobilenetV2/expanded_conv_3/project/BatchNorm/batchnorm/sub"]}, {"attr": {"padding": {"s": "U0FNRQ=="}, "strides": {"list": {"i": ["1", "1", "1", "1"]}}, "dilations": {"list": {"i": ["1", "1", "1", "1"]}}, "T": {"type": "DT_FLOAT"}, "data_format": {"s": "TkhXQw=="}, "use_cudnn_on_gpu": {"b": true}}, "op": "Conv2D", "name": "FeatureExtractor/MobilenetV2/expanded_conv_4/expand/BatchNorm/batchnorm/mul_1", "input": ["FeatureExtractor/MobilenetV2/expanded_conv_3/project/BatchNorm/batchnorm/add_1", "FeatureExtractor/MobilenetV2/expanded_conv_4/expand/Conv2D/merged_input"]}, {"attr": {"T": {"type": "DT_FLOAT"}}, "op": "Add", "name": "FeatureExtractor/MobilenetV2/expanded_conv_4/expand/BatchNorm/batchnorm/add_1", "input": ["FeatureExtractor/MobilenetV2/expanded_conv_4/expand/BatchNorm/batchnorm/mul_1", "FeatureExtractor/MobilenetV2/expanded_conv_4/expand/BatchNorm/batchnorm/sub"]}, {"attr": {"T": {"type": "DT_FLOAT"}}, "op": "Relu6", "name": "FeatureExtractor/MobilenetV2/expanded_conv_4/expand/Relu6", "input": ["FeatureExtractor/MobilenetV2/expanded_conv_4/expand/BatchNorm/batchnorm/add_1"]}, {"attr": {"dilations": {"list": {"i": ["1", "1", "1", "1"]}}, "T": {"type": "DT_FLOAT"}, "padding": {"s": "U0FNRQ=="}, "data_format": {"s": "TkhXQw=="}, "strides": {"list": {"i": ["1", "1", "1", "1"]}}}, "op": "DepthwiseConv2dNative", "name": "FeatureExtractor/MobilenetV2/expanded_conv_4/depthwise/depthwise", "input": ["FeatureExtractor/MobilenetV2/expanded_conv_4/expand/Relu6", "FeatureExtractor/MobilenetV2/expanded_conv_4/depthwise/depthwise_weights"]}, {"attr": {"T": {"type": "DT_FLOAT"}}, "op": "Mul", "name": "FeatureExtractor/MobilenetV2/expanded_conv_4/depthwise/BatchNorm/batchnorm/mul_1", "input": ["FeatureExtractor/MobilenetV2/expanded_conv_4/depthwise/depthwise", "FeatureExtractor/MobilenetV2/expanded_conv_4/depthwise/BatchNorm/batchnorm/mul"]}, {"attr": {"T": {"type": "DT_FLOAT"}}, "op": "Add", "name": "FeatureExtractor/MobilenetV2/expanded_conv_4/depthwise/BatchNorm/batchnorm/add_1", "input": ["FeatureExtractor/MobilenetV2/expanded_conv_4/depthwise/BatchNorm/batchnorm/mul_1", "FeatureExtractor/MobilenetV2/expanded_conv_4/depthwise/BatchNorm/batchnorm/sub"]}, {"attr": {"T": {"type": "DT_FLOAT"}}, "op": "Relu6", "name": "FeatureExtractor/MobilenetV2/expanded_conv_4/depthwise/Relu6", "input": ["FeatureExtractor/MobilenetV2/expanded_conv_4/depthwise/BatchNorm/batchnorm/add_1"]}, {"attr": {"padding": {"s": "U0FNRQ=="}, "strides": {"list": {"i": ["1", "1", "1", "1"]}}, "dilations": {"list": {"i": ["1", "1", "1", "1"]}}, "T": {"type": "DT_FLOAT"}, "data_format": {"s": "TkhXQw=="}, "use_cudnn_on_gpu": {"b": true}}, "op": "Conv2D", "name": "FeatureExtractor/MobilenetV2/expanded_conv_4/project/BatchNorm/batchnorm/mul_1", "input": ["FeatureExtractor/MobilenetV2/expanded_conv_4/depthwise/Relu6", "FeatureExtractor/MobilenetV2/expanded_conv_4/project/Conv2D/merged_input"]}, {"attr": {"_grappler:ArithmeticOptimizer:AddOpsRewriteStage": {"b": true}, "T": {"type": "DT_FLOAT"}, "N": {"i": "2"}}, "op": "AddN", "name": "FeatureExtractor/MobilenetV2/expanded_conv_4/ArithmeticOptimizer/AddOpsRewrite_Leaf_1_add", "input": ["FeatureExtractor/MobilenetV2/expanded_conv_4/project/BatchNorm/batchnorm/mul_1", "FeatureExtractor/MobilenetV2/expanded_conv_3/project/BatchNorm/batchnorm/add_1"]}, {"attr": {"_grappler:ArithmeticOptimizer:AddOpsRewriteStage": {"b": true}, "T": {"type": "DT_FLOAT"}}, "op": "Add", "name": "FeatureExtractor/MobilenetV2/expanded_conv_4/ArithmeticOptimizer/AddOpsRewrite_add", "input": ["FeatureExtractor/MobilenetV2/expanded_conv_4/project/BatchNorm/batchnorm/sub", "FeatureExtractor/MobilenetV2/expanded_conv_4/ArithmeticOptimizer/AddOpsRewrite_Leaf_1_add"]}, {"attr": {"padding": {"s": "U0FNRQ=="}, "strides": {"list": {"i": ["1", "1", "1", "1"]}}, "dilations": {"list": {"i": ["1", "1", "1", "1"]}}, "T": {"type": "DT_FLOAT"}, "data_format": {"s": "TkhXQw=="}, "use_cudnn_on_gpu": {"b": true}}, "op": "Conv2D", "name": "FeatureExtractor/MobilenetV2/expanded_conv_5/expand/BatchNorm/batchnorm/mul_1", "input": ["FeatureExtractor/MobilenetV2/expanded_conv_4/ArithmeticOptimizer/AddOpsRewrite_add", "FeatureExtractor/MobilenetV2/expanded_conv_5/expand/Conv2D/merged_input"]}, {"attr": {"T": {"type": "DT_FLOAT"}}, "op": "Add", "name": "FeatureExtractor/MobilenetV2/expanded_conv_5/expand/BatchNorm/batchnorm/add_1", "input": ["FeatureExtractor/MobilenetV2/expanded_conv_5/expand/BatchNorm/batchnorm/mul_1", "FeatureExtractor/MobilenetV2/expanded_conv_5/expand/BatchNorm/batchnorm/sub"]}, {"attr": {"T": {"type": "DT_FLOAT"}}, "op": "Relu6", "name": "FeatureExtractor/MobilenetV2/expanded_conv_5/expand/Relu6", "input": ["FeatureExtractor/MobilenetV2/expanded_conv_5/expand/BatchNorm/batchnorm/add_1"]}, {"attr": {"dilations": {"list": {"i": ["1", "1", "1", "1"]}}, "T": {"type": "DT_FLOAT"}, "padding": {"s": "U0FNRQ=="}, "data_format": {"s": "TkhXQw=="}, "strides": {"list": {"i": ["1", "1", "1", "1"]}}}, "op": "DepthwiseConv2dNative", "name": "FeatureExtractor/MobilenetV2/expanded_conv_5/depthwise/depthwise", "input": ["FeatureExtractor/MobilenetV2/expanded_conv_5/expand/Relu6", "FeatureExtractor/MobilenetV2/expanded_conv_5/depthwise/depthwise_weights"]}, {"attr": {"T": {"type": "DT_FLOAT"}}, "op": "Mul", "name": "FeatureExtractor/MobilenetV2/expanded_conv_5/depthwise/BatchNorm/batchnorm/mul_1", "input": ["FeatureExtractor/MobilenetV2/expanded_conv_5/depthwise/depthwise", "FeatureExtractor/MobilenetV2/expanded_conv_5/depthwise/BatchNorm/batchnorm/mul"]}, {"attr": {"T": {"type": "DT_FLOAT"}}, "op": "Add", "name": "FeatureExtractor/MobilenetV2/expanded_conv_5/depthwise/BatchNorm/batchnorm/add_1", "input": ["FeatureExtractor/MobilenetV2/expanded_conv_5/depthwise/BatchNorm/batchnorm/mul_1", "FeatureExtractor/MobilenetV2/expanded_conv_5/depthwise/BatchNorm/batchnorm/sub"]}, {"attr": {"T": {"type": "DT_FLOAT"}}, "op": "Relu6", "name": "FeatureExtractor/MobilenetV2/expanded_conv_5/depthwise/Relu6", "input": ["FeatureExtractor/MobilenetV2/expanded_conv_5/depthwise/BatchNorm/batchnorm/add_1"]}, {"attr": {"padding": {"s": "U0FNRQ=="}, "strides": {"list": {"i": ["1", "1", "1", "1"]}}, "dilations": {"list": {"i": ["1", "1", "1", "1"]}}, "T": {"type": "DT_FLOAT"}, "data_format": {"s": "TkhXQw=="}, "use_cudnn_on_gpu": {"b": true}}, "op": "Conv2D", "name": "FeatureExtractor/MobilenetV2/expanded_conv_5/project/BatchNorm/batchnorm/mul_1", "input": ["FeatureExtractor/MobilenetV2/expanded_conv_5/depthwise/Relu6", "FeatureExtractor/MobilenetV2/expanded_conv_5/project/Conv2D/merged_input"]}, {"attr": {"_grappler:ArithmeticOptimizer:AddOpsRewriteStage": {"b": true}, "T": {"type": "DT_FLOAT"}, "N": {"i": "2"}}, "op": "AddN", "name": "FeatureExtractor/MobilenetV2/expanded_conv_5/ArithmeticOptimizer/AddOpsRewrite_Leaf_1_add", "input": ["FeatureExtractor/MobilenetV2/expanded_conv_5/project/BatchNorm/batchnorm/mul_1", "FeatureExtractor/MobilenetV2/expanded_conv_4/ArithmeticOptimizer/AddOpsRewrite_add"]}, {"attr": {"_grappler:ArithmeticOptimizer:AddOpsRewriteStage": {"b": true}, "T": {"type": "DT_FLOAT"}}, "op": "Add", "name": "FeatureExtractor/MobilenetV2/expanded_conv_5/ArithmeticOptimizer/AddOpsRewrite_add", "input": ["FeatureExtractor/MobilenetV2/expanded_conv_5/project/BatchNorm/batchnorm/sub", "FeatureExtractor/MobilenetV2/expanded_conv_5/ArithmeticOptimizer/AddOpsRewrite_Leaf_1_add"]}, {"attr": {"padding": {"s": "U0FNRQ=="}, "strides": {"list": {"i": ["1", "1", "1", "1"]}}, "dilations": {"list": {"i": ["1", "1", "1", "1"]}}, "T": {"type": "DT_FLOAT"}, "data_format": {"s": "TkhXQw=="}, "use_cudnn_on_gpu": {"b": true}}, "op": "Conv2D", "name": "FeatureExtractor/MobilenetV2/expanded_conv_6/expand/BatchNorm/batchnorm/mul_1", "input": ["FeatureExtractor/MobilenetV2/expanded_conv_5/ArithmeticOptimizer/AddOpsRewrite_add", "FeatureExtractor/MobilenetV2/expanded_conv_6/expand/Conv2D/merged_input"]}, {"attr": {"T": {"type": "DT_FLOAT"}}, "op": "Add", "name": "FeatureExtractor/MobilenetV2/expanded_conv_6/expand/BatchNorm/batchnorm/add_1", "input": ["FeatureExtractor/MobilenetV2/expanded_conv_6/expand/BatchNorm/batchnorm/mul_1", "FeatureExtractor/MobilenetV2/expanded_conv_6/expand/BatchNorm/batchnorm/sub"]}, {"attr": {"T": {"type": "DT_FLOAT"}}, "op": "Relu6", "name": "FeatureExtractor/MobilenetV2/expanded_conv_6/expand/Relu6", "input": ["FeatureExtractor/MobilenetV2/expanded_conv_6/expand/BatchNorm/batchnorm/add_1"]}, {"attr": {"data_format": {"s": "TkhXQw=="}, "padding": {"s": "U0FNRQ=="}, "dilations": {"list": {"i": ["1", "1", "1", "1"]}}, "T": {"type": "DT_FLOAT"}, "strides": {"list": {"i": ["1", "2", "2", "1"]}}}, "op": "DepthwiseConv2dNative", "name": "FeatureExtractor/MobilenetV2/expanded_conv_6/depthwise/depthwise", "input": ["FeatureExtractor/MobilenetV2/expanded_conv_6/expand/Relu6", "FeatureExtractor/MobilenetV2/expanded_conv_6/depthwise/depthwise_weights"]}, {"attr": {"T": {"type": "DT_FLOAT"}}, "op": "Mul", "name": "FeatureExtractor/MobilenetV2/expanded_conv_6/depthwise/BatchNorm/batchnorm/mul_1", "input": ["FeatureExtractor/MobilenetV2/expanded_conv_6/depthwise/depthwise", "FeatureExtractor/MobilenetV2/expanded_conv_6/depthwise/BatchNorm/batchnorm/mul"]}, {"attr": {"T": {"type": "DT_FLOAT"}}, "op": "Add", "name": "FeatureExtractor/MobilenetV2/expanded_conv_6/depthwise/BatchNorm/batchnorm/add_1", "input": ["FeatureExtractor/MobilenetV2/expanded_conv_6/depthwise/BatchNorm/batchnorm/mul_1", "FeatureExtractor/MobilenetV2/expanded_conv_6/depthwise/BatchNorm/batchnorm/sub"]}, {"attr": {"T": {"type": "DT_FLOAT"}}, "op": "Relu6", "name": "FeatureExtractor/MobilenetV2/expanded_conv_6/depthwise/Relu6", "input": ["FeatureExtractor/MobilenetV2/expanded_conv_6/depthwise/BatchNorm/batchnorm/add_1"]}, {"attr": {"padding": {"s": "U0FNRQ=="}, "strides": {"list": {"i": ["1", "1", "1", "1"]}}, "dilations": {"list": {"i": ["1", "1", "1", "1"]}}, "T": {"type": "DT_FLOAT"}, "data_format": {"s": "TkhXQw=="}, "use_cudnn_on_gpu": {"b": true}}, "op": "Conv2D", "name": "FeatureExtractor/MobilenetV2/expanded_conv_6/project/BatchNorm/batchnorm/mul_1", "input": ["FeatureExtractor/MobilenetV2/expanded_conv_6/depthwise/Relu6", "FeatureExtractor/MobilenetV2/expanded_conv_6/project/Conv2D/merged_input"]}, {"attr": {"T": {"type": "DT_FLOAT"}}, "op": "Add", "name": "FeatureExtractor/MobilenetV2/expanded_conv_6/project/BatchNorm/batchnorm/add_1", "input": ["FeatureExtractor/MobilenetV2/expanded_conv_6/project/BatchNorm/batchnorm/mul_1", "FeatureExtractor/MobilenetV2/expanded_conv_6/project/BatchNorm/batchnorm/sub"]}, {"attr": {"padding": {"s": "U0FNRQ=="}, "strides": {"list": {"i": ["1", "1", "1", "1"]}}, "dilations": {"list": {"i": ["1", "1", "1", "1"]}}, "T": {"type": "DT_FLOAT"}, "data_format": {"s": "TkhXQw=="}, "use_cudnn_on_gpu": {"b": true}}, "op": "Conv2D", "name": "FeatureExtractor/MobilenetV2/expanded_conv_7/expand/BatchNorm/batchnorm/mul_1", "input": ["FeatureExtractor/MobilenetV2/expanded_conv_6/project/BatchNorm/batchnorm/add_1", "FeatureExtractor/MobilenetV2/expanded_conv_7/expand/Conv2D/merged_input"]}, {"attr": {"T": {"type": "DT_FLOAT"}}, "op": "Add", "name": "FeatureExtractor/MobilenetV2/expanded_conv_7/expand/BatchNorm/batchnorm/add_1", "input": ["FeatureExtractor/MobilenetV2/expanded_conv_7/expand/BatchNorm/batchnorm/mul_1", "FeatureExtractor/MobilenetV2/expanded_conv_7/expand/BatchNorm/batchnorm/sub"]}, {"attr": {"T": {"type": "DT_FLOAT"}}, "op": "Relu6", "name": "FeatureExtractor/MobilenetV2/expanded_conv_7/expand/Relu6", "input": ["FeatureExtractor/MobilenetV2/expanded_conv_7/expand/BatchNorm/batchnorm/add_1"]}, {"attr": {"dilations": {"list": {"i": ["1", "1", "1", "1"]}}, "T": {"type": "DT_FLOAT"}, "padding": {"s": "U0FNRQ=="}, "data_format": {"s": "TkhXQw=="}, "strides": {"list": {"i": ["1", "1", "1", "1"]}}}, "op": "DepthwiseConv2dNative", "name": "FeatureExtractor/MobilenetV2/expanded_conv_7/depthwise/depthwise", "input": ["FeatureExtractor/MobilenetV2/expanded_conv_7/expand/Relu6", "FeatureExtractor/MobilenetV2/expanded_conv_7/depthwise/depthwise_weights"]}, {"attr": {"T": {"type": "DT_FLOAT"}}, "op": "Mul", "name": "FeatureExtractor/MobilenetV2/expanded_conv_7/depthwise/BatchNorm/batchnorm/mul_1", "input": ["FeatureExtractor/MobilenetV2/expanded_conv_7/depthwise/depthwise", "FeatureExtractor/MobilenetV2/expanded_conv_7/depthwise/BatchNorm/batchnorm/mul"]}, {"attr": {"T": {"type": "DT_FLOAT"}}, "op": "Add", "name": "FeatureExtractor/MobilenetV2/expanded_conv_7/depthwise/BatchNorm/batchnorm/add_1", "input": ["FeatureExtractor/MobilenetV2/expanded_conv_7/depthwise/BatchNorm/batchnorm/mul_1", "FeatureExtractor/MobilenetV2/expanded_conv_7/depthwise/BatchNorm/batchnorm/sub"]}, {"attr": {"T": {"type": "DT_FLOAT"}}, "op": "Relu6", "name": "FeatureExtractor/MobilenetV2/expanded_conv_7/depthwise/Relu6", "input": ["FeatureExtractor/MobilenetV2/expanded_conv_7/depthwise/BatchNorm/batchnorm/add_1"]}, {"attr": {"padding": {"s": "U0FNRQ=="}, "strides": {"list": {"i": ["1", "1", "1", "1"]}}, "dilations": {"list": {"i": ["1", "1", "1", "1"]}}, "T": {"type": "DT_FLOAT"}, "data_format": {"s": "TkhXQw=="}, "use_cudnn_on_gpu": {"b": true}}, "op": "Conv2D", "name": "FeatureExtractor/MobilenetV2/expanded_conv_7/project/BatchNorm/batchnorm/mul_1", "input": ["FeatureExtractor/MobilenetV2/expanded_conv_7/depthwise/Relu6", "FeatureExtractor/MobilenetV2/expanded_conv_7/project/Conv2D/merged_input"]}, {"attr": {"_grappler:ArithmeticOptimizer:AddOpsRewriteStage": {"b": true}, "T": {"type": "DT_FLOAT"}, "N": {"i": "2"}}, "op": "AddN", "name": "FeatureExtractor/MobilenetV2/expanded_conv_7/ArithmeticOptimizer/AddOpsRewrite_Leaf_1_add", "input": ["FeatureExtractor/MobilenetV2/expanded_conv_7/project/BatchNorm/batchnorm/mul_1", "FeatureExtractor/MobilenetV2/expanded_conv_6/project/BatchNorm/batchnorm/add_1"]}, {"attr": {"_grappler:ArithmeticOptimizer:AddOpsRewriteStage": {"b": true}, "T": {"type": "DT_FLOAT"}}, "op": "Add", "name": "FeatureExtractor/MobilenetV2/expanded_conv_7/ArithmeticOptimizer/AddOpsRewrite_add", "input": ["FeatureExtractor/MobilenetV2/expanded_conv_7/project/BatchNorm/batchnorm/sub", "FeatureExtractor/MobilenetV2/expanded_conv_7/ArithmeticOptimizer/AddOpsRewrite_Leaf_1_add"]}, {"attr": {"padding": {"s": "U0FNRQ=="}, "strides": {"list": {"i": ["1", "1", "1", "1"]}}, "dilations": {"list": {"i": ["1", "1", "1", "1"]}}, "T": {"type": "DT_FLOAT"}, "data_format": {"s": "TkhXQw=="}, "use_cudnn_on_gpu": {"b": true}}, "op": "Conv2D", "name": "FeatureExtractor/MobilenetV2/expanded_conv_8/expand/BatchNorm/batchnorm/mul_1", "input": ["FeatureExtractor/MobilenetV2/expanded_conv_7/ArithmeticOptimizer/AddOpsRewrite_add", "FeatureExtractor/MobilenetV2/expanded_conv_8/expand/Conv2D/merged_input"]}, {"attr": {"T": {"type": "DT_FLOAT"}}, "op": "Add", "name": "FeatureExtractor/MobilenetV2/expanded_conv_8/expand/BatchNorm/batchnorm/add_1", "input": ["FeatureExtractor/MobilenetV2/expanded_conv_8/expand/BatchNorm/batchnorm/mul_1", "FeatureExtractor/MobilenetV2/expanded_conv_8/expand/BatchNorm/batchnorm/sub"]}, {"attr": {"T": {"type": "DT_FLOAT"}}, "op": "Relu6", "name": "FeatureExtractor/MobilenetV2/expanded_conv_8/expand/Relu6", "input": ["FeatureExtractor/MobilenetV2/expanded_conv_8/expand/BatchNorm/batchnorm/add_1"]}, {"attr": {"dilations": {"list": {"i": ["1", "1", "1", "1"]}}, "T": {"type": "DT_FLOAT"}, "padding": {"s": "U0FNRQ=="}, "data_format": {"s": "TkhXQw=="}, "strides": {"list": {"i": ["1", "1", "1", "1"]}}}, "op": "DepthwiseConv2dNative", "name": "FeatureExtractor/MobilenetV2/expanded_conv_8/depthwise/depthwise", "input": ["FeatureExtractor/MobilenetV2/expanded_conv_8/expand/Relu6", "FeatureExtractor/MobilenetV2/expanded_conv_8/depthwise/depthwise_weights"]}, {"attr": {"T": {"type": "DT_FLOAT"}}, "op": "Mul", "name": "FeatureExtractor/MobilenetV2/expanded_conv_8/depthwise/BatchNorm/batchnorm/mul_1", "input": ["FeatureExtractor/MobilenetV2/expanded_conv_8/depthwise/depthwise", "FeatureExtractor/MobilenetV2/expanded_conv_8/depthwise/BatchNorm/batchnorm/mul"]}, {"attr": {"T": {"type": "DT_FLOAT"}}, "op": "Add", "name": "FeatureExtractor/MobilenetV2/expanded_conv_8/depthwise/BatchNorm/batchnorm/add_1", "input": ["FeatureExtractor/MobilenetV2/expanded_conv_8/depthwise/BatchNorm/batchnorm/mul_1", "FeatureExtractor/MobilenetV2/expanded_conv_8/depthwise/BatchNorm/batchnorm/sub"]}, {"attr": {"T": {"type": "DT_FLOAT"}}, "op": "Relu6", "name": "FeatureExtractor/MobilenetV2/expanded_conv_8/depthwise/Relu6", "input": ["FeatureExtractor/MobilenetV2/expanded_conv_8/depthwise/BatchNorm/batchnorm/add_1"]}, {"attr": {"padding": {"s": "U0FNRQ=="}, "strides": {"list": {"i": ["1", "1", "1", "1"]}}, "dilations": {"list": {"i": ["1", "1", "1", "1"]}}, "T": {"type": "DT_FLOAT"}, "data_format": {"s": "TkhXQw=="}, "use_cudnn_on_gpu": {"b": true}}, "op": "Conv2D", "name": "FeatureExtractor/MobilenetV2/expanded_conv_8/project/BatchNorm/batchnorm/mul_1", "input": ["FeatureExtractor/MobilenetV2/expanded_conv_8/depthwise/Relu6", "FeatureExtractor/MobilenetV2/expanded_conv_8/project/Conv2D/merged_input"]}, {"attr": {"_grappler:ArithmeticOptimizer:AddOpsRewriteStage": {"b": true}, "T": {"type": "DT_FLOAT"}, "N": {"i": "2"}}, "op": "AddN", "name": "FeatureExtractor/MobilenetV2/expanded_conv_8/ArithmeticOptimizer/AddOpsRewrite_Leaf_1_add", "input": ["FeatureExtractor/MobilenetV2/expanded_conv_8/project/BatchNorm/batchnorm/mul_1", "FeatureExtractor/MobilenetV2/expanded_conv_7/ArithmeticOptimizer/AddOpsRewrite_add"]}, {"attr": {"_grappler:ArithmeticOptimizer:AddOpsRewriteStage": {"b": true}, "T": {"type": "DT_FLOAT"}}, "op": "Add", "name": "FeatureExtractor/MobilenetV2/expanded_conv_8/ArithmeticOptimizer/AddOpsRewrite_add", "input": ["FeatureExtractor/MobilenetV2/expanded_conv_8/project/BatchNorm/batchnorm/sub", "FeatureExtractor/MobilenetV2/expanded_conv_8/ArithmeticOptimizer/AddOpsRewrite_Leaf_1_add"]}, {"attr": {"padding": {"s": "U0FNRQ=="}, "strides": {"list": {"i": ["1", "1", "1", "1"]}}, "dilations": {"list": {"i": ["1", "1", "1", "1"]}}, "T": {"type": "DT_FLOAT"}, "data_format": {"s": "TkhXQw=="}, "use_cudnn_on_gpu": {"b": true}}, "op": "Conv2D", "name": "FeatureExtractor/MobilenetV2/expanded_conv_9/expand/BatchNorm/batchnorm/mul_1", "input": ["FeatureExtractor/MobilenetV2/expanded_conv_8/ArithmeticOptimizer/AddOpsRewrite_add", "FeatureExtractor/MobilenetV2/expanded_conv_9/expand/Conv2D/merged_input"]}, {"attr": {"T": {"type": "DT_FLOAT"}}, "op": "Add", "name": "FeatureExtractor/MobilenetV2/expanded_conv_9/expand/BatchNorm/batchnorm/add_1", "input": ["FeatureExtractor/MobilenetV2/expanded_conv_9/expand/BatchNorm/batchnorm/mul_1", "FeatureExtractor/MobilenetV2/expanded_conv_9/expand/BatchNorm/batchnorm/sub"]}, {"attr": {"T": {"type": "DT_FLOAT"}}, "op": "Relu6", "name": "FeatureExtractor/MobilenetV2/expanded_conv_9/expand/Relu6", "input": ["FeatureExtractor/MobilenetV2/expanded_conv_9/expand/BatchNorm/batchnorm/add_1"]}, {"attr": {"data_format": {"s": "TkhXQw=="}, "padding": {"s": "U0FNRQ=="}, "dilations": {"list": {"i": ["1", "1", "1", "1"]}}, "T": {"type": "DT_FLOAT"}, "strides": {"list": {"i": ["1", "1", "1", "1"]}}}, "op": "DepthwiseConv2dNative", "name": "FeatureExtractor/MobilenetV2/expanded_conv_9/depthwise/depthwise", "input": ["FeatureExtractor/MobilenetV2/expanded_conv_9/expand/Relu6", "FeatureExtractor/MobilenetV2/expanded_conv_9/depthwise/depthwise_weights"]}, {"attr": {"T": {"type": "DT_FLOAT"}}, "op": "Mul", "name": "FeatureExtractor/MobilenetV2/expanded_conv_9/depthwise/BatchNorm/batchnorm/mul_1", "input": ["FeatureExtractor/MobilenetV2/expanded_conv_9/depthwise/depthwise", "FeatureExtractor/MobilenetV2/expanded_conv_9/depthwise/BatchNorm/batchnorm/mul"]}, {"attr": {"T": {"type": "DT_FLOAT"}}, "op": "Add", "name": "FeatureExtractor/MobilenetV2/expanded_conv_9/depthwise/BatchNorm/batchnorm/add_1", "input": ["FeatureExtractor/MobilenetV2/expanded_conv_9/depthwise/BatchNorm/batchnorm/mul_1", "FeatureExtractor/MobilenetV2/expanded_conv_9/depthwise/BatchNorm/batchnorm/sub"]}, {"attr": {"T": {"type": "DT_FLOAT"}}, "op": "Relu6", "name": "FeatureExtractor/MobilenetV2/expanded_conv_9/depthwise/Relu6", "input": ["FeatureExtractor/MobilenetV2/expanded_conv_9/depthwise/BatchNorm/batchnorm/add_1"]}, {"attr": {"padding": {"s": "U0FNRQ=="}, "strides": {"list": {"i": ["1", "1", "1", "1"]}}, "dilations": {"list": {"i": ["1", "1", "1", "1"]}}, "T": {"type": "DT_FLOAT"}, "data_format": {"s": "TkhXQw=="}, "use_cudnn_on_gpu": {"b": true}}, "op": "Conv2D", "name": "FeatureExtractor/MobilenetV2/expanded_conv_9/project/BatchNorm/batchnorm/mul_1", "input": ["FeatureExtractor/MobilenetV2/expanded_conv_9/depthwise/Relu6", "FeatureExtractor/MobilenetV2/expanded_conv_9/project/Conv2D/merged_input"]}, {"attr": {"_grappler:ArithmeticOptimizer:AddOpsRewriteStage": {"b": true}, "T": {"type": "DT_FLOAT"}, "N": {"i": "2"}}, "op": "AddN", "name": "FeatureExtractor/MobilenetV2/expanded_conv_9/ArithmeticOptimizer/AddOpsRewrite_Leaf_1_add", "input": ["FeatureExtractor/MobilenetV2/expanded_conv_9/project/BatchNorm/batchnorm/mul_1", "FeatureExtractor/MobilenetV2/expanded_conv_8/ArithmeticOptimizer/AddOpsRewrite_add"]}, {"attr": {"_grappler:ArithmeticOptimizer:AddOpsRewriteStage": {"b": true}, "T": {"type": "DT_FLOAT"}}, "op": "Add", "name": "FeatureExtractor/MobilenetV2/expanded_conv_9/ArithmeticOptimizer/AddOpsRewrite_add", "input": ["FeatureExtractor/MobilenetV2/expanded_conv_9/project/BatchNorm/batchnorm/sub", "FeatureExtractor/MobilenetV2/expanded_conv_9/ArithmeticOptimizer/AddOpsRewrite_Leaf_1_add"]}, {"attr": {"padding": {"s": "U0FNRQ=="}, "strides": {"list": {"i": ["1", "1", "1", "1"]}}, "dilations": {"list": {"i": ["1", "1", "1", "1"]}}, "T": {"type": "DT_FLOAT"}, "data_format": {"s": "TkhXQw=="}, "use_cudnn_on_gpu": {"b": true}}, "op": "Conv2D", "name": "FeatureExtractor/MobilenetV2/expanded_conv_10/expand/BatchNorm/batchnorm/mul_1", "input": ["FeatureExtractor/MobilenetV2/expanded_conv_9/ArithmeticOptimizer/AddOpsRewrite_add", "FeatureExtractor/MobilenetV2/expanded_conv_10/expand/Conv2D/merged_input"]}, {"attr": {"T": {"type": "DT_FLOAT"}}, "op": "Add", "name": "FeatureExtractor/MobilenetV2/expanded_conv_10/expand/BatchNorm/batchnorm/add_1", "input": ["FeatureExtractor/MobilenetV2/expanded_conv_10/expand/BatchNorm/batchnorm/mul_1", "FeatureExtractor/MobilenetV2/expanded_conv_10/expand/BatchNorm/batchnorm/sub"]}, {"attr": {"T": {"type": "DT_FLOAT"}}, "op": "Relu6", "name": "FeatureExtractor/MobilenetV2/expanded_conv_10/expand/Relu6", "input": ["FeatureExtractor/MobilenetV2/expanded_conv_10/expand/BatchNorm/batchnorm/add_1"]}, {"attr": {"dilations": {"list": {"i": ["1", "1", "1", "1"]}}, "T": {"type": "DT_FLOAT"}, "padding": {"s": "U0FNRQ=="}, "data_format": {"s": "TkhXQw=="}, "strides": {"list": {"i": ["1", "1", "1", "1"]}}}, "op": "DepthwiseConv2dNative", "name": "FeatureExtractor/MobilenetV2/expanded_conv_10/depthwise/depthwise", "input": ["FeatureExtractor/MobilenetV2/expanded_conv_10/expand/Relu6", "FeatureExtractor/MobilenetV2/expanded_conv_10/depthwise/depthwise_weights"]}, {"attr": {"T": {"type": "DT_FLOAT"}}, "op": "Mul", "name": "FeatureExtractor/MobilenetV2/expanded_conv_10/depthwise/BatchNorm/batchnorm/mul_1", "input": ["FeatureExtractor/MobilenetV2/expanded_conv_10/depthwise/depthwise", "FeatureExtractor/MobilenetV2/expanded_conv_10/depthwise/BatchNorm/batchnorm/mul"]}, {"attr": {"T": {"type": "DT_FLOAT"}}, "op": "Add", "name": "FeatureExtractor/MobilenetV2/expanded_conv_10/depthwise/BatchNorm/batchnorm/add_1", "input": ["FeatureExtractor/MobilenetV2/expanded_conv_10/depthwise/BatchNorm/batchnorm/mul_1", "FeatureExtractor/MobilenetV2/expanded_conv_10/depthwise/BatchNorm/batchnorm/sub"]}, {"attr": {"T": {"type": "DT_FLOAT"}}, "op": "Relu6", "name": "FeatureExtractor/MobilenetV2/expanded_conv_10/depthwise/Relu6", "input": ["FeatureExtractor/MobilenetV2/expanded_conv_10/depthwise/BatchNorm/batchnorm/add_1"]}, {"attr": {"padding": {"s": "U0FNRQ=="}, "strides": {"list": {"i": ["1", "1", "1", "1"]}}, "dilations": {"list": {"i": ["1", "1", "1", "1"]}}, "T": {"type": "DT_FLOAT"}, "data_format": {"s": "TkhXQw=="}, "use_cudnn_on_gpu": {"b": true}}, "op": "Conv2D", "name": "FeatureExtractor/MobilenetV2/expanded_conv_10/project/BatchNorm/batchnorm/mul_1", "input": ["FeatureExtractor/MobilenetV2/expanded_conv_10/depthwise/Relu6", "FeatureExtractor/MobilenetV2/expanded_conv_10/project/Conv2D/merged_input"]}, {"attr": {"T": {"type": "DT_FLOAT"}}, "op": "Add", "name": "FeatureExtractor/MobilenetV2/expanded_conv_10/project/BatchNorm/batchnorm/add_1", "input": ["FeatureExtractor/MobilenetV2/expanded_conv_10/project/BatchNorm/batchnorm/mul_1", "FeatureExtractor/MobilenetV2/expanded_conv_10/project/BatchNorm/batchnorm/sub"]}, {"attr": {"padding": {"s": "U0FNRQ=="}, "strides": {"list": {"i": ["1", "1", "1", "1"]}}, "dilations": {"list": {"i": ["1", "1", "1", "1"]}}, "T": {"type": "DT_FLOAT"}, "data_format": {"s": "TkhXQw=="}, "use_cudnn_on_gpu": {"b": true}}, "op": "Conv2D", "name": "FeatureExtractor/MobilenetV2/expanded_conv_11/expand/BatchNorm/batchnorm/mul_1", "input": ["FeatureExtractor/MobilenetV2/expanded_conv_10/project/BatchNorm/batchnorm/add_1", "FeatureExtractor/MobilenetV2/expanded_conv_11/expand/Conv2D/merged_input"]}, {"attr": {"T": {"type": "DT_FLOAT"}}, "op": "Add", "name": "FeatureExtractor/MobilenetV2/expanded_conv_11/expand/BatchNorm/batchnorm/add_1", "input": ["FeatureExtractor/MobilenetV2/expanded_conv_11/expand/BatchNorm/batchnorm/mul_1", "FeatureExtractor/MobilenetV2/expanded_conv_11/expand/BatchNorm/batchnorm/sub"]}, {"attr": {"T": {"type": "DT_FLOAT"}}, "op": "Relu6", "name": "FeatureExtractor/MobilenetV2/expanded_conv_11/expand/Relu6", "input": ["FeatureExtractor/MobilenetV2/expanded_conv_11/expand/BatchNorm/batchnorm/add_1"]}, {"attr": {"dilations": {"list": {"i": ["1", "1", "1", "1"]}}, "T": {"type": "DT_FLOAT"}, "padding": {"s": "U0FNRQ=="}, "data_format": {"s": "TkhXQw=="}, "strides": {"list": {"i": ["1", "1", "1", "1"]}}}, "op": "DepthwiseConv2dNative", "name": "FeatureExtractor/MobilenetV2/expanded_conv_11/depthwise/depthwise", "input": ["FeatureExtractor/MobilenetV2/expanded_conv_11/expand/Relu6", "FeatureExtractor/MobilenetV2/expanded_conv_11/depthwise/depthwise_weights"]}, {"attr": {"T": {"type": "DT_FLOAT"}}, "op": "Mul", "name": "FeatureExtractor/MobilenetV2/expanded_conv_11/depthwise/BatchNorm/batchnorm/mul_1", "input": ["FeatureExtractor/MobilenetV2/expanded_conv_11/depthwise/depthwise", "FeatureExtractor/MobilenetV2/expanded_conv_11/depthwise/BatchNorm/batchnorm/mul"]}, {"attr": {"T": {"type": "DT_FLOAT"}}, "op": "Add", "name": "FeatureExtractor/MobilenetV2/expanded_conv_11/depthwise/BatchNorm/batchnorm/add_1", "input": ["FeatureExtractor/MobilenetV2/expanded_conv_11/depthwise/BatchNorm/batchnorm/mul_1", "FeatureExtractor/MobilenetV2/expanded_conv_11/depthwise/BatchNorm/batchnorm/sub"]}, {"attr": {"T": {"type": "DT_FLOAT"}}, "op": "Relu6", "name": "FeatureExtractor/MobilenetV2/expanded_conv_11/depthwise/Relu6", "input": ["FeatureExtractor/MobilenetV2/expanded_conv_11/depthwise/BatchNorm/batchnorm/add_1"]}, {"attr": {"padding": {"s": "U0FNRQ=="}, "strides": {"list": {"i": ["1", "1", "1", "1"]}}, "dilations": {"list": {"i": ["1", "1", "1", "1"]}}, "T": {"type": "DT_FLOAT"}, "data_format": {"s": "TkhXQw=="}, "use_cudnn_on_gpu": {"b": true}}, "op": "Conv2D", "name": "FeatureExtractor/MobilenetV2/expanded_conv_11/project/BatchNorm/batchnorm/mul_1", "input": ["FeatureExtractor/MobilenetV2/expanded_conv_11/depthwise/Relu6", "FeatureExtractor/MobilenetV2/expanded_conv_11/project/Conv2D/merged_input"]}, {"attr": {"_grappler:ArithmeticOptimizer:AddOpsRewriteStage": {"b": true}, "T": {"type": "DT_FLOAT"}, "N": {"i": "2"}}, "op": "AddN", "name": "FeatureExtractor/MobilenetV2/expanded_conv_11/ArithmeticOptimizer/AddOpsRewrite_Leaf_1_add", "input": ["FeatureExtractor/MobilenetV2/expanded_conv_11/project/BatchNorm/batchnorm/mul_1", "FeatureExtractor/MobilenetV2/expanded_conv_10/project/BatchNorm/batchnorm/add_1"]}, {"attr": {"_grappler:ArithmeticOptimizer:AddOpsRewriteStage": {"b": true}, "T": {"type": "DT_FLOAT"}}, "op": "Add", "name": "FeatureExtractor/MobilenetV2/expanded_conv_11/ArithmeticOptimizer/AddOpsRewrite_add", "input": ["FeatureExtractor/MobilenetV2/expanded_conv_11/project/BatchNorm/batchnorm/sub", "FeatureExtractor/MobilenetV2/expanded_conv_11/ArithmeticOptimizer/AddOpsRewrite_Leaf_1_add"]}, {"attr": {"padding": {"s": "U0FNRQ=="}, "strides": {"list": {"i": ["1", "1", "1", "1"]}}, "dilations": {"list": {"i": ["1", "1", "1", "1"]}}, "T": {"type": "DT_FLOAT"}, "data_format": {"s": "TkhXQw=="}, "use_cudnn_on_gpu": {"b": true}}, "op": "Conv2D", "name": "FeatureExtractor/MobilenetV2/expanded_conv_12/expand/BatchNorm/batchnorm/mul_1", "input": ["FeatureExtractor/MobilenetV2/expanded_conv_11/ArithmeticOptimizer/AddOpsRewrite_add", "FeatureExtractor/MobilenetV2/expanded_conv_12/expand/Conv2D/merged_input"]}, {"attr": {"T": {"type": "DT_FLOAT"}}, "op": "Add", "name": "FeatureExtractor/MobilenetV2/expanded_conv_12/expand/BatchNorm/batchnorm/add_1", "input": ["FeatureExtractor/MobilenetV2/expanded_conv_12/expand/BatchNorm/batchnorm/mul_1", "FeatureExtractor/MobilenetV2/expanded_conv_12/expand/BatchNorm/batchnorm/sub"]}, {"attr": {"T": {"type": "DT_FLOAT"}}, "op": "Relu6", "name": "FeatureExtractor/MobilenetV2/expanded_conv_12/expand/Relu6", "input": ["FeatureExtractor/MobilenetV2/expanded_conv_12/expand/BatchNorm/batchnorm/add_1"]}, {"attr": {"dilations": {"list": {"i": ["1", "1", "1", "1"]}}, "T": {"type": "DT_FLOAT"}, "padding": {"s": "U0FNRQ=="}, "data_format": {"s": "TkhXQw=="}, "strides": {"list": {"i": ["1", "1", "1", "1"]}}}, "op": "DepthwiseConv2dNative", "name": "FeatureExtractor/MobilenetV2/expanded_conv_12/depthwise/depthwise", "input": ["FeatureExtractor/MobilenetV2/expanded_conv_12/expand/Relu6", "FeatureExtractor/MobilenetV2/expanded_conv_12/depthwise/depthwise_weights"]}, {"attr": {"T": {"type": "DT_FLOAT"}}, "op": "Mul", "name": "FeatureExtractor/MobilenetV2/expanded_conv_12/depthwise/BatchNorm/batchnorm/mul_1", "input": ["FeatureExtractor/MobilenetV2/expanded_conv_12/depthwise/depthwise", "FeatureExtractor/MobilenetV2/expanded_conv_12/depthwise/BatchNorm/batchnorm/mul"]}, {"attr": {"T": {"type": "DT_FLOAT"}}, "op": "Add", "name": "FeatureExtractor/MobilenetV2/expanded_conv_12/depthwise/BatchNorm/batchnorm/add_1", "input": ["FeatureExtractor/MobilenetV2/expanded_conv_12/depthwise/BatchNorm/batchnorm/mul_1", "FeatureExtractor/MobilenetV2/expanded_conv_12/depthwise/BatchNorm/batchnorm/sub"]}, {"attr": {"T": {"type": "DT_FLOAT"}}, "op": "Relu6", "name": "FeatureExtractor/MobilenetV2/expanded_conv_12/depthwise/Relu6", "input": ["FeatureExtractor/MobilenetV2/expanded_conv_12/depthwise/BatchNorm/batchnorm/add_1"]}, {"attr": {"padding": {"s": "U0FNRQ=="}, "strides": {"list": {"i": ["1", "1", "1", "1"]}}, "dilations": {"list": {"i": ["1", "1", "1", "1"]}}, "T": {"type": "DT_FLOAT"}, "data_format": {"s": "TkhXQw=="}, "use_cudnn_on_gpu": {"b": true}}, "op": "Conv2D", "name": "FeatureExtractor/MobilenetV2/expanded_conv_12/project/BatchNorm/batchnorm/mul_1", "input": ["FeatureExtractor/MobilenetV2/expanded_conv_12/depthwise/Relu6", "FeatureExtractor/MobilenetV2/expanded_conv_12/project/Conv2D/merged_input"]}, {"attr": {"_grappler:ArithmeticOptimizer:AddOpsRewriteStage": {"b": true}, "T": {"type": "DT_FLOAT"}, "N": {"i": "2"}}, "op": "AddN", "name": "FeatureExtractor/MobilenetV2/expanded_conv_12/ArithmeticOptimizer/AddOpsRewrite_Leaf_1_add", "input": ["FeatureExtractor/MobilenetV2/expanded_conv_12/project/BatchNorm/batchnorm/mul_1", "FeatureExtractor/MobilenetV2/expanded_conv_11/ArithmeticOptimizer/AddOpsRewrite_add"]}, {"attr": {"_grappler:ArithmeticOptimizer:AddOpsRewriteStage": {"b": true}, "T": {"type": "DT_FLOAT"}}, "op": "Add", "name": "FeatureExtractor/MobilenetV2/expanded_conv_12/ArithmeticOptimizer/AddOpsRewrite_add", "input": ["FeatureExtractor/MobilenetV2/expanded_conv_12/project/BatchNorm/batchnorm/sub", "FeatureExtractor/MobilenetV2/expanded_conv_12/ArithmeticOptimizer/AddOpsRewrite_Leaf_1_add"]}, {"attr": {"padding": {"s": "U0FNRQ=="}, "strides": {"list": {"i": ["1", "1", "1", "1"]}}, "dilations": {"list": {"i": ["1", "1", "1", "1"]}}, "T": {"type": "DT_FLOAT"}, "data_format": {"s": "TkhXQw=="}, "use_cudnn_on_gpu": {"b": true}}, "op": "Conv2D", "name": "FeatureExtractor/MobilenetV2/expanded_conv_13/expand/BatchNorm/batchnorm/mul_1", "input": ["FeatureExtractor/MobilenetV2/expanded_conv_12/ArithmeticOptimizer/AddOpsRewrite_add", "FeatureExtractor/MobilenetV2/expanded_conv_13/expand/Conv2D/merged_input"]}, {"attr": {"T": {"type": "DT_FLOAT"}}, "op": "Add", "name": "FeatureExtractor/MobilenetV2/expanded_conv_13/expand/BatchNorm/batchnorm/add_1", "input": ["FeatureExtractor/MobilenetV2/expanded_conv_13/expand/BatchNorm/batchnorm/mul_1", "FeatureExtractor/MobilenetV2/expanded_conv_13/expand/BatchNorm/batchnorm/sub"]}, {"attr": {"T": {"type": "DT_FLOAT"}}, "op": "Relu6", "name": "FeatureExtractor/MobilenetV2/expanded_conv_13/expand/Relu6", "input": ["FeatureExtractor/MobilenetV2/expanded_conv_13/expand/BatchNorm/batchnorm/add_1"]}, {"attr": {"dilations": {"list": {"i": ["1", "1", "1", "1"]}}, "T": {"type": "DT_FLOAT"}, "padding": {"s": "U0FNRQ=="}, "data_format": {"s": "TkhXQw=="}, "strides": {"list": {"i": ["1", "1", "1", "1"]}}}, "op": "DepthwiseConv2dNative", "name": "BoxPredictor_0/BoxEncodingPredictor_depthwise/depthwise", "input": ["FeatureExtractor/MobilenetV2/expanded_conv_13/expand/Relu6", "BoxPredictor_0/BoxEncodingPredictor_depthwise/depthwise_weights"]}, {"attr": {"dilations": {"list": {"i": ["1", "1", "1", "1"]}}, "T": {"type": "DT_FLOAT"}, "padding": {"s": "U0FNRQ=="}, "data_format": {"s": "TkhXQw=="}, "strides": {"list": {"i": ["1", "1", "1", "1"]}}}, "op": "DepthwiseConv2dNative", "name": "BoxPredictor_0/ClassPredictor_depthwise/depthwise", "input": ["FeatureExtractor/MobilenetV2/expanded_conv_13/expand/Relu6", "BoxPredictor_0/ClassPredictor_depthwise/depthwise_weights"]}, {"attr": {"T": {"type": "DT_FLOAT"}, "out_type": {"type": "DT_INT32"}}, "op": "Shape", "name": "BoxPredictor_0/Shape", "input": ["FeatureExtractor/MobilenetV2/expanded_conv_13/expand/Relu6"]}, {"attr": {"dilations": {"list": {"i": ["1", "1", "1", "1"]}}, "T": {"type": "DT_FLOAT"}, "padding": {"s": "U0FNRQ=="}, "data_format": {"s": "TkhXQw=="}, "strides": {"list": {"i": ["1", "2", "2", "1"]}}}, "op": "DepthwiseConv2dNative", "name": "FeatureExtractor/MobilenetV2/expanded_conv_13/depthwise/depthwise", "input": ["FeatureExtractor/MobilenetV2/expanded_conv_13/expand/Relu6", "FeatureExtractor/MobilenetV2/expanded_conv_13/depthwise/depthwise_weights"]}, {"attr": {"T": {"type": "DT_FLOAT"}}, "op": "Mul", "name": "BoxPredictor_0/BoxEncodingPredictor_depthwise/BatchNorm/FusedBatchNorm/Mul", "input": ["BoxPredictor_0/BoxEncodingPredictor_depthwise/depthwise", "BoxPredictor_0/BoxEncodingPredictor_depthwise/BatchNorm/FusedBatchNorm/Scaled"]}, {"attr": {"T": {"type": "DT_FLOAT"}}, "op": "Mul", "name": "BoxPredictor_0/ClassPredictor_depthwise/BatchNorm/FusedBatchNorm/Mul", "input": ["BoxPredictor_0/ClassPredictor_depthwise/depthwise", "BoxPredictor_0/ClassPredictor_depthwise/BatchNorm/FusedBatchNorm/Scaled"]}, {"attr": {"end_mask": {"i": "0"}, "begin_mask": {"i": "0"}, "ellipsis_mask": {"i": "0"}, "Index": {"type": "DT_INT32"}, "T": {"type": "DT_INT32"}, "shrink_axis_mask": {"i": "1"}, "new_axis_mask": {"i": "0"}}, "op": "StridedSlice", "name": "BoxPredictor_0/strided_slice", "input": ["BoxPredictor_0/Shape", "Postprocessor/strided_slice/stack", "Postprocessor/strided_slice/stack_1", "Postprocessor/strided_slice/stack_1"]}, {"attr": {"T": {"type": "DT_FLOAT"}}, "op": "Mul", "name": "FeatureExtractor/MobilenetV2/expanded_conv_13/depthwise/BatchNorm/batchnorm/mul_1", "input": ["FeatureExtractor/MobilenetV2/expanded_conv_13/depthwise/depthwise", "FeatureExtractor/MobilenetV2/expanded_conv_13/depthwise/BatchNorm/batchnorm/mul"]}, {"attr": {"T": {"type": "DT_FLOAT"}}, "op": "Add", "name": "BoxPredictor_0/BoxEncodingPredictor_depthwise/BatchNorm/FusedBatchNorm", "input": ["BoxPredictor_0/BoxEncodingPredictor_depthwise/BatchNorm/FusedBatchNorm/Mul", "BoxPredictor_0/BoxEncodingPredictor_depthwise/BatchNorm/FusedBatchNorm/Offset"]}, {"attr": {"T": {"type": "DT_FLOAT"}}, "op": "Add", "name": "BoxPredictor_0/ClassPredictor_depthwise/BatchNorm/FusedBatchNorm", "input": ["BoxPredictor_0/ClassPredictor_depthwise/BatchNorm/FusedBatchNorm/Mul", "BoxPredictor_0/ClassPredictor_depthwise/BatchNorm/FusedBatchNorm/Offset"]}, {"attr": {"T": {"type": "DT_INT32"}, "N": {"i": "4"}, "axis": {"i": "0"}}, "op": "Pack", "name": "BoxPredictor_0/stack", "input": ["BoxPredictor_0/strided_slice", "BoxPredictor_0/stack/1", "Postprocessor/Tile/multiples/1", "BoxPredictor_0/stack/3"]}, {"attr": {"T": {"type": "DT_INT32"}, "N": {"i": "3"}, "axis": {"i": "0"}}, "op": "Pack", "name": "BoxPredictor_0/stack_1", "input": ["BoxPredictor_0/strided_slice", "BoxPredictor_0/stack/1", "BoxPredictor_0/stack_1/2"]}, {"attr": {"T": {"type": "DT_FLOAT"}}, "op": "Add", "name": "FeatureExtractor/MobilenetV2/expanded_conv_13/depthwise/BatchNorm/batchnorm/add_1", "input": ["FeatureExtractor/MobilenetV2/expanded_conv_13/depthwise/BatchNorm/batchnorm/mul_1", "FeatureExtractor/MobilenetV2/expanded_conv_13/depthwise/BatchNorm/batchnorm/sub"]}, {"attr": {"T": {"type": "DT_FLOAT"}}, "op": "Relu6", "name": "BoxPredictor_0/BoxEncodingPredictor_depthwise/Relu6", "input": ["BoxPredictor_0/BoxEncodingPredictor_depthwise/BatchNorm/FusedBatchNorm"]}, {"attr": {"T": {"type": "DT_FLOAT"}}, "op": "Relu6", "name": "BoxPredictor_0/ClassPredictor_depthwise/Relu6", "input": ["BoxPredictor_0/ClassPredictor_depthwise/BatchNorm/FusedBatchNorm"]}, {"attr": {"T": {"type": "DT_FLOAT"}}, "op": "Relu6", "name": "FeatureExtractor/MobilenetV2/expanded_conv_13/depthwise/Relu6", "input": ["FeatureExtractor/MobilenetV2/expanded_conv_13/depthwise/BatchNorm/batchnorm/add_1"]}, {"attr": {"padding": {"s": "U0FNRQ=="}, "strides": {"list": {"i": ["1", "1", "1", "1"]}}, "dilations": {"list": {"i": ["1", "1", "1", "1"]}}, "T": {"type": "DT_FLOAT"}, "data_format": {"s": "TkhXQw=="}, "use_cudnn_on_gpu": {"b": true}}, "op": "Conv2D", "name": "BoxPredictor_0/BoxEncodingPredictor/Conv2D", "input": ["BoxPredictor_0/BoxEncodingPredictor_depthwise/Relu6", "BoxPredictor_0/BoxEncodingPredictor/weights"]}, {"attr": {"padding": {"s": "U0FNRQ=="}, "strides": {"list": {"i": ["1", "1", "1", "1"]}}, "dilations": {"list": {"i": ["1", "1", "1", "1"]}}, "T": {"type": "DT_FLOAT"}, "data_format": {"s": "TkhXQw=="}, "use_cudnn_on_gpu": {"b": true}}, "op": "Conv2D", "name": "BoxPredictor_0/ClassPredictor/Conv2D", "input": ["BoxPredictor_0/ClassPredictor_depthwise/Relu6", "BoxPredictor_0/ClassPredictor/weights"]}, {"attr": {"padding": {"s": "U0FNRQ=="}, "strides": {"list": {"i": ["1", "1", "1", "1"]}}, "dilations": {"list": {"i": ["1", "1", "1", "1"]}}, "T": {"type": "DT_FLOAT"}, "data_format": {"s": "TkhXQw=="}, "use_cudnn_on_gpu": {"b": true}}, "op": "Conv2D", "name": "FeatureExtractor/MobilenetV2/expanded_conv_13/project/BatchNorm/batchnorm/mul_1", "input": ["FeatureExtractor/MobilenetV2/expanded_conv_13/depthwise/Relu6", "FeatureExtractor/MobilenetV2/expanded_conv_13/project/Conv2D/merged_input"]}, {"attr": {"T": {"type": "DT_FLOAT"}, "data_format": {"s": "TkhXQw=="}}, "op": "BiasAdd", "name": "BoxPredictor_0/BoxEncodingPredictor/BiasAdd", "input": ["BoxPredictor_0/BoxEncodingPredictor/Conv2D", "BoxPredictor_0/BoxEncodingPredictor/biases"]}, {"attr": {"T": {"type": "DT_FLOAT"}, "data_format": {"s": "TkhXQw=="}}, "op": "BiasAdd", "name": "BoxPredictor_0/ClassPredictor/BiasAdd", "input": ["BoxPredictor_0/ClassPredictor/Conv2D", "BoxPredictor_0/ClassPredictor/biases"]}, {"attr": {"T": {"type": "DT_FLOAT"}}, "op": "Add", "name": "FeatureExtractor/MobilenetV2/expanded_conv_13/project/BatchNorm/batchnorm/add_1", "input": ["FeatureExtractor/MobilenetV2/expanded_conv_13/project/BatchNorm/batchnorm/mul_1", "FeatureExtractor/MobilenetV2/expanded_conv_13/project/BatchNorm/batchnorm/sub"]}, {"attr": {"Tshape": {"type": "DT_INT32"}, "T": {"type": "DT_FLOAT"}}, "op": "Reshape", "name": "BoxPredictor_0/Reshape", "input": ["BoxPredictor_0/BoxEncodingPredictor/BiasAdd", "BoxPredictor_0/stack"]}, {"attr": {"Tshape": {"type": "DT_INT32"}, "T": {"type": "DT_FLOAT"}}, "op": "Reshape", "name": "BoxPredictor_0/Reshape_1", "input": ["BoxPredictor_0/ClassPredictor/BiasAdd", "BoxPredictor_0/stack_1"]}, {"attr": {"padding": {"s": "U0FNRQ=="}, "strides": {"list": {"i": ["1", "1", "1", "1"]}}, "dilations": {"list": {"i": ["1", "1", "1", "1"]}}, "T": {"type": "DT_FLOAT"}, "data_format": {"s": "TkhXQw=="}, "use_cudnn_on_gpu": {"b": true}}, "op": "Conv2D", "name": "FeatureExtractor/MobilenetV2/expanded_conv_14/expand/BatchNorm/batchnorm/mul_1", "input": ["FeatureExtractor/MobilenetV2/expanded_conv_13/project/BatchNorm/batchnorm/add_1", "FeatureExtractor/MobilenetV2/expanded_conv_14/expand/Conv2D/merged_input"]}, {"attr": {"T": {"type": "DT_FLOAT"}}, "op": "Add", "name": "FeatureExtractor/MobilenetV2/expanded_conv_14/expand/BatchNorm/batchnorm/add_1", "input": ["FeatureExtractor/MobilenetV2/expanded_conv_14/expand/BatchNorm/batchnorm/mul_1", "FeatureExtractor/MobilenetV2/expanded_conv_14/expand/BatchNorm/batchnorm/sub"]}, {"attr": {"T": {"type": "DT_FLOAT"}}, "op": "Relu6", "name": "FeatureExtractor/MobilenetV2/expanded_conv_14/expand/Relu6", "input": ["FeatureExtractor/MobilenetV2/expanded_conv_14/expand/BatchNorm/batchnorm/add_1"]}, {"attr": {"data_format": {"s": "TkhXQw=="}, "padding": {"s": "U0FNRQ=="}, "dilations": {"list": {"i": ["1", "1", "1", "1"]}}, "T": {"type": "DT_FLOAT"}, "strides": {"list": {"i": ["1", "1", "1", "1"]}}}, "op": "DepthwiseConv2dNative", "name": "FeatureExtractor/MobilenetV2/expanded_conv_14/depthwise/depthwise", "input": ["FeatureExtractor/MobilenetV2/expanded_conv_14/expand/Relu6", "FeatureExtractor/MobilenetV2/expanded_conv_14/depthwise/depthwise_weights"]}, {"attr": {"T": {"type": "DT_FLOAT"}}, "op": "Mul", "name": "FeatureExtractor/MobilenetV2/expanded_conv_14/depthwise/BatchNorm/batchnorm/mul_1", "input": ["FeatureExtractor/MobilenetV2/expanded_conv_14/depthwise/depthwise", "FeatureExtractor/MobilenetV2/expanded_conv_14/depthwise/BatchNorm/batchnorm/mul"]}, {"attr": {"T": {"type": "DT_FLOAT"}}, "op": "Add", "name": "FeatureExtractor/MobilenetV2/expanded_conv_14/depthwise/BatchNorm/batchnorm/add_1", "input": ["FeatureExtractor/MobilenetV2/expanded_conv_14/depthwise/BatchNorm/batchnorm/mul_1", "FeatureExtractor/MobilenetV2/expanded_conv_14/depthwise/BatchNorm/batchnorm/sub"]}, {"attr": {"T": {"type": "DT_FLOAT"}}, "op": "Relu6", "name": "FeatureExtractor/MobilenetV2/expanded_conv_14/depthwise/Relu6", "input": ["FeatureExtractor/MobilenetV2/expanded_conv_14/depthwise/BatchNorm/batchnorm/add_1"]}, {"attr": {"padding": {"s": "U0FNRQ=="}, "strides": {"list": {"i": ["1", "1", "1", "1"]}}, "dilations": {"list": {"i": ["1", "1", "1", "1"]}}, "T": {"type": "DT_FLOAT"}, "data_format": {"s": "TkhXQw=="}, "use_cudnn_on_gpu": {"b": true}}, "op": "Conv2D", "name": "FeatureExtractor/MobilenetV2/expanded_conv_14/project/BatchNorm/batchnorm/mul_1", "input": ["FeatureExtractor/MobilenetV2/expanded_conv_14/depthwise/Relu6", "FeatureExtractor/MobilenetV2/expanded_conv_14/project/Conv2D/merged_input"]}, {"attr": {"_grappler:ArithmeticOptimizer:AddOpsRewriteStage": {"b": true}, "T": {"type": "DT_FLOAT"}, "N": {"i": "2"}}, "op": "AddN", "name": "FeatureExtractor/MobilenetV2/expanded_conv_14/ArithmeticOptimizer/AddOpsRewrite_Leaf_1_add", "input": ["FeatureExtractor/MobilenetV2/expanded_conv_14/project/BatchNorm/batchnorm/mul_1", "FeatureExtractor/MobilenetV2/expanded_conv_13/project/BatchNorm/batchnorm/add_1"]}, {"attr": {"_grappler:ArithmeticOptimizer:AddOpsRewriteStage": {"b": true}, "T": {"type": "DT_FLOAT"}}, "op": "Add", "name": "FeatureExtractor/MobilenetV2/expanded_conv_14/ArithmeticOptimizer/AddOpsRewrite_add", "input": ["FeatureExtractor/MobilenetV2/expanded_conv_14/project/BatchNorm/batchnorm/sub", "FeatureExtractor/MobilenetV2/expanded_conv_14/ArithmeticOptimizer/AddOpsRewrite_Leaf_1_add"]}, {"attr": {"padding": {"s": "U0FNRQ=="}, "strides": {"list": {"i": ["1", "1", "1", "1"]}}, "dilations…
"i": ["1", "1", "1", "1"]}}, "T": {"type": "DT_FLOAT"}, "strides": {"list": {"i": ["1", "1", "1", "1"]}}}, "op": "DepthwiseConv2dNative", "name": "BoxPredictor_1/BoxEncodingPredictor_depthwise/depthwise", "input": ["FeatureExtractor/MobilenetV2/Conv_1/Relu6", "BoxPredictor_1/BoxEncodingPredictor_depthwise/depthwise_weights"]}, {"attr": {"data_format": {"s": "TkhXQw=="}, "padding": {"s": "U0FNRQ=="}, "dilations": {"list": {"i": ["1", "1", "1", "1"]}}, "T": {"type": "DT_FLOAT"}, "strides": {"list": {"i": ["1", "1", "1", "1"]}}}, "op": "DepthwiseConv2dNative", "name": "BoxPredictor_1/ClassPredictor_depthwise/depthwise", "input": ["FeatureExtractor/MobilenetV2/Conv_1/Relu6", "BoxPredictor_1/ClassPredictor_depthwise/depthwise_weights"]}, {"attr": {"T": {"type": "DT_FLOAT"}, "out_type": {"type": "DT_INT32"}}, "op": "Shape", "name": "BoxPredictor_1/Shape", "input": ["FeatureExtractor/MobilenetV2/Conv_1/Relu6"]}, {"attr": {"padding": {"s": "U0FNRQ=="}, "strides": {"list": {"i": ["1", "1", "1", "1"]}}, "dilations": {"list": {"i": ["1", "1", "1", "1"]}}, "T": {"type": "DT_FLOAT"}, "data_format": {"s": "TkhXQw=="}, "use_cudnn_on_gpu": {"b": true}}, "op": "Conv2D", "name": "FeatureExtractor/MobilenetV2/layer_19_1_Conv2d_2_1x1_256/BatchNorm/batchnorm/mul_1", "input": ["FeatureExtractor/MobilenetV2/Conv_1/Relu6", "FeatureExtractor/MobilenetV2/layer_19_1_Conv2d_2_1x1_256/Conv2D/merged_input"]}, {"attr": {"T": {"type": "DT_FLOAT"}}, "op": "Mul", "name": "BoxPredictor_1/BoxEncodingPredictor_depthwise/BatchNorm/FusedBatchNorm/Mul", "input": ["BoxPredictor_1/BoxEncodingPredictor_depthwise/depthwise", "BoxPredictor_1/BoxEncodingPredictor_depthwise/BatchNorm/FusedBatchNorm/Scaled"]}, {"attr": {"T": {"type": "DT_FLOAT"}}, "op": "Mul", "name": "BoxPredictor_1/ClassPredictor_depthwise/BatchNorm/FusedBatchNorm/Mul", "input": ["BoxPredictor_1/ClassPredictor_depthwise/depthwise", "BoxPredictor_1/ClassPredictor_depthwise/BatchNorm/FusedBatchNorm/Scaled"]}, {"attr": {"end_mask": {"i": "0"}, "begin_mask": {"i": "0"}, "ellipsis_mask": {"i": "0"}, "Index": {"type": "DT_INT32"}, "T": {"type": "DT_INT32"}, "shrink_axis_mask": {"i": "1"}, "new_axis_mask": {"i": "0"}}, "op": "StridedSlice", "name": "BoxPredictor_1/strided_slice", "input": ["BoxPredictor_1/Shape", "Postprocessor/strided_slice/stack", "Postprocessor/strided_slice/stack_1", "Postprocessor/strided_slice/stack_1"]}, {"attr": {"T": {"type": "DT_FLOAT"}}, "op": "Add", "name": "FeatureExtractor/MobilenetV2/layer_19_1_Conv2d_2_1x1_256/BatchNorm/batchnorm/add_1", "input": ["FeatureExtractor/MobilenetV2/layer_19_1_Conv2d_2_1x1_256/BatchNorm/batchnorm/mul_1", "FeatureExtractor/MobilenetV2/layer_19_1_Conv2d_2_1x1_256/BatchNorm/batchnorm/sub"]}, {"attr": {"T": {"type": "DT_FLOAT"}}, "op": "Add", "name": "BoxPredictor_1/BoxEncodingPredictor_depthwise/BatchNorm/FusedBatchNorm", "input": ["BoxPredictor_1/BoxEncodingPredictor_depthwise/BatchNorm/FusedBatchNorm/Mul", "BoxPredictor_1/BoxEncodingPredictor_depthwise/BatchNorm/FusedBatchNorm/Offset"]}, {"attr": {"T": {"type": "DT_FLOAT"}}, "op": "Add", "name": "BoxPredictor_1/ClassPredictor_depthwise/BatchNorm/FusedBatchNorm", "input": ["BoxPredictor_1/ClassPredictor_depthwise/BatchNorm/FusedBatchNorm/Mul", "BoxPredictor_1/ClassPredictor_depthwise/BatchNorm/FusedBatchNorm/Offset"]}, {"attr": {"T": {"type": "DT_INT32"}, "N": {"i": "4"}, "axis": {"i": "0"}}, "op": "Pack", "name": "BoxPredictor_1/stack", "input": ["BoxPredictor_1/strided_slice", "BoxPredictor_1/stack/1", "Postprocessor/Tile/multiples/1", "BoxPredictor_0/stack/3"]}, {"attr": {"T": {"type": "DT_INT32"}, "N": {"i": "3"}, "axis": {"i": "0"}}, "op": "Pack", "name": "BoxPredictor_1/stack_1", "input": ["BoxPredictor_1/strided_slice", "BoxPredictor_1/stack/1", "BoxPredictor_0/stack_1/2"]}, {"attr": {"T": {"type": "DT_FLOAT"}}, "op": "Relu6", "name": "FeatureExtractor/MobilenetV2/layer_19_1_Conv2d_2_1x1_256/Relu6", "input": ["FeatureExtractor/MobilenetV2/layer_19_1_Conv2d_2_1x1_256/BatchNorm/batchnorm/add_1"]}, {"attr": {"T": {"type": "DT_FLOAT"}}, "op": "Relu6", "name": "BoxPredictor_1/BoxEncodingPredictor_depthwise/Relu6", "input": ["BoxPredictor_1/BoxEncodingPredictor_depthwise/BatchNorm/FusedBatchNorm"]}, {"attr": {"T": {"type": "DT_FLOAT"}}, "op": "Relu6", "name": "BoxPredictor_1/ClassPredictor_depthwise/Relu6", "input": ["BoxPredictor_1/ClassPredictor_depthwise/BatchNorm/FusedBatchNorm"]}, {"attr": {"dilations": {"list": {"i": ["1", "1", "1", "1"]}}, "T": {"type": "DT_FLOAT"}, "padding": {"s": "U0FNRQ=="}, "data_format": {"s": "TkhXQw=="}, "strides": {"list": {"i": ["1", "2", "2", "1"]}}}, "op": "DepthwiseConv2dNative", "name": "FeatureExtractor/MobilenetV2/layer_19_2_Conv2d_2_3x3_s2_512_depthwise/depthwise", "input": ["FeatureExtractor/MobilenetV2/layer_19_1_Conv2d_2_1x1_256/Relu6", "FeatureExtractor/MobilenetV2/layer_19_2_Conv2d_2_3x3_s2_512_depthwise/depthwise_weights"]}, {"attr": {"padding": {"s": "U0FNRQ=="}, "strides": {"list": {"i": ["1", "1", "1", "1"]}}, "dilations": {"list": {"i": ["1", "1", "1", "1"]}}, "T": {"type": "DT_FLOAT"}, "data_format": {"s": "TkhXQw=="}, "use_cudnn_on_gpu": {"b": true}}, "op": "Conv2D", "name": "BoxPredictor_1/BoxEncodingPredictor/Conv2D", "input": ["BoxPredictor_1/BoxEncodingPredictor_depthwise/Relu6", "BoxPredictor_1/BoxEncodingPredictor/weights"]}, {"attr": {"padding": {"s": "U0FNRQ=="}, "strides": {"list": {"i": ["1", "1", "1", "1"]}}, "dilations": {"list": {"i": ["1", "1", "1", "1"]}}, "T": {"type": "DT_FLOAT"}, "data_format": {"s": "TkhXQw=="}, "use_cudnn_on_gpu": {"b": true}}, "op": "Conv2D", "name": "BoxPredictor_1/ClassPredictor/Conv2D", "input": ["BoxPredictor_1/ClassPredictor_depthwise/Relu6", "BoxPredictor_1/ClassPredictor/weights"]}, {"attr": {"T": {"type": "DT_FLOAT"}}, "op": "Mul", "name": "FeatureExtractor/MobilenetV2/layer_19_2_Conv2d_2_3x3_s2_512_depthwise/BatchNorm/batchnorm/mul_1", "input": ["FeatureExtractor/MobilenetV2/layer_19_2_Conv2d_2_3x3_s2_512_depthwise/depthwise", "FeatureExtractor/MobilenetV2/layer_19_2_Conv2d_2_3x3_s2_512_depthwise/BatchNorm/batchnorm/mul"]}, {"attr": {"T": {"type": "DT_FLOAT"}, "data_format": {"s": "TkhXQw=="}}, "op": "BiasAdd", "name": "BoxPredictor_1/BoxEncodingPredictor/BiasAdd", "input": ["BoxPredictor_1/BoxEncodingPredictor/Conv2D", "BoxPredictor_1/BoxEncodingPredictor/biases"]}, {"attr": {"T": {"type": "DT_FLOAT"}, "data_format": {"s": "TkhXQw=="}}, "op": "BiasAdd", "name": "BoxPredictor_1/ClassPredictor/BiasAdd", "input": ["BoxPredictor_1/ClassPredictor/Conv2D", "BoxPredictor_1/ClassPredictor/biases"]}, {"attr": {"T": {"type": "DT_FLOAT"}}, "op": "Add", "name": "FeatureExtractor/MobilenetV2/layer_19_2_Conv2d_2_3x3_s2_512_depthwise/BatchNorm/batchnorm/add_1", "input": ["FeatureExtractor/MobilenetV2/layer_19_2_Conv2d_2_3x3_s2_512_depthwise/BatchNorm/batchnorm/mul_1", "FeatureExtractor/MobilenetV2/layer_19_2_Conv2d_2_3x3_s2_512_depthwise/BatchNorm/batchnorm/sub"]}, {"attr": {"Tshape": {"type": "DT_INT32"}, "T": {"type": "DT_FLOAT"}}, "op": "Reshape", "name": "BoxPredictor_1/Reshape", "input": ["BoxPredictor_1/BoxEncodingPredictor/BiasAdd", "BoxPredictor_1/stack"]}, {"attr": {"Tshape": {"type": "DT_INT32"}, "T": {"type": "DT_FLOAT"}}, "op": "Reshape", "name": "BoxPredictor_1/Reshape_1", "input": ["BoxPredictor_1/ClassPredictor/BiasAdd", "BoxPredictor_1/stack_1"]}, {"attr": {"T": {"type": "DT_FLOAT"}}, "op": "Relu6", "name": "FeatureExtractor/MobilenetV2/layer_19_2_Conv2d_2_3x3_s2_512_depthwise/Relu6", "input": ["FeatureExtractor/MobilenetV2/layer_19_2_Conv2d_2_3x3_s2_512_depthwise/BatchNorm/batchnorm/add_1"]}, {"attr": {"padding": {"s": "U0FNRQ=="}, "strides": {"list": {"i": ["1", "1", "1", "1"]}}, "dilations": {"list": {"i": ["1", "1", "1", "1"]}}, "T": {"type": "DT_FLOAT"}, "data_format": {"s": "TkhXQw=="}, "use_cudnn_on_gpu": {"b": true}}, "op": "Conv2D", "name": "FeatureExtractor/MobilenetV2/layer_19_2_Conv2d_2_3x3_s2_512/BatchNorm/batchnorm/mul_1", "input": ["FeatureExtractor/MobilenetV2/layer_19_2_Conv2d_2_3x3_s2_512_depthwise/Relu6", "FeatureExtractor/MobilenetV2/layer_19_2_Conv2d_2_3x3_s2_512/Conv2D/merged_input"]}, {"attr": {"T": {"type": "DT_FLOAT"}}, "op": "Add", "name": "FeatureExtractor/MobilenetV2/layer_19_2_Conv2d_2_3x3_s2_512/BatchNorm/batchnorm/add_1", "input": ["FeatureExtractor/MobilenetV2/layer_19_2_Conv2d_2_3x3_s2_512/BatchNorm/batchnorm/mul_1", "FeatureExtractor/MobilenetV2/layer_19_2_Conv2d_2_3x3_s2_512/BatchNorm/batchnorm/sub"]}, {"attr": {"T": {"type": "DT_FLOAT"}}, "op": "Relu6", "name": "FeatureExtractor/MobilenetV2/layer_19_2_Conv2d_2_3x3_s2_512/Relu6", "input": ["FeatureExtractor/MobilenetV2/layer_19_2_Conv2d_2_3x3_s2_512/BatchNorm/batchnorm/add_1"]}, {"attr": {"data_format": {"s": "TkhXQw=="}, "padding": {"s": "U0FNRQ=="}, "dilations": {"list": {"i": ["1", "1", "1", "1"]}}, "T": {"type": "DT_FLOAT"}, "strides": {"list": {"i": ["1", "1", "1", "1"]}}}, "op": "DepthwiseConv2dNative", "name": "BoxPredictor_2/BoxEncodingPredictor_depthwise/depthwise", "input": ["FeatureExtractor/MobilenetV2/layer_19_2_Conv2d_2_3x3_s2_512/Relu6", "BoxPredictor_2/BoxEncodingPredictor_depthwise/depthwise_weights"]}, {"attr": {"data_format": {"s": "TkhXQw=="}, "padding": {"s": "U0FNRQ=="}, "dilations": {"list": {"i": ["1", "1", "1", "1"]}}, "T": {"type": "DT_FLOAT"}, "strides": {"list": {"i": ["1", "1", "1", "1"]}}}, "op": "DepthwiseConv2dNative", "name": "BoxPredictor_2/ClassPredictor_depthwise/depthwise", "input": ["FeatureExtractor/MobilenetV2/layer_19_2_Conv2d_2_3x3_s2_512/Relu6", "BoxPredictor_2/ClassPredictor_depthwise/depthwise_weights"]}, {"attr": {"T": {"type": "DT_FLOAT"}, "out_type": {"type": "DT_INT32"}}, "op": "Shape", "name": "BoxPredictor_2/Shape", "input": ["FeatureExtractor/MobilenetV2/layer_19_2_Conv2d_2_3x3_s2_512/Relu6"]}, {"attr": {"padding": {"s": "U0FNRQ=="}, "strides": {"list": {"i": ["1", "1", "1", "1"]}}, "dilations": {"list": {"i": ["1", "1", "1", "1"]}}, "T": {"type": "DT_FLOAT"}, "data_format": {"s": "TkhXQw=="}, "use_cudnn_on_gpu": {"b": true}}, "op": "Conv2D", "name": "FeatureExtractor/MobilenetV2/layer_19_1_Conv2d_3_1x1_128/BatchNorm/batchnorm/mul_1", "input": ["FeatureExtractor/MobilenetV2/layer_19_2_Conv2d_2_3x3_s2_512/Relu6", "FeatureExtractor/MobilenetV2/layer_19_1_Conv2d_3_1x1_128/Conv2D/merged_input"]}, {"attr": {"T": {"type": "DT_FLOAT"}}, "op": "Mul", "name": "BoxPredictor_2/BoxEncodingPredictor_depthwise/BatchNorm/FusedBatchNorm/Mul", "input": ["BoxPredictor_2/BoxEncodingPredictor_depthwise/depthwise", "BoxPredictor_2/BoxEncodingPredictor_depthwise/BatchNorm/FusedBatchNorm/Scaled"]}, {"attr": {"T": {"type": "DT_FLOAT"}}, "op": "Mul", "name": "BoxPredictor_2/ClassPredictor_depthwise/BatchNorm/FusedBatchNorm/Mul", "input": ["BoxPredictor_2/ClassPredictor_depthwise/depthwise", "BoxPredictor_2/ClassPredictor_depthwise/BatchNorm/FusedBatchNorm/Scaled"]}, {"attr": {"end_mask": {"i": "0"}, "begin_mask": {"i": "0"}, "ellipsis_mask": {"i": "0"}, "Index": {"type": "DT_INT32"}, "T": {"type": "DT_INT32"}, "shrink_axis_mask": {"i": "1"}, "new_axis_mask": {"i": "0"}}, "op": "StridedSlice", "name": "BoxPredictor_2/strided_slice", "input": ["BoxPredictor_2/Shape", "Postprocessor/strided_slice/stack", "Postprocessor/strided_slice/stack_1", "Postprocessor/strided_slice/stack_1"]}, {"attr": {"T": {"type": "DT_FLOAT"}}, "op": "Add", "name": "FeatureExtractor/MobilenetV2/layer_19_1_Conv2d_3_1x1_128/BatchNorm/batchnorm/add_1", "input": ["FeatureExtractor/MobilenetV2/layer_19_1_Conv2d_3_1x1_128/BatchNorm/batchnorm/mul_1", "FeatureExtractor/MobilenetV2/layer_19_1_Conv2d_3_1x1_128/BatchNorm/batchnorm/sub"]}, {"attr": {"T": {"type": "DT_FLOAT"}}, "op": "Add", "name": "BoxPredictor_2/BoxEncodingPredictor_depthwise/BatchNorm/FusedBatchNorm", "input": ["BoxPredictor_2/BoxEncodingPredictor_depthwise/BatchNorm/FusedBatchNorm/Mul", "BoxPredictor_2/BoxEncodingPredictor_depthwise/BatchNorm/FusedBatchNorm/Offset"]}, {"attr": {"T": {"type": "DT_FLOAT"}}, "op": "Add", "name": "BoxPredictor_2/ClassPredictor_depthwise/BatchNorm/FusedBatchNorm", "input": ["BoxPredictor_2/ClassPredictor_depthwise/BatchNorm/FusedBatchNorm/Mul", "BoxPredictor_2/ClassPredictor_depthwise/BatchNorm/FusedBatchNorm/Offset"]}, {"attr": {"T": {"type": "DT_INT32"}, "N": {"i": "4"}, "axis": {"i": "0"}}, "op": "Pack", "name": "BoxPredictor_2/stack", "input": ["BoxPredictor_2/strided_slice", "BoxPredictor_2/stack/1", "Postprocessor/Tile/multiples/1", "BoxPredictor_0/stack/3"]}, {"attr": {"T": {"type": "DT_INT32"}, "N": {"i": "3"}, "axis": {"i": "0"}}, "op": "Pack", "name": "BoxPredictor_2/stack_1", "input": ["BoxPredictor_2/strided_slice", "BoxPredictor_2/stack/1", "BoxPredictor_0/stack_1/2"]}, {"attr": {"T": {"type": "DT_FLOAT"}}, "op": "Relu6", "name": "FeatureExtractor/MobilenetV2/layer_19_1_Conv2d_3_1x1_128/Relu6", "input": ["FeatureExtractor/MobilenetV2/layer_19_1_Conv2d_3_1x1_128/BatchNorm/batchnorm/add_1"]}, {"attr": {"T": {"type": "DT_FLOAT"}}, "op": "Relu6", "name": "BoxPredictor_2/BoxEncodingPredictor_depthwise/Relu6", "input": ["BoxPredictor_2/BoxEncodingPredictor_depthwise/BatchNorm/FusedBatchNorm"]}, {"attr": {"T": {"type": "DT_FLOAT"}}, "op": "Relu6", "name": "BoxPredictor_2/ClassPredictor_depthwise/Relu6", "input": ["BoxPredictor_2/ClassPredictor_depthwise/BatchNorm/FusedBatchNorm"]}, {"attr": {"dilations": {"list": {"i": ["1", "1", "1", "1"]}}, "T": {"type": "DT_FLOAT"}, "padding": {"s": "U0FNRQ=="}, "data_format": {"s": "TkhXQw=="}, "strides": {"list": {"i": ["1", "2", "2", "1"]}}}, "op": "DepthwiseConv2dNative", "name": "FeatureExtractor/MobilenetV2/layer_19_2_Conv2d_3_3x3_s2_256_depthwise/depthwise", "input": ["FeatureExtractor/MobilenetV2/layer_19_1_Conv2d_3_1x1_128/Relu6", "FeatureExtractor/MobilenetV2/layer_19_2_Conv2d_3_3x3_s2_256_depthwise/depthwise_weights"]}, {"attr": {"padding": {"s": "U0FNRQ=="}, "strides": {"list": {"i": ["1", "1", "1", "1"]}}, "dilations": {"list": {"i": ["1", "1", "1", "1"]}}, "T": {"type": "DT_FLOAT"}, "data_format": {"s": "TkhXQw=="}, "use_cudnn_on_gpu": {"b": true}}, "op": "Conv2D", "name": "BoxPredictor_2/BoxEncodingPredictor/Conv2D", "input": ["BoxPredictor_2/BoxEncodingPredictor_depthwise/Relu6", "BoxPredictor_2/BoxEncodingPredictor/weights"]}, {"attr": {"padding": {"s": "U0FNRQ=="}, "strides": {"list": {"i": ["1", "1", "1", "1"]}}, "dilations": {"list": {"i": ["1", "1", "1", "1"]}}, "T": {"type": "DT_FLOAT"}, "data_format": {"s": "TkhXQw=="}, "use_cudnn_on_gpu": {"b": true}}, "op": "Conv2D", "name": "BoxPredictor_2/ClassPredictor/Conv2D", "input": ["BoxPredictor_2/ClassPredictor_depthwise/Relu6", "BoxPredictor_2/ClassPredictor/weights"]}, {"attr": {"T": {"type": "DT_FLOAT"}}, "op": "Mul", "name": "FeatureExtractor/MobilenetV2/layer_19_2_Conv2d_3_3x3_s2_256_depthwise/BatchNorm/batchnorm/mul_1", "input": ["FeatureExtractor/MobilenetV2/layer_19_2_Conv2d_3_3x3_s2_256_depthwise/depthwise", "FeatureExtractor/MobilenetV2/layer_19_2_Conv2d_3_3x3_s2_256_depthwise/BatchNorm/batchnorm/mul"]}, {"attr": {"T": {"type": "DT_FLOAT"}, "data_format": {"s": "TkhXQw=="}}, "op": "BiasAdd", "name": "BoxPredictor_2/BoxEncodingPredictor/BiasAdd", "input": ["BoxPredictor_2/BoxEncodingPredictor/Conv2D", "BoxPredictor_2/BoxEncodingPredictor/biases"]}, {"attr": {"T": {"type": "DT_FLOAT"}, "data_format": {"s": "TkhXQw=="}}, "op": "BiasAdd", "name": "BoxPredictor_2/ClassPredictor/BiasAdd", "input": ["BoxPredictor_2/ClassPredictor/Conv2D", "BoxPredictor_2/ClassPredictor/biases"]}, {"attr": {"T": {"type": "DT_FLOAT"}}, "op": "Add", "name": "FeatureExtractor/MobilenetV2/layer_19_2_Conv2d_3_3x3_s2_256_depthwise/BatchNorm/batchnorm/add_1", "input": ["FeatureExtractor/MobilenetV2/layer_19_2_Conv2d_3_3x3_s2_256_depthwise/BatchNorm/batchnorm/mul_1", "FeatureExtractor/MobilenetV2/layer_19_2_Conv2d_3_3x3_s2_256_depthwise/BatchNorm/batchnorm/sub"]}, {"attr": {"Tshape": {"type": "DT_INT32"}, "T": {"type": "DT_FLOAT"}}, "op": "Reshape", "name": "BoxPredictor_2/Reshape", "input": ["BoxPredictor_2/BoxEncodingPredictor/BiasAdd", "BoxPredictor_2/stack"]}, {"attr": {"Tshape": {"type": "DT_INT32"}, "T": {"type": "DT_FLOAT"}}, "op": "Reshape", "name": "BoxPredictor_2/Reshape_1", "input": ["BoxPredictor_2/ClassPredictor/BiasAdd", "BoxPredictor_2/stack_1"]}, {"attr": {"T": {"type": "DT_FLOAT"}}, "op": "Relu6", "name": "FeatureExtractor/MobilenetV2/layer_19_2_Conv2d_3_3x3_s2_256_depthwise/Relu6", "input": ["FeatureExtractor/MobilenetV2/layer_19_2_Conv2d_3_3x3_s2_256_depthwise/BatchNorm/batchnorm/add_1"]}, {"attr": {"padding": {"s": "U0FNRQ=="}, "strides": {"list": {"i": ["1", "1", "1", "1"]}}, "dilations": {"list": {"i": ["1", "1", "1", "1"]}}, "T": {"type": "DT_FLOAT"}, "data_format": {"s": "TkhXQw=="}, "use_cudnn_on_gpu": {"b": true}}, "op": "Conv2D", "name": "FeatureExtractor/MobilenetV2/layer_19_2_Conv2d_3_3x3_s2_256/BatchNorm/batchnorm/mul_1", "input": ["FeatureExtractor/MobilenetV2/layer_19_2_Conv2d_3_3x3_s2_256_depthwise/Relu6", "FeatureExtractor/MobilenetV2/layer_19_2_Conv2d_3_3x3_s2_256/Conv2D/merged_input"]}, {"attr": {"T": {"type": "DT_FLOAT"}}, "op": "Add", "name": "FeatureExtractor/MobilenetV2/layer_19_2_Conv2d_3_3x3_s2_256/BatchNorm/batchnorm/add_1", "input": ["FeatureExtractor/MobilenetV2/layer_19_2_Conv2d_3_3x3_s2_256/BatchNorm/batchnorm/mul_1", "FeatureExtractor/MobilenetV2/layer_19_2_Conv2d_3_3x3_s2_256/BatchNorm/batchnorm/sub"]}, {"attr": {"T": {"type": "DT_FLOAT"}}, "op": "Relu6", "name": "FeatureExtractor/MobilenetV2/layer_19_2_Conv2d_3_3x3_s2_256/Relu6", "input": ["FeatureExtractor/MobilenetV2/layer_19_2_Conv2d_3_3x3_s2_256/BatchNorm/batchnorm/add_1"]}, {"attr": {"dilations": {"list": {"i": ["1", "1", "1", "1"]}}, "T": {"type": "DT_FLOAT"}, "padding": {"s": "U0FNRQ=="}, "data_format": {"s": "TkhXQw=="}, "strides": {"list": {"i": ["1", "1", "1", "1"]}}}, "op": "DepthwiseConv2dNative", "name": "BoxPredictor_3/BoxEncodingPredictor_depthwise/depthwise", "input": ["FeatureExtractor/MobilenetV2/layer_19_2_Conv2d_3_3x3_s2_256/Relu6", "BoxPredictor_3/BoxEncodingPredictor_depthwise/depthwise_weights"]}, {"attr": {"dilations": {"list": {"i": ["1", "1", "1", "1"]}}, "T": {"type": "DT_FLOAT"}, "padding": {"s": "U0FNRQ=="}, "data_format": {"s": "TkhXQw=="}, "strides": {"list": {"i": ["1", "1", "1", "1"]}}}, "op": "DepthwiseConv2dNative", "name": "BoxPredictor_3/ClassPredictor_depthwise/depthwise", "input": ["FeatureExtractor/MobilenetV2/layer_19_2_Conv2d_3_3x3_s2_256/Relu6", "BoxPredictor_3/ClassPredictor_depthwise/depthwise_weights"]}, {"attr": {"T": {"type": "DT_FLOAT"}, "out_type": {"type": "DT_INT32"}}, "op": "Shape", "name": "BoxPredictor_3/Shape", "input": ["FeatureExtractor/MobilenetV2/layer_19_2_Conv2d_3_3x3_s2_256/Relu6"]}, {"attr": {"padding": {"s": "U0FNRQ=="}, "strides": {"list": {"i": ["1", "1", "1", "1"]}}, "dilations": {"list": {"i": ["1", "1", "1", "1"]}}, "T": {"type": "DT_FLOAT"}, "data_format": {"s": "TkhXQw=="}, "use_cudnn_on_gpu": {"b": true}}, "op": "Conv2D", "name": "FeatureExtractor/MobilenetV2/layer_19_1_Conv2d_4_1x1_128/BatchNorm/batchnorm/mul_1", "input": ["FeatureExtractor/MobilenetV2/layer_19_2_Conv2d_3_3x3_s2_256/Relu6", "FeatureExtractor/MobilenetV2/layer_19_1_Conv2d_4_1x1_128/Conv2D/merged_input"]}, {"attr": {"T": {"type": "DT_FLOAT"}}, "op": "Mul", "name": "BoxPredictor_3/BoxEncodingPredictor_depthwise/BatchNorm/FusedBatchNorm/Mul", "input": ["BoxPredictor_3/BoxEncodingPredictor_depthwise/depthwise", "BoxPredictor_3/BoxEncodingPredictor_depthwise/BatchNorm/FusedBatchNorm/Scaled"]}, {"attr": {"T": {"type": "DT_FLOAT"}}, "op": "Mul", "name": "BoxPredictor_3/ClassPredictor_depthwise/BatchNorm/FusedBatchNorm/Mul", "input": ["BoxPredictor_3/ClassPredictor_depthwise/depthwise", "BoxPredictor_3/ClassPredictor_depthwise/BatchNorm/FusedBatchNorm/Scaled"]}, {"attr": {"end_mask": {"i": "0"}, "begin_mask": {"i": "0"}, "ellipsis_mask": {"i": "0"}, "Index": {"type": "DT_INT32"}, "T": {"type": "DT_INT32"}, "shrink_axis_mask": {"i": "1"}, "new_axis_mask": {"i": "0"}}, "op": "StridedSlice", "name": "BoxPredictor_3/strided_slice", "input": ["BoxPredictor_3/Shape", "Postprocessor/strided_slice/stack", "Postprocessor/strided_slice/stack_1", "Postprocessor/strided_slice/stack_1"]}, {"attr": {"T": {"type": "DT_FLOAT"}}, "op": "Add", "name": "FeatureExtractor/MobilenetV2/layer_19_1_Conv2d_4_1x1_128/BatchNorm/batchnorm/add_1", "input": ["FeatureExtractor/MobilenetV2/layer_19_1_Conv2d_4_1x1_128/BatchNorm/batchnorm/mul_1", "FeatureExtractor/MobilenetV2/layer_19_1_Conv2d_4_1x1_128/BatchNorm/batchnorm/sub"]}, {"attr": {"T": {"type": "DT_FLOAT"}}, "op": "Add", "name": "BoxPredictor_3/BoxEncodingPredictor_depthwise/BatchNorm/FusedBatchNorm", "input": ["BoxPredictor_3/BoxEncodingPredictor_depthwise/BatchNorm/FusedBatchNorm/Mul", "BoxPredictor_3/BoxEncodingPredictor_depthwise/BatchNorm/FusedBatchNorm/Offset"]}, {"attr": {"T": {"type": "DT_FLOAT"}}, "op": "Add", "name": "BoxPredictor_3/ClassPredictor_depthwise/BatchNorm/FusedBatchNorm", "input": ["BoxPredictor_3/ClassPredictor_depthwise/BatchNorm/FusedBatchNorm/Mul", "BoxPredictor_3/ClassPredictor_depthwise/BatchNorm/FusedBatchNorm/Offset"]}, {"attr": {"T": {"type": "DT_INT32"}, "N": {"i": "4"}, "axis": {"i": "0"}}, "op": "Pack", "name": "BoxPredictor_3/stack", "input": ["BoxPredictor_3/strided_slice", "BoxPredictor_3/stack/1", "Postprocessor/Tile/multiples/1", "BoxPredictor_0/stack/3"]}, {"attr": {"T": {"type": "DT_INT32"}, "N": {"i": "3"}, "axis": {"i": "0"}}, "op": "Pack", "name": "BoxPredictor_3/stack_1", "input": ["BoxPredictor_3/strided_slice", "BoxPredictor_3/stack/1", "BoxPredictor_0/stack_1/2"]}, {"attr": {"T": {"type": "DT_FLOAT"}}, "op": "Relu6", "name": "FeatureExtractor/MobilenetV2/layer_19_1_Conv2d_4_1x1_128/Relu6", "input": ["FeatureExtractor/MobilenetV2/layer_19_1_Conv2d_4_1x1_128/BatchNorm/batchnorm/add_1"]}, {"attr": {"T": {"type": "DT_FLOAT"}}, "op": "Relu6", "name": "BoxPredictor_3/BoxEncodingPredictor_depthwise/Relu6", "input": ["BoxPredictor_3/BoxEncodingPredictor_depthwise/BatchNorm/FusedBatchNorm"]}, {"attr": {"T": {"type": "DT_FLOAT"}}, "op": "Relu6", "name": "BoxPredictor_3/ClassPredictor_depthwise/Relu6", "input": ["BoxPredictor_3/ClassPredictor_depthwise/BatchNorm/FusedBatchNorm"]}, {"attr": {"dilations": {"list": {"i": ["1", "1", "1", "1"]}}, "T": {"type": "DT_FLOAT"}, "padding": {"s": "U0FNRQ=="}, "data_format": {"s": "TkhXQw=="}, "strides": {"list": {"i": ["1", "2", "2", "1"]}}}, "op": "DepthwiseConv2dNative", "name": "FeatureExtractor/MobilenetV2/layer_19_2_Conv2d_4_3x3_s2_256_depthwise/depthwise", "input": ["FeatureExtractor/MobilenetV2/layer_19_1_Conv2d_4_1x1_128/Relu6", "FeatureExtractor/MobilenetV2/layer_19_2_Conv2d_4_3x3_s2_256_depthwise/depthwise_weights"]}, {"attr": {"padding": {"s": "U0FNRQ=="}, "strides": {"list": {"i": ["1", "1", "1", "1"]}}, "dilations": {"list": {"i": ["1", "1", "1", "1"]}}, "T": {"type": "DT_FLOAT"}, "data_format": {"s": "TkhXQw=="}, "use_cudnn_on_gpu": {"b": true}}, "op": "Conv2D", "name": "BoxPredictor_3/BoxEncodingPredictor/Conv2D", "input": ["BoxPredictor_3/BoxEncodingPredictor_depthwise/Relu6", "BoxPredictor_3/BoxEncodingPredictor/weights"]}, {"attr": {"padding": {"s": "U0FNRQ=="}, "strides": {"list": {"i": ["1", "1", "1", "1"]}}, "dilations": {"list": {"i": ["1", "1", "1", "1"]}}, "T": {"type": "DT_FLOAT"}, "data_format": {"s": "TkhXQw=="}, "use_cudnn_on_gpu": {"b": true}}, "op": "Conv2D", "name": "BoxPredictor_3/ClassPredictor/Conv2D", "input": ["BoxPredictor_3/ClassPredictor_depthwise/Relu6", "BoxPredictor_3/ClassPredictor/weights"]}, {"attr": {"T": {"type": "DT_FLOAT"}}, "op": "Mul", "name": "FeatureExtractor/MobilenetV2/layer_19_2_Conv2d_4_3x3_s2_256_depthwise/BatchNorm/batchnorm/mul_1", "input": ["FeatureExtractor/MobilenetV2/layer_19_2_Conv2d_4_3x3_s2_256_depthwise/depthwise", "FeatureExtractor/MobilenetV2/layer_19_2_Conv2d_4_3x3_s2_256_depthwise/BatchNorm/batchnorm/mul"]}, {"attr": {"T": {"type": "DT_FLOAT"}, "data_format": {"s": "TkhXQw=="}}, "op": "BiasAdd", "name": "BoxPredictor_3/BoxEncodingPredictor/BiasAdd", "input": ["BoxPredictor_3/BoxEncodingPredictor/Conv2D", "BoxPredictor_3/BoxEncodingPredictor/biases"]}, {"attr": {"T": {"type": "DT_FLOAT"}, "data_format": {"s": "TkhXQw=="}}, "op": "BiasAdd", "name": "BoxPredictor_3/ClassPredictor/BiasAdd", "input": ["BoxPredictor_3/ClassPredictor/Conv2D", "BoxPredictor_3/ClassPredictor/biases"]}, {"attr": {"T": {"type": "DT_FLOAT"}}, "op": "Add", "name": "FeatureExtractor/MobilenetV2/layer_19_2_Conv2d_4_3x3_s2_256_depthwise/BatchNorm/batchnorm/add_1", "input": ["FeatureExtractor/MobilenetV2/layer_19_2_Conv2d_4_3x3_s2_256_depthwise/BatchNorm/batchnorm/mul_1", "FeatureExtractor/MobilenetV2/layer_19_2_Conv2d_4_3x3_s2_256_depthwise/BatchNorm/batchnorm/sub"]}, {"attr": {"Tshape": {"type": "DT_INT32"}, "T": {"type": "DT_FLOAT"}}, "op": "Reshape", "name": "BoxPredictor_3/Reshape", "input": ["BoxPredictor_3/BoxEncodingPredictor/BiasAdd", "BoxPredictor_3/stack"]}, {"attr": {"Tshape": {"type": "DT_INT32"}, "T": {"type": "DT_FLOAT"}}, "op": "Reshape", "name": "BoxPredictor_3/Reshape_1", "input": ["BoxPredictor_3/ClassPredictor/BiasAdd", "BoxPredictor_3/stack_1"]}, {"attr": {"T": {"type": "DT_FLOAT"}}, "op": "Relu6", "name": "FeatureExtractor/MobilenetV2/layer_19_2_Conv2d_4_3x3_s2_256_depthwise/Relu6", "input": ["FeatureExtractor/MobilenetV2/layer_19_2_Conv2d_4_3x3_s2_256_depthwise/BatchNorm/batchnorm/add_1"]}, {"attr": {"padding": {"s": "U0FNRQ=="}, "strides": {"list": {"i": ["1", "1", "1", "1"]}}, "dilations": {"list": {"i": ["1", "1", "1", "1"]}}, "T": {"type": "DT_FLOAT"}, "data_format": {"s": "TkhXQw=="}, "use_cudnn_on_gpu": {"b": true}}, "op": "Conv2D", "name": "FeatureExtractor/MobilenetV2/layer_19_2_Conv2d_4_3x3_s2_256/BatchNorm/batchnorm/mul_1", "input": ["FeatureExtractor/MobilenetV2/layer_19_2_Conv2d_4_3x3_s2_256_depthwise/Relu6", "FeatureExtractor/MobilenetV2/layer_19_2_Conv2d_4_3x3_s2_256/Conv2D/merged_input"]}, {"attr": {"T": {"type": "DT_FLOAT"}}, "op": "Add", "name": "FeatureExtractor/MobilenetV2/layer_19_2_Conv2d_4_3x3_s2_256/BatchNorm/batchnorm/add_1", "input": ["FeatureExtractor/MobilenetV2/layer_19_2_Conv2d_4_3x3_s2_256/BatchNorm/batchnorm/mul_1", "FeatureExtractor/MobilenetV2/layer_19_2_Conv2d_4_3x3_s2_256/BatchNorm/batchnorm/sub"]}, {"attr": {"T": {"type": "DT_FLOAT"}}, "op": "Relu6", "name": "FeatureExtractor/MobilenetV2/layer_19_2_Conv2d_4_3x3_s2_256/Relu6", "input": ["FeatureExtractor/MobilenetV2/layer_19_2_Conv2d_4_3x3_s2_256/BatchNorm/batchnorm/add_1"]}, {"attr": {"data_format": {"s": "TkhXQw=="}, "padding": {"s": "U0FNRQ=="}, "dilations": {"list": {"i": ["1", "1", "1", "1"]}}, "T": {"type": "DT_FLOAT"}, "strides": {"list": {"i": ["1", "1", "1", "1"]}}}, "op": "DepthwiseConv2dNative", "name": "BoxPredictor_4/BoxEncodingPredictor_depthwise/depthwise", "input": ["FeatureExtractor/MobilenetV2/layer_19_2_Conv2d_4_3x3_s2_256/Relu6", "BoxPredictor_4/BoxEncodingPredictor_depthwise/depthwise_weights"]}, {"attr": {"dilations": {"list": {"i": ["1", "1", "1", "1"]}}, "T": {"type": "DT_FLOAT"}, "padding": {"s": "U0FNRQ=="}, "data_format": {"s": "TkhXQw=="}, "strides": {"list": {"i": ["1", "1", "1", "1"]}}}, "op": "DepthwiseConv2dNative", "name": "BoxPredictor_4/ClassPredictor_depthwise/depthwise", "input": ["FeatureExtractor/MobilenetV2/layer_19_2_Conv2d_4_3x3_s2_256/Relu6", "BoxPredictor_4/ClassPredictor_depthwise/depthwise_weights"]}, {"attr": {"T": {"type": "DT_FLOAT"}, "out_type": {"type": "DT_INT32"}}, "op": "Shape", "name": "BoxPredictor_4/Shape", "input": ["FeatureExtractor/MobilenetV2/layer_19_2_Conv2d_4_3x3_s2_256/Relu6"]}, {"attr": {"padding": {"s": "U0FNRQ=="}, "strides": {"list": {"i": ["1", "1", "1", "1"]}}, "dilations": {"list": {"i": ["1", "1", "1", "1"]}}, "T": {"type": "DT_FLOAT"}, "data_format": {"s": "TkhXQw=="}, "use_cudnn_on_gpu": {"b": true}}, "op": "Conv2D", "name": "FeatureExtractor/MobilenetV2/layer_19_1_Conv2d_5_1x1_64/BatchNorm/batchnorm/mul_1", "input": ["FeatureExtractor/MobilenetV2/layer_19_2_Conv2d_4_3x3_s2_256/Relu6", "FeatureExtractor/MobilenetV2/layer_19_1_Conv2d_5_1x1_64/Conv2D/merged_input"]}, {"attr": {"T": {"type": "DT_FLOAT"}}, "op": "Mul", "name": "BoxPredictor_4/BoxEncodingPredictor_depthwise/BatchNorm/FusedBatchNorm/Mul", "input": ["BoxPredictor_4/BoxEncodingPredictor_depthwise/depthwise", "BoxPredictor_4/BoxEncodingPredictor_depthwise/BatchNorm/FusedBatchNorm/Scaled"]}, {"attr": {"T": {"type": "DT_FLOAT"}}, "op": "Mul", "name": "BoxPredictor_4/ClassPredictor_depthwise/BatchNorm/FusedBatchNorm/Mul", "input": ["BoxPredictor_4/ClassPredictor_depthwise/depthwise", "BoxPredictor_4/ClassPredictor_depthwise/BatchNorm/FusedBatchNorm/Scaled"]}, {"attr": {"end_mask": {"i": "0"}, "begin_mask": {"i": "0"}, "ellipsis_mask": {"i": "0"}, "Index": {"type": "DT_INT32"}, "T": {"type": "DT_INT32"}, "shrink_axis_mask": {"i": "1"}, "new_axis_mask": {"i": "0"}}, "op": "StridedSlice", "name": "BoxPredictor_4/strided_slice", "input": ["BoxPredictor_4/Shape", "Postprocessor/strided_slice/stack", "Postprocessor/strided_slice/stack_1", "Postprocessor/strided_slice/stack_1"]}, {"attr": {"T": {"type": "DT_FLOAT"}}, "op": "Add", "name": "FeatureExtractor/MobilenetV2/layer_19_1_Conv2d_5_1x1_64/BatchNorm/batchnorm/add_1", "input": ["FeatureExtractor/MobilenetV2/layer_19_1_Conv2d_5_1x1_64/BatchNorm/batchnorm/mul_1", "FeatureExtractor/MobilenetV2/layer_19_1_Conv2d_5_1x1_64/BatchNorm/batchnorm/sub"]}, {"attr": {"T": {"type": "DT_FLOAT"}}, "op": "Add", "name": "BoxPredictor_4/BoxEncodingPredictor_depthwise/BatchNorm/FusedBatchNorm", "input": ["BoxPredictor_4/BoxEncodingPredictor_depthwise/BatchNorm/FusedBatchNorm/Mul", "BoxPredictor_4/BoxEncodingPredictor_depthwise/BatchNorm/FusedBatchNorm/Offset"]}, {"attr": {"T": {"type": "DT_FLOAT"}}, "op": "Add", "name": "BoxPredictor_4/ClassPredictor_depthwise/BatchNorm/FusedBatchNorm", "input": ["BoxPredictor_4/ClassPredictor_depthwise/BatchNorm/FusedBatchNorm/Mul", "BoxPredictor_4/ClassPredictor_depthwise/BatchNorm/FusedBatchNorm/Offset"]}, {"attr": {"T": {"type": "DT_INT32"}, "N": {"i": "4"}, "axis": {"i": "0"}}, "op": "Pack", "name": "BoxPredictor_4/stack", "input": ["BoxPredictor_4/strided_slice", "BoxPredictor_4/stack/1", "Postprocessor/Tile/multiples/1", "BoxPredictor_0/stack/3"]}, {"attr": {"T": {"type": "DT_INT32"}, "N": {"i": "3"}, "axis": {"i": "0"}}, "op": "Pack", "name": "BoxPredictor_4/stack_1", "input": ["BoxPredictor_4/strided_slice", "BoxPredictor_4/stack/1", "BoxPredictor_0/stack_1/2"]}, {"attr": {"T": {"type": "DT_FLOAT"}}, "op": "Relu6", "name": "FeatureExtractor/MobilenetV2/layer_19_1_Conv2d_5_1x1_64/Relu6", "input": ["FeatureExtractor/MobilenetV2/layer_19_1_Conv2d_5_1x1_64/BatchNorm/batchnorm/add_1"]}, {"attr": {"T": {"type": "DT_FLOAT"}}, "op": "Relu6", "name": "BoxPredictor_4/BoxEncodingPredictor_depthwise/Relu6", "input": ["BoxPredictor_4/BoxEncodingPredictor_depthwise/BatchNorm/FusedBatchNorm"]}, {"attr": {"T": {"type": "DT_FLOAT"}}, "op": "Relu6", "name": "BoxPredictor_4/ClassPredictor_depthwise/Relu6", "input": ["BoxPredictor_4/ClassPredictor_depthwise/BatchNorm/FusedBatchNorm"]}, {"attr": {"data_format": {"s": "TkhXQw=="}, "padding": {"s": "U0FNRQ=="}, "dilations": {"list": {"i": ["1", "1", "1", "1"]}}, "T": {"type": "DT_FLOAT"}, "strides": {"list": {"i": ["1", "2", "2", "1"]}}}, "op": "DepthwiseConv2dNative", "name": "FeatureExtractor/MobilenetV2/layer_19_2_Conv2d_5_3x3_s2_128_depthwise/depthwise", "input": ["FeatureExtractor/MobilenetV2/layer_19_1_Conv2d_5_1x1_64/Relu6", "FeatureExtractor/MobilenetV2/layer_19_2_Conv2d_5_3x3_s2_128_depthwise/depthwise_weights"]}, {"attr": {"padding": {"s": "U0FNRQ=="}, "strides": {"list": {"i": ["1", "1", "1", "1"]}}, "dilations": {"list": {"i": ["1", "1", "1", "1"]}}, "T": {"type": "DT_FLOAT"}, "data_format": {"s": "TkhXQw=="}, "use_cudnn_on_gpu": {"b": true}}, "op": "Conv2D", "name": "BoxPredictor_4/BoxEncodingPredictor/Conv2D", "input": ["BoxPredictor_4/BoxEncodingPredictor_depthwise/Relu6", "BoxPredictor_4/BoxEncodingPredictor/weights"]}, {"attr": {"padding": {"s": "U0FNRQ=="}, "strides": {"list": {"i": ["1", "1", "1", "1"]}}, "dilations": {"list": {"i": ["1", "1", "1", "1"]}}, "T": {"type": "DT_FLOAT"}, "data_format": {"s": "TkhXQw=="}, "use_cudnn_on_gpu": {"b": true}}, "op": "Conv2D", "name": "BoxPredictor_4/ClassPredictor/Conv2D", "input": ["BoxPredictor_4/ClassPredictor_depthwise/Relu6", "BoxPredictor_4/ClassPredictor/weights"]}, {"attr": {"T": {"type": "DT_FLOAT"}}, "op": "Mul", "name": "FeatureExtractor/MobilenetV2/layer_19_2_Conv2d_5_3x3_s2_128_depthwise/BatchNorm/batchnorm/mul_1", "input": ["FeatureExtractor/MobilenetV2/layer_19_2_Conv2d_5_3x3_s2_128_depthwise/depthwise", "FeatureExtractor/MobilenetV2/layer_19_2_Conv2d_5_3x3_s2_128_depthwise/BatchNorm/batchnorm/mul"]}, {"attr": {"T": {"type": "DT_FLOAT"}, "data_format": {"s": "TkhXQw=="}}, "op": "BiasAdd", "name": "BoxPredictor_4/BoxEncodingPredictor/BiasAdd", "input": ["BoxPredictor_4/BoxEncodingPredictor/Conv2D", "BoxPredictor_4/BoxEncodingPredictor/biases"]}, {"attr": {"T": {"type": "DT_FLOAT"}, "data_format": {"s": "TkhXQw=="}}, "op": "BiasAdd", "name": "BoxPredictor_4/ClassPredictor/BiasAdd", "input": ["BoxPredictor_4/ClassPredictor/Conv2D", "BoxPredictor_4/ClassPredictor/biases"]}, {"attr": {"T": {"type": "DT_FLOAT"}}, "op": "Add", "name": "FeatureExtractor/MobilenetV2/layer_19_2_Conv2d_5_3x3_s2_128_depthwise/BatchNorm/batchnorm/add_1", "input": ["FeatureExtractor/MobilenetV2/layer_19_2_Conv2d_5_3x3_s2_128_depthwise/BatchNorm/batchnorm/mul_1", "FeatureExtractor/MobilenetV2/layer_19_2_Conv2d_5_3x3_s2_128_depthwise/BatchNorm/batchnorm/sub"]}, {"attr": {"Tshape": {"type": "DT_INT32"}, "T": {"type": "DT_FLOAT"}}, "op": "Reshape", "name": "BoxPredictor_4/Reshape", "input": ["BoxPredictor_4/BoxEncodingPredictor/BiasAdd", "BoxPredictor_4/stack"]}, {"attr": {"Tshape": {"type": "DT_INT32"}, "T": {"type": "DT_FLOAT"}}, "op": "Reshape", "name": "BoxPredictor_4/Reshape_1", "input": ["BoxPredictor_4/ClassPredictor/BiasAdd", "BoxPredictor_4/stack_1"]}, {"attr": {"T": {"type": "DT_FLOAT"}}, "op": "Relu6", "name": "FeatureExtractor/MobilenetV2/layer_19_2_Conv2d_5_3x3_s2_128_depthwise/Relu6", "input": ["FeatureExtractor/MobilenetV2/layer_19_2_Conv2d_5_3x3_s2_128_depthwise/BatchNorm/batchnorm/add_1"]}, {"attr": {"padding": {"s": "U0FNRQ=="}, "strides": {"list": {"i": ["1", "1", "1", "1"]}}, "dilations": {"list": {"i": ["1", "1", "1", "1"]}}, "T": {"type": "DT_FLOAT"}, "data_format": {"s": "TkhXQw=="}, "use_cudnn_on_gpu": {"b": true}}, "op": "Conv2D", "name": "FeatureExtractor/MobilenetV2/layer_19_2_Conv2d_5_3x3_s2_128/BatchNorm/batchnorm/mul_1", "input": ["FeatureExtractor/MobilenetV2/layer_19_2_Conv2d_5_3x3_s2_128_depthwise/Relu6", "FeatureExtractor/MobilenetV2/layer_19_2_Conv2d_5_3x3_s2_128/Conv2D/merged_input"]}, {"attr": {"T": {"type": "DT_FLOAT"}}, "op": "Add", "name": "FeatureExtractor/MobilenetV2/layer_19_2_Conv2d_5_3x3_s2_128/BatchNorm/batchnorm/add_1", "input": ["FeatureExtractor/MobilenetV2/layer_19_2_Conv2d_5_3x3_s2_128/BatchNorm/batchnorm/mul_1", "FeatureExtractor/MobilenetV2/layer_19_2_Conv2d_5_3x3_s2_128/BatchNorm/batchnorm/sub"]}, {"attr": {"T": {"type": "DT_FLOAT"}}, "op": "Relu6", "name": "FeatureExtractor/MobilenetV2/layer_19_2_Conv2d_5_3x3_s2_128/Relu6", "input": ["FeatureExtractor/MobilenetV2/layer_19_2_Conv2d_5_3x3_s2_128/BatchNorm/batchnorm/add_1"]}, {"attr": {"data_format": {"s": "TkhXQw=="}, "padding": {"s": "U0FNRQ=="}, "dilations": {"list": {"i": ["1", "1", "1", "1"]}}, "T": {"type": "DT_FLOAT"}, "strides": {"list": {"i": ["1", "1", "1", "1"]}}}, "op": "DepthwiseConv2dNative", "name": "BoxPredictor_5/BoxEncodingPredictor_depthwise/depthwise", "input": ["FeatureExtractor/MobilenetV2/layer_19_2_Conv2d_5_3x3_s2_128/Relu6", "BoxPredictor_5/BoxEncodingPredictor_depthwise/depthwise_weights"]}, {"attr": {"dilations": {"list": {"i": ["1", "1", "1", "1"]}}, "T": {"type": "DT_FLOAT"}, "padding": {"s": "U0FNRQ=="}, "data_format": {"s": "TkhXQw=="}, "strides": {"list": {"i": ["1", "1", "1", "1"]}}}, "op": "DepthwiseConv2dNative", "name": "BoxPredictor_5/ClassPredictor_depthwise/depthwise", "input": ["FeatureExtractor/MobilenetV2/layer_19_2_Conv2d_5_3x3_s2_128/Relu6", "BoxPredictor_5/ClassPredictor_depthwise/depthwise_weights"]}, {"attr": {"T": {"type": "DT_FLOAT"}, "out_type": {"type": "DT_INT32"}}, "op": "Shape", "name": "BoxPredictor_5/Shape", "input": ["FeatureExtractor/MobilenetV2/layer_19_2_Conv2d_5_3x3_s2_128/Relu6"]}, {"attr": {"T": {"type": "DT_FLOAT"}}, "op": "Mul", "name": "BoxPredictor_5/BoxEncodingPredictor_depthwise/BatchNorm/FusedBatchNorm/Mul", "input": ["BoxPredictor_5/BoxEncodingPredictor_depthwise/depthwise", "BoxPredictor_5/BoxEncodingPredictor_depthwise/BatchNorm/FusedBatchNorm/Scaled"]}, {"attr": {"T": {"type": "DT_FLOAT"}}, "op": "Mul", "name": "BoxPredictor_5/ClassPredictor_depthwise/BatchNorm/FusedBatchNorm/Mul", "input": ["BoxPredictor_5/ClassPredictor_depthwise/depthwise", "BoxPredictor_5/ClassPredictor_depthwise/BatchNorm/FusedBatchNorm/Scaled"]}, {"attr": {"end_mask": {"i": "0"}, "begin_mask": {"i": "0"}, "ellipsis_mask": {"i": "0"}, "Index": {"type": "DT_INT32"}, "T": {"type": "DT_INT32"}, "shrink_axis_mask": {"i": "1"}, "new_axis_mask": {"i": "0"}}, "op": "StridedSlice", "name": "BoxPredictor_5/strided_slice", "input": ["BoxPredictor_5/Shape", "Postprocessor/strided_slice/stack", "Postprocessor/strided_slice/stack_1", "Postprocessor/strided_slice/stack_1"]}, {"attr": {"T": {"type": "DT_FLOAT"}}, "op": "Add", "name": "BoxPredictor_5/BoxEncodingPredictor_depthwise/BatchNorm/FusedBatchNorm", "input": ["BoxPredictor_5/BoxEncodingPredictor_depthwise/BatchNorm/FusedBatchNorm/Mul", "BoxPredictor_5/BoxEncodingPredictor_depthwise/BatchNorm/FusedBatchNorm/Offset"]}, {"attr": {"T": {"type": "DT_FLOAT"}}, "op": "Add", "name": "BoxPredictor_5/ClassPredictor_depthwise/BatchNorm/FusedBatchNorm", "input": ["BoxPredictor_5/ClassPredictor_depthwise/BatchNorm/FusedBatchNorm/Mul", "BoxPredictor_5/ClassPredictor_depthwise/BatchNorm/FusedBatchNorm/Offset"]}, {"attr": {"T": {"type": "DT_INT32"}, "N": {"i": "4"}, "axis": {"i": "0"}}, "op": "Pack", "name": "BoxPredictor_5/stack", "input": ["BoxPredictor_5/strided_slice", "BoxPredictor_5/stack/1", "Postprocessor/Tile/multiples/1", "BoxPredictor_0/stack/3"]}, {"attr": {"T": {"type": "DT_INT32"}, "N": {"i": "3"}, "axis": {"i": "0"}}, "op": "Pack", "name": "BoxPredictor_5/stack_1", "input": ["BoxPredictor_5/strided_slice", "BoxPredictor_5/stack/1", "BoxPredictor_0/stack_1/2"]}, {"attr": {"T": {"type": "DT_FLOAT"}}, "op": "Relu6", "name": "BoxPredictor_5/BoxEncodingPredictor_depthwise/Relu6", "input": ["BoxPredictor_5/BoxEncodingPredictor_depthwise/BatchNorm/FusedBatchNorm"]}, {"attr": {"T": {"type": "DT_FLOAT"}}, "op": "Relu6", "name": "BoxPredictor_5/ClassPredictor_depthwise/Relu6", "input": ["BoxPredictor_5/ClassPredictor_depthwise/BatchNorm/FusedBatchNorm"]}, {"attr": {"padding": {"s": "U0FNRQ=="}, "strides": {"list": {"i": ["1", "1", "1", "1"]}}, "dilations": {"list": {"i": ["1", "1", "1", "1"]}}, "T": {"type": "DT_FLOAT"}, "data_format": {"s": "TkhXQw=="}, "use_cudnn_on_gpu": {"b": true}}, "op": "Conv2D", "name": "BoxPredictor_5/BoxEncodingPredictor/Conv2D", "input": ["BoxPredictor_5/BoxEncodingPredictor_depthwise/Relu6", "BoxPredictor_5/BoxEncodingPredictor/weights"]}, {"attr": {"padding": {"s": "U0FNRQ=="}, "strides": {"list": {"i": ["1", "1", "1", "1"]}}, "dilations": {"list": {"i": ["1", "1", "1", "1"]}}, "T": {"type": "DT_FLOAT"}, "data_format": {"s": "TkhXQw=="}, "use_cudnn_on_gpu": {"b": true}}, "op": "Conv2D", "name": "BoxPredictor_5/ClassPredictor/Conv2D", "input": ["BoxPredictor_5/ClassPredictor_depthwise/Relu6", "BoxPredictor_5/ClassPredictor/weights"]}, {"attr": {"T": {"type": "DT_FLOAT"}, "data_format": {"s": "TkhXQw=="}}, "op": "BiasAdd", "name": "BoxPredictor_5/BoxEncodingPredictor/BiasAdd", "input": ["BoxPredictor_5/BoxEncodingPredictor/Conv2D", "BoxPredictor_5/BoxEncodingPredictor/biases"]}, {"attr": {"T": {"type": "DT_FLOAT"}, "data_format": {"s": "TkhXQw=="}}, "op": "BiasAdd", "name": "BoxPredictor_5/ClassPredictor/BiasAdd", "input": ["BoxPredictor_5/ClassPredictor/Conv2D", "BoxPredictor_5/ClassPredictor/biases"]}, {"attr": {"Tshape": {"type": "DT_INT32"}, "T": {"type": "DT_FLOAT"}}, "op": "Reshape", "name": "BoxPredictor_5/Reshape", "input": ["BoxPredictor_5/BoxEncodingPredictor/BiasAdd", "BoxPredictor_5/stack"]}, {"attr": {"Tshape": {"type": "DT_INT32"}, "T": {"type": "DT_FLOAT"}}, "op": "Reshape", "name": "BoxPredictor_5/Reshape_1", "input": ["BoxPredictor_5/ClassPredictor/BiasAdd", "BoxPredictor_5/stack_1"]}, {"attr": {"Tidx": {"type": "DT_INT32"}, "T": {"type": "DT_FLOAT"}, "N": {"i": "6"}}, "op": "ConcatV2", "name": "concat", "input": ["BoxPredictor_0/Reshape", "BoxPredictor_1/Reshape", "BoxPredictor_2/Reshape", "BoxPredictor_3/Reshape", "BoxPredictor_4/Reshape", "BoxPredictor_5/Reshape", "Postprocessor/Tile/multiples/1"]}, {"attr": {"T": {"type": "DT_FLOAT"}, "Tidx": {"type": "DT_INT32"}, "N": {"i": "6"}}, "op": "ConcatV2", "name": "concat_1", "input": ["BoxPredictor_0/Reshape_1", "BoxPredictor_1/Reshape_1", "BoxPredictor_2/Reshape_1", "BoxPredictor_3/Reshape_1", "BoxPredictor_4/Reshape_1", "BoxPredictor_5/Reshape_1", "Postprocessor/Tile/multiples/1"]}, {"attr": {"squeeze_dims": {"list": {"i": ["2"]}}, "T": {"type": "DT_FLOAT"}}, "op": "Squeeze", "name": "Squeeze", "input": ["concat"]}, {"attr": {"T": {"type": "DT_FLOAT"}}, "op": "Sigmoid", "name": "Postprocessor/convert_scores", "input": ["concat_1"]}, {"attr": {"Tshape": {"type": "DT_INT32"}, "T": {"type": "DT_FLOAT"}}, "op": "Reshape", "name": "Postprocessor/Reshape_1", "input": ["Squeeze", "Postprocessor/Reshape_1/shape"]}, {"attr": {"T": {"type": "DT_FLOAT"}, "out_type": {"type": "DT_INT32"}}, "op": "Shape", "name": "Postprocessor/Shape", "input": ["Squeeze"]}, {"attr": {"T": {"type": "DT_FLOAT"}, "Index": {"type": "DT_INT32"}}, "op": "Slice", "name": "Postprocessor/Slice", "input": ["Postprocessor/convert_scores", "Postprocessor/Slice/begin", "Postprocessor/Slice/size"]}, {"attr": {"dtype": {"type": "DT_INT32"}, "value": {"tensor": {"dtype": "DT_INT32", "tensorShape": {"dim": [{"size": "2"}]}}}}, "op": "Const", "name": "Postprocessor/Decode/transpose/sub_1", "input": ["^Postprocessor/Reshape_1"]}, {"attr": {"end_mask": {"i": "0"}, "begin_mask": {"i": "0"}, "ellipsis_mask": {"i": "0"}, "Index": {"type": "DT_INT32"}, "T": {"type": "DT_INT32"}, "shrink_axis_mask": {"i": "1"}, "new_axis_mask": {"i": "0"}}, "op": "StridedSlice", "name": "Postprocessor/strided_slice", "input": ["Postprocessor/Shape", "Postprocessor/strided_slice/stack", "Postprocessor/strided_slice/stack_1", "Postprocessor/strided_slice/stack_1"]}, {"attr": {"T": {"type": "DT_FLOAT"}, "Tperm": {"type": "DT_INT32"}}, "op": "Transpose", "name": "Postprocessor/Decode/transpose", "input": ["Postprocessor/Reshape_1", "Postprocessor/Decode/transpose/sub_1"]}, {"attr": {"T": {"type": "DT_INT32"}, "N": {"i": "3"}, "axis": {"i": "0"}}, "op": "Pack", "name": "Postprocessor/Tile/multiples", "input": ["Postprocessor/strided_slice", "Postprocessor/Tile/multiples/1", "Postprocessor/Tile/multiples/1"]}, {"attr": {"T": {"type": "DT_INT32"}, "N": {"i": "3"}, "axis": {"i": "0"}}, "op": "Pack", "name": "Postprocessor/stack", "input": ["Postprocessor/strided_slice", "MultipleGridAnchorGenerator/assert_equal/x", "BoxPredictor_0/stack/3"]}, {"attr": {"num": {"i": "4"}, "T": {"type": "DT_FLOAT"}, "axis": {"i": "0"}}, "op": "Unpack", "name": "Postprocessor/Decode/unstack", "input": ["Postprocessor/Decode/transpose"]}, {"attr": {"T": {"type": "DT_FLOAT"}, "Tmultiples": {"type": "DT_INT32"}}, "op": "Tile", "name": "Postprocessor/Tile", "input": ["Postprocessor/ExpandDims", "Postprocessor/Tile/multiples"]}, {"attr": {"T": {"type": "DT_FLOAT"}}, "op": "Mul", "name": "Postprocessor/Decode/div", "input": ["Postprocessor/Decode/unstack", "ConstantFolding/Postprocessor/Decode/div_recip"]}, {"attr": {"T": {"type": "DT_FLOAT"}}, "op": "Mul", "name": "Postprocessor/Decode/div_2", "input": ["Postprocessor/Decode/unstack:2", "ConstantFolding/Postprocessor/Decode/div_2_recip"]}, {"attr": {"T": {"type": "DT_FLOAT"}}, "op": "Mul", "name": "Postprocessor/Decode/div_1", "input": ["Postprocessor/Decode/unstack:1", "ConstantFolding/Postprocessor/Decode/div_recip"]}, {"attr": {"T": {"type": "DT_FLOAT"}}, "op": "Mul", "name": "Postprocessor/Decode/div_3", "input": ["Postprocessor/Decode/unstack:3", "ConstantFolding/Postprocessor/Decode/div_2_recip"]}, {"attr": {"Tshape": {"type": "DT_INT32"}, "T": {"type": "DT_FLOAT"}}, "op": "Reshape", "name": "Postprocessor/Reshape", "input": ["Postprocessor/Tile", "Postprocessor/Reshape_1/shape"]}, {"attr": {"T": {"type": "DT_FLOAT"}}, "op": "Exp", "name": "Postprocessor/Decode/Exp_1", "input": ["Postprocessor/Decode/div_2"]}, {"attr": {"T": {"type": "DT_FLOAT"}}, "op": "Exp", "name": "Postprocessor/Decode/Exp", "input": ["Postprocessor/Decode/div_3"]}, {"attr": {"dtype": {"type": "DT_INT32"}, "value": {"tensor": {"dtype": "DT_INT32", "tensorShape": {"dim": [{"size": "2"}]}}}}, "op": "Const", "name": "Postprocessor/Decode/get_center_coordinates_and_sizes/transpose/sub_1", "input": ["^Postprocessor/Reshape"]}, {"attr": {"T": {"type": "DT_FLOAT"}, "Tperm": {"type": "DT_INT32"}}, "op": "Transpose", "name": "Postprocessor/Decode/get_center_coordinates_and_sizes/transpose", "input": ["Postprocessor/Reshape", "Postprocessor/Decode/get_center_coordinates_and_sizes/transpose/sub_1"]}, {"attr": {"num": {"i": "4"}, "T": {"type": "DT_FLOAT"}, "axis": {"i": "0"}}, "op": "Unpack", "name": "Postprocessor/Decode/get_center_coordinates_and_sizes/unstack", "input": ["Postprocessor/Decode/get_center_coordinates_and_sizes/transpose"]}, {"attr": {"T": {"type": "DT_FLOAT"}}, "op": "Sub", "name": "Postprocessor/Decode/get_center_coordinates_and_sizes/sub_1", "input": ["Postprocessor/Decode/get_center_coordinates_and_sizes/unstack:2", "Postprocessor/Decode/get_center_coordinates_and_sizes/unstack"]}, {"attr": {"T": {"type": "DT_FLOAT"}}, "op": "Sub", "name": "Postprocessor/Decode/get_center_coordinates_and_sizes/sub", "input": ["Postprocessor/Decode/get_center_coordinates_and_sizes/unstack:3", "Postprocessor/Decode/get_center_coordinates_and_sizes/unstack:1"]}, {"attr": {"T": {"type": "DT_FLOAT"}}, "op": "Mul", "name": "Postprocessor/Decode/mul_2", "input": ["Postprocessor/Decode/div", "Postprocessor/Decode/get_center_coordinates_and_sizes/sub_1"]}, {"attr": {"T": {"type": "DT_FLOAT"}}, "op": "Mul", "name": "Postprocessor/Decode/get_center_coordinates_and_sizes/div", "input": ["Postprocessor/Decode/get_center_coordinates_and_sizes/sub_1", "ConstantFolding/Postprocessor/Decode/div_4_recip"]}, {"attr": {"T": {"type": "DT_FLOAT"}}, "op": "Mul", "name": "Postprocessor/Decode/mul_3", "input": ["Postprocessor/Decode/div_1", "Postprocessor/Decode/get_center_coordinates_and_sizes/sub"]}, {"attr": {"T": {"type": "DT_FLOAT"}}, "op": "Mul", "name": "Postprocessor/Decode/get_center_coordinates_and_sizes/div_1", "input": ["Postprocessor/Decode/get_center_coordinates_and_sizes/sub", "ConstantFolding/Postprocessor/Decode/div_4_recip"]}, {"attr": {"T": {"type": "DT_FLOAT"}}, "op": "Add", "name": "Postprocessor/Decode/get_center_coordinates_and_sizes/add", "input": ["Postprocessor/Decode/get_center_coordinates_and_sizes/unstack", "Postprocessor/Decode/get_center_coordinates_and_sizes/div"]}, {"attr": {"T": {"type": "DT_FLOAT"}}, "op": "Mul", "name": "Postprocessor/Decode/div_4", "input": ["Postprocessor/Decode/get_center_coordinates_and_sizes/div", "Postprocessor/Decode/Exp_1"]}, {"attr": {"T": {"type": "DT_FLOAT"}}, "op": "Add", "name": "Postprocessor/Decode/get_center_coordinates_and_sizes/add_1", "input": ["Postprocessor/Decode/get_center_coordinates_and_sizes/unstack:1", "Postprocessor/Decode/get_center_coordinates_and_sizes/div_1"]}, {"attr": {"T": {"type": "DT_FLOAT"}}, "op": "Mul", "name": "Postprocessor/Decode/div_5", "input": ["Postprocessor/Decode/get_center_coordinates_and_sizes/div_1", "Postprocessor/Decode/Exp"]}, {"attr": {"T": {"type": "DT_FLOAT"}}, "op": "Add", "name": "Postprocessor/Decode/add", "input": ["Postprocessor/Decode/mul_2", "Postprocessor/Decode/get_center_coordinates_and_sizes/add"]}, {"attr": {"T": {"type": "DT_FLOAT"}}, "op": "Add", "name": "Postprocessor/Decode/add_1", "input": ["Postprocessor/Decode/mul_3", "Postprocessor/Decode/get_center_coordinates_and_sizes/add_1"]}, {"attr": {"T": {"type": "DT_FLOAT"}}, "op": "Sub", "name": "Postprocessor/Decode/sub", "input": ["Postprocessor/Decode/add", "Postprocessor/Decode/div_4"]}, {"attr": {"T": {"type": "DT_FLOAT"}}, "op": "Add", "name": "Postprocessor/Decode/add_2", "input": ["Postprocessor/Decode/add", "Postprocessor/Decode/div_4"]}, {"attr": {"T": {"type": "DT_FLOAT"}}, "op": "Sub", "name": "Postprocessor/Decode/sub_1", "input": ["Postprocessor/Decode/add_1", "Postprocessor/Decode/div_5"]}, {"attr": {"T": {"type": "DT_FLOAT"}}, "op": "Add", "name": "Postprocessor/Decode/add_3", "input": ["Postprocessor/Decode/add_1", "Postprocessor/Decode/div_5"]}, {"attr": {"T": {"type": "DT_FLOAT"}, "N": {"i": "4"}, "axis": {"i": "0"}}, "op": "Pack", "name": "Postprocessor/Decode/stack", "input": ["Postprocessor/Decode/sub", "Postprocessor/Decode/sub_1", "Postprocessor/Decode/add_2", "Postprocessor/Decode/add_3"]}, {"attr": {"dtype": {"type": "DT_INT32"}, "value": {"tensor": {"dtype": "DT_INT32", "tensorShape": {"dim": [{"size": "2"}]}}}}, "op": "Const", "name": "Postprocessor/Decode/transpose_1/sub_1", "input": ["^Postprocessor/Decode/stack"]}, {"attr": {"T": {"type": "DT_FLOAT"}, "Tperm": {"type": "DT_INT32"}}, "op": "Transpose", "name": "Postprocessor/Decode/transpose_1", "input": ["Postprocessor/Decode/stack", "Postprocessor/Decode/transpose_1/sub_1"]}, {"attr": {"Tshape": {"type": "DT_INT32"}, "T": {"type": "DT_FLOAT"}}, "op": "Reshape", "name": "Postprocessor/Reshape_2", "input": ["Postprocessor/Decode/transpose_1", "Postprocessor/stack"]}, {"attr": {"Tdim": {"type": "DT_INT32"}, "T": {"type": "DT_FLOAT"}}, "op": "ExpandDims", "name": "Postprocessor/ExpandDims_1", "input": ["Postprocessor/Reshape_2", "Postprocessor/ExpandDims_1/dim"]}], "library": {}, "versions": {}}}